saved_CNN.pt (torch, 906367 bytes, 10 tensors)

c1.weight f4 [64, 3, 7, 7]
00000000: 14ae 8dbd 6a09 b8bd 7bd0 bbbd 6185 97bd
00000010: bfab c3bd 12f4 babd ce0e 8abd e2c6 31bc
00000020: 70d8 853d a01b 0dbb 8eab a7bd 01da ca3c
00000030: 7b25 123d 6701 163d edc8 c2bd 7233 773d
00000040: 4307 b4bd 964b 84bb 8a08 78bc 28eb 35bd
00000050: da59 e9bc 636f 353d 7730 a83c ca04 fbbb
00000060: 85d0 923c 3df8 593d b486 b8bb 3ae8 903d
00000070: f5b4 a23c 8131 46bd fca6 8e3d 3048 163d
00000080: 30ae 4bba c183 1cbc 687c 913d 8f0e 53bc
00000090: 2ccc c03d 22e4 d23d 3f81 0d3d abdd 8b3d
000000a0: 205b 0f3d dcd8 14bc b410 7e3d a658 57bd
000000b0: 230c 143d 608e f6bb 12a5 163d c172 4c3d
000000c0: 860d e5bc 2273 37bb b7c8 903b 6113 103d
000000d0: 3afd 823d 6643 5cbd 499d 313d 2beb 09bd
000000e0: 2d3c d4bc a882 a53d 2098 16bd 4605 8eba
000000f0: 749f 83bc 8dc2 053b e997 433d 7159 8a3d
00000100: f12d 893d 6979 993d 111e 033c accd 31bc
00000110: cc66 7a3d 2611 c43d bf50 7fbd 321f 703d
00000120: 0c02 57bb 381f a93c 5039 84bd 4fc1 19bd
00000130: 90b0 703d aa59 3e3d cf0f 8d3c 8868 643d
00000140: 990c c1bd 5cba 90bd 2e3a a23c 3ce7 143d
00000150: 9780 ad3d 5aec fe3d c0e9 833d 9c06 d3bc
00000160: 7166 c23d 3d3c fb3d a3e1 cb3c 25ab b0bb
00000170: ca9b 31bd adbd 683d e6f4 c73d e4f1 0c3e
00000180: 01fe 383d 8d83 d8bd 008e 3cbd 4796 a7bd
00000190: 4787 c1bd 51bd babc 9cf4 183d 9dfb 9ebd
000001a0: dcfd 13bc 212a 8ebd a58e 993d 83ea efbc
000001b0: 8e5a 73bd bfba cd3c 4211 80bd 5c02 a1bd
000001c0: 9c16 843d 600d 4ebd e3d7 96bd 6177 653c
000001d0: a2ab 3c3d 2bd0 a6bd f96c bc3d 0a6a 41bd
000001e0: 9a98 ccbd 2d4c cebd ab57 7bbd c3f4 80bd
000001f0: 9f39 86bc 0195 9e3d 2a31 d03c a8ef a7bc
00000200: 9997 4ebd 4c57 eabc f8d7 60bd 813c 793d
00000210: cb35 303c e1a5 2e3d 40a0 323b 1cdb bc3d
00000220: dfdf 89bd 59d6 083d 3d22 683d 17fa 9f3c
00000230: 24d3 82bd 9c6b fb3c 1ded f4bb b38a 073e
00000240: ed16 fe3d d254 433d 551c 2ebc 1f81 0b3d
00000250: 6882 7d3d 6e66 49bd e397 57bd c649 143e
00000260: 17b7 033e aa52 9a3c 6890 9dbc 2ea9 f6bd
00000270: a3d8 a4b9 a302 88bd 1547 c9bc f976 8b3d
00000280: 4a53 093b e1a6 00bd 18fe 30bd e97f 863d
00000290: 9b28 773c 7241 13be 9c77 00be 877f ed3d
000002a0: 1ce6 963d a561 f3bb 999c f5bd 7c50 e6bb
000002b0: 2fce cdbd cfdb 9f3c 6c04 b9bc bf39 473d
000002c0: f75c 3fbc 80ae bfbc 3cc0 ae3c cae3 05bd
000002d0: 4d0e 3b3d 087c 16bd 0066 163a 12ed 293c
000002e0: 758c a63d 5189 743d 20cd d93a 1985 5cbd
000002f0: cd4c 923c a5af 153d f7bc a43c d208 72bb
00000300: 72ad ec3b fd4d 233d d783 41bc d789 033d
00000310: 07be 9dbd 9427 37bc bcdd 933d f97d 603d
00000320: b699 0f3e 3dbc eb3d eecc df3a e9cd 8abd
00000330: b8fa b0bd fb51 9f3d 97b5 acbd 5666 cbbc
00000340: a15f af3d b583 d53d 01c5 963c 3af5 1b3d
00000350: 56f8 c4bc ddac ea3d b45b 67bd 6079 abbd
00000360: a8c8 e43d de10 c33d 09c4 3c3d 4e6a 15bd
00000370: e949 0d3d 0587 9d3b 30c4 89bd 5181 85bc
00000380: ffdc a53d 857f 66bd 0c1e 61bc 5c3e ac3b
00000390: 9356 cebd d85c 873d 07c0 c4bd 541e b0bd
000003a0: 14b8 c03c c636 21bd 0153 5ebd 4842 693d
000003b0: dce8 90bd 2026 debd 8715 01be 69d0 00bd
000003c0: e6e1 063d e56c 7cbc 4900 cfbb 3c13 36bd
000003d0: e7d0 3a3d 30fc 013b 4298 cbbc da23 923c
000003e0: 4e2f 82bd 54b6 833d 6a11 313d 478d 08be
000003f0: 44f2 5bbd 44e9 ccbd 5743 76bd 612d 92bd
-0.069179684 -0.089861706 -0.09170624 -0.07398487 -0.09554242 -0.09128584 -0.06741105 -0.01085064
0.06535423 -0.0021531358 -0.08187018 0.024762155 0.035680275 0.03662243 -0.0951098 0.060351796
-0.087904476 -0.004037331 -0.015138755 -0.044413716 -0.028485227 0.04429568 0.020530922 -0.007660483
0.017921695 0.053215254 -0.0056312922 0.07075544 0.019861678 -0.048387054 0.069654435 0.036689937
-0.00077697914 -0.009552897 0.07103807 -0.012881889 0.09413943 0.10297419 0.034547087 0.06829389
0.034999013 -0.009084906 0.062027648 -0.052574776 0.036144387 -0.0075242966 0.036778517 0.049914125
-0.02796055 -0.0027992208 0.0044184583 0.03517473 0.063959554 -0.053775214 0.04336289 -0.03367154
-0.0259076 0.08081561 -0.03676617 -0.0010835312 -0.016067244 0.002041015 0.047752295 0.06755341
0.06698216 0.0749386 0.008002774 -0.010852259 0.06113319 0.09573583 -0.062332865 0.0586235
-0.0032807617 0.02064477 -0.06456244 -0.03753787 0.058762133 0.04647223 0.017219452 0.05576375
-0.09426231 -0.07066795 0.019803133 0.036353335 0.08471792 0.12447424 0.06441069 -0.025759988
0.094921954 0.12267349 0.024887865 -0.005391496 -0.043361463 0.056821514 0.097635075 0.13764149
0.045164112 -0.10571966 -0.04603386 -0.0818296 -0.0944963 -0.022795351 0.037342653 -0.07762835
-0.009032693 -0.06941629 0.074979104 -0.029286629 -0.05941253 0.025113462 -0.06253292 -0.07861778
0.06449625 -0.050305724 -0.07365396 0.014005513 0.04606212 -0.08145174 0.092004724 -0.047220267
-0.09990044 -0.10073123 -0.061362904 -0.062966846 -0.016384898 0.07743264 0.025414068 -0.02050002
-0.050437544 -0.02860608 -0.054893464 0.060848717 0.010755013 0.042638663 0.002725616 0.09221479
-0.06732153 0.033407543 0.056673277 0.019528432 -0.06387928 0.03069096 -0.007474555 0.13236503
0.124067165 0.047688313 -0.010626872 0.034058686 0.061891943 -0.04916995 -0.052635085 0.14481267
0.12862812 0.018838245 -0.019233897 -0.12043987 -0.00031441925 -0.06641128 -0.024570027 0.068098016
0.0020954185 -0.031409148 -0.043211073 0.06567366 0.015085365 -0.14380434 -0.12545627 0.115965895
0.07368109 -0.0074274116 -0.11992759 -0.0070286375 -0.10049092 0.019513993 -0.022585116 0.048639055
-0.011679879 -0.023398638 0.021331899 -0.03268794 0.045667935 -0.03673938 0.0005737245 0.010371463
0.08132259 0.059701268 0.0016616918 -0.05383787 0.017858887 0.03654446 0.020109637 -0.0036931527
0.0072228247 0.039869297 -0.011811218 0.032113876 -0.077022605 -0.01117887 0.07220027 0.054807637
0.1402348 0.11510513 0.0017074624 -0.067775555 -0.08641571 0.077793084 -0.08433073 -0.024829071
0.08563162 0.10425512 0.018404486 0.038075663 -0.024044197 0.11458752 -0.05648394 -0.0837276
0.11171085 0.095247015 0.04608539 -0.036478333 0.034494314 0.0048073553 -0.06726873 -0.016297014
0.08098792 -0.056273956 -0.013740074 0.0052564573 -0.100751065 0.066095054 -0.09606939 -0.08599535
0.023525275 -0.039358877 -0.054278377 0.056947976 -0.070756644 -0.108471155 -0.12605868 -0.031448755
0.032930277 -0.015406822 -0.0063171727 -0.044451937 0.04560938 0.0019834153 -0.024852876 0.017839361
-0.06356679 0.06431261 0.043229498 -0.13335143 -0.05369784 -0.100054294 -0.060122814 -0.071375616

c1.bias f4 [64]
00000000: 7425 1bbe 50fe 8abd 882f e6bd 95d1 09be
00000010: 3c53 a1bd 23c5 a2be 3ede 143e 837e a3bd
00000020: c3d2 49bd a253 87be 2f91 74be b6ea 94bd
00000030: 99aa 62be 271f 3ebe 9228 ebbd b1ed 7cbe
00000040: 1221 c1be 313c 0c3e 5538 1fbe d993 0e3d
00000050: ab3a 9f3d 827e 16be 5cb6 a9bd 8820 98bd
00000060: 60c5 2dbe ab6e c7bd 220e 373d e924 3cbe
00000070: 26f0 24be 2297 2ebe 72ee 13be a453 9a3d
00000080: 8204 8ebd 03af 31be 6d01 5dbe d60e a2bd
00000090: 17ce 783c 94a4 883e 7e4a 8bbd 287b 6b3d
000000a0: bf6b f3bd bcf4 adbe f65f a5bd bae6 37bd
000000b0: 5c57 e4bd ba9f f63d 3cfa 41bd bed8 73be
000000c0: 1caf 1abe ef62 56be 333d 70be 1a58 d6be
000000d0: bfed d8bd a2d7 cfbe 1674 c3bd d6e2 5bbe
000000e0: b463 d4bd 4c04 f7bd 46c6 10be 7d92 27be
000000f0: 0400 07be 0cbf b2be 9694 5ebe 4aed d6be
-0.15151006 -0.067867875 -0.112395346 -0.13458855 -0.07877204 -0.31791028 0.14537904 -0.079831146
-0.049273264 -0.26430994 -0.23883508 -0.0727133 -0.2213539 -0.18566571 -0.114823475 -0.24700047
-0.37720543 0.13694836 -0.15548833 0.034808967 0.07774862 -0.14696696 -0.082867354 -0.0742808
-0.16969824 -0.09737905 0.044691212 -0.18373455 -0.16107234 -0.1704984 -0.14446428 0.075354844
-0.069344535 -0.17351918 -0.21582575 -0.07912986 0.015185854 0.26688063 -0.06801318 0.057490498
-0.11885785 -0.3397578 -0.08074944 -0.044897772 -0.11149475 0.12042184 -0.047357783 -0.2381315
-0.15105861 -0.20936178 -0.23460846 -0.4186409 -0.105922215 -0.40594202 -0.09543626 -0.2147325
-0.10370579 -0.120613664 -0.14138135 -0.16364475 -0.131836 -0.34911382 -0.21736369 -0.41977912

c2.weight f4 [64, 64, 5, 5]
00000000: 0adf 5abb cf53 9f39 0696 04bd 85b6 0bbd
00000010: 6432 a13c 1c29 ac3c ae5f a43c e536 c93b
00000020: 5000 6d3b ebb6 1e3d 1880 dfbc 541d 7bbc
00000030: 0ac2 c83b 570e a3bb 22d1 d5bc 8f27 26bd
00000040: 8369 08bd 3634 9339 36b2 3a3c 4e6c 1fbd
00000050: 1fb0 36bc 6743 3dbd 219c 43bc 7716 71bc
00000060: 09e9 91bc 35a0 2abd 7fda 77bc 75a8 733c
00000070: e055 aabc 6f77 b4bc f13e f7bc 40de 58bc
00000080: d0be 9b3c d632 dabc ac5a 023c 029f e8bc
00000090: 9a72 6c3c a8ae 2f3c 61d8 bfbc 6caf d53a
000000a0: 05ac abbc ef79 633c 9377 ed3a 7b0a c0bb
000000b0: 1d34 05bc 281b 813c 583e 033d 3229 873c
000000c0: e69f 6b3a 4578 393b 918e aabc d1c1 c93c
000000d0: bd5b 043d 444e 39bc a5c7 06bc 0083 123c
000000e0: 8ad0 d33b 487b 2e3c 99ee 11bb 0cb4 dfbc
000000f0: d818 0b3d c4d8 513a 08d3 213c 307e b63c
00000100: 14b1 e3bc 6b23 f63c 52fa 59bc 622c 3d3c
00000110: 62a7 f0ba 49c1 80bc 8141 063a 42cd 5a3c
00000120: be8b 553c 6f01 b23c 6436 01bd 0f30 fa3c
00000130: 8a0d ddba d4a1 d6bc d8ce 223c fe0e 3ebb
00000140: 8e2f 863d caf5 22bb 8fa4 003c 57ba b23c
00000150: 5bd1 b93d e424 893c 0703 c2bc 18aa 52bc
00000160: 3059 90bc e1a6 613d 5124 4f3d d23f 89bc
00000170: 80d8 0abd 1f82 533d d226 23bd be34 8b3c
00000180: 2581 0a3d 7f13 263d 1292 163d ba06 333b
00000190: fc45 80bb 6504 4dbb 806e bcbc 6be7 2bbd
000001a0: fcd9 c8bc 4dd7 393a 1095 913a 71b3 b8bb
000001b0: 6934 aabc 41d5 d639 e53f ad3b 8018 483d
000001c0: caa3 123d 3405 0cbc bc4f d9bc 3107 af3b
000001d0: 69c0 873c b8b4 b33c ee46 ae3c 1e89 b63b
000001e0: aca9 813b c8f3 933d e222 0c3d 46d1 973c
000001f0: 439e 68bc 13d0 db3c 51db abb8 4c9c 8c3c
00000200: 5c9f 2e3c e732 3a3c 9ebc 533d 25a2 fc3c
00000210: 10f6 953c 0b1c 553c 28da f6bb 64d6 1d3d
00000220: 2059 763a ce40 d3bc 73a9 083c d4f6 05bb
00000230: 2f77 00bb 518f 863c 403b 68bd 6019 8cbc
00000240: 1721 e2bc d7b7 29bc 8e53 45bd 66fa b7bc
00000250: 0b7c 1f3c fffe 10bd 3f79 e1bc 9caf 67bd
00000260: 7fb4 95bd abb7 07bd 30bd 513a 271c 4f3b
00000270: ffe6 02bd 8701 53bd 4eb5 a1bd c4e8 66bd
00000280: 669b 24bc c516 aebc d6cd 43bc f188 2bbd
00000290: c3b8 21bd f6c5 cdbb 3cca e7bb 50c4 0fbd
000002a0: 32ca 57bd bc32 35bd 00e0 9dbc 53bd a2bc
000002b0: 62d4 c7bc cbaf cc3b 0ef3 22bd d10f cbbc
000002c0: be02 0f3c 5059 6e3c 196b 963c 5f63 c4bb
000002d0: 13bc 1bbc 86c0 d5bb 2bb3 5ebc 1dfa 89bc
000002e0: a5ec 10bd afae 0bbc 0d50 41bd f6ab 71bc
000002f0: d37b a5bc 5c6a 96bc 6fd4 10bd fec6 42bc
00000300: e8a0 c2bc f6c9 1c3c 100c 06bd 5fa2 fc3c
00000310: b0c2 de3b c3cf 45ba 84a8 333c 0c13 59bb
00000320: 8db1 e73c 7409 cc3b 5464 f8ba 3e27 1dbb
00000330: 3c6c 943c f9c8 02b9 6194 8a3c ee13 ae3b
00000340: 6ecd 013d 4399 c9bc b8aa 123c 6006 6e3c
00000350: 539e 7f3c aa18 133d 118f cabc 58e3 fb3a
00000360: 71e0 2d3c 871e c33c abf8 0fbd f855 0dbd
00000370: bb01 4b3c e69c 523d 8530 a63d e530 473c
00000380: bca8 55bc e26d 77bb adf8 68bc 9b56 33bd
00000390: 062c 6fbd e0dd a2bc cf82 a9bc 1d1d 4b3c
000003a0: c894 223c c908 79bc 8b37 313a ddf0 ecbc
000003b0: 108f 4fbd 2f45 26bd ad93 113c 15f1 20bd
000003c0: 7f67 71bc 9c6b 63bd a367 c0bc 21dd f7bc
000003d0: 5759 12bd 7aad 70bd bfef b6bc d105 b33c
000003e0: 507b 24bc 572d a0bd 4c2b 7c39 c6d0 1cba
000003f0: 22df 75bd 663b 9cbc c694 87bc 9970 3abb
-0.0033397102 0.00030389286 -0.032369636 -0.03410961 0.019677348 0.021015696 0.020065155 0.006140577
0.0036163516 0.038748663 -0.02728276 -0.015326817 0.006126647 -0.0049760747 -0.026100699 -0.04056507
-0.03330375 0.00028076925 0.011395028 -0.038921647 -0.011150389 -0.046206858 -0.0119390795 -0.014714829
-0.017811315 -0.04165669 -0.015127777 0.014871706 -0.020792902 -0.022029607 -0.03018138 -0.013236582
0.019011885 -0.026635569 0.007956188 -0.028396133 0.01443162 0.010722794 -0.023418607 0.001630289
-0.020956049 0.013884052 0.0018117301 -0.0058606244 -0.008130101 0.01576002 0.032041878 0.016499136
0.00089883653 0.0028300446 -0.020819934 0.024628552 0.03231405 -0.011310164 -0.00822631 0.008942366
0.006464069 0.01064951 -0.002226746 -0.027307533 0.03395924 0.0008005018 0.009876974 0.022276968
-0.027794398 0.030046185 -0.01330431 0.011546226 -0.0018360431 -0.015717166 0.0005121455 0.013354601
0.013033805 0.0217292 -0.03154601 0.030540494 -0.0016864997 -0.026200213 0.009937011 -0.0029000635
0.06552039 -0.002486574 0.007851734 0.02181737 0.090731345 0.016741224 -0.023683084 -0.012857936
-0.017620653 0.05509079 0.050571743 -0.016754065 -0.033897877 0.051637765 -0.039831944 0.016992923
0.033814568 0.040545937 0.036760397 0.0027317242 -0.003914593 -0.0031283137 -0.02300191 -0.041968744
-0.024518006 0.0007089272 0.0011107046 -0.0056366255 -0.020776944 0.00040976147 0.005287158 0.04885149
0.035800733 -0.008546162 -0.026527278 0.0053414335 0.01657124 0.02193676 0.021274056 0.005570545
0.003956994 0.07224232 0.034212954 0.018532407 -0.014197889 0.026832616 -8.194766e-05 0.017164372
0.010658111 0.011364675 0.05169355 0.030839035 0.018305808 0.013007174 -0.0075333305 0.038534537
0.0009397436 -0.025787737 0.008341181 -0.002044131 -0.001960229 0.01642576 -0.05669713 -0.017101943
-0.02760367 -0.010358772 -0.048175387 -0.022458266 0.009734164 -0.035399433 -0.027523635 -0.05656396
-0.073098175 -0.033134144 0.00080009084 0.0031602473 -0.031958576 -0.05151513 -0.07895909 -0.056374326
-0.0100468155 -0.021251092 -0.011950931 -0.041878644 -0.039482843 -0.0062797023 -0.0070736688 -0.035099328
-0.052683063 -0.044237837 -0.01927185 -0.019865667 -0.024393264 0.006246542 -0.039782576 -0.024787815
0.008728681 0.014547661 0.018361615 -0.0059932913 -0.00950529 -0.0065231947 -0.013592522 -0.016842896
-0.03538193 -0.0085255345 -0.047195483 -0.014750471 -0.020200646 -0.018361263 -0.035358842 -0.011888264
-0.023758367 0.009569636 -0.032726347 0.030839143 0.006798111 -0.00075459125 0.01096547 -0.0033122925
0.028282905 0.006226713 -0.0018950799 -0.002397969 0.018118016 -0.00012472634 0.016916456 0.0053124344
0.031690054 -0.024609214 0.008951835 0.014527887 0.015601712 0.035912193 -0.024726423 0.0019217534
0.010612593 0.023818268 -0.035149258 -0.034505814 0.012390549 0.05141916 0.08114723 0.012157653
-0.013040718 -0.0037754704 -0.014219445 -0.043783765 -0.058391593 -0.019881189 -0.020692257 0.012397078
0.0099231675 -0.015199848 0.00067602907 -0.028923446 -0.050673544 -0.040593322 0.008885306 -0.039292414
-0.014734148 -0.055522546 -0.023486918 -0.03025681 -0.035729732 -0.05875919 -0.022331117 0.02185336
-0.010039166 -0.07821148 0.00024048722 -0.00059820374 -0.06002725 -0.019071292 -0.016550433 -0.002844846

c2.bias f4 [64]
00000000: 5c4f 063e 69c9 393c 96b8 883d 8aa5 c4bd
00000010: e569 463e f6dc 633e da00 10be c800 8fbe
00000020: 559c 0f3e 59dd f5bb 28a5 7b3d bfb5 523e
00000030: 0119 a23c 9ba0 8abd b95e 7abe edf6 40bd
00000040: 5dae 893d 031f 20bd 8464 c2bb 9763 99bd
00000050: 8994 ccbd a40c 633d e410 f93c 3997 bebd
00000060: 0b88 61bd cca7 023e 68db 883c 9861 2abd
00000070: 32db 4ebe 3fab b8bb d35a 8cbe fd18 14be
00000080: de66 b3bc 4b5d 813c a434 94bd af18 14bd
00000090: cc10 90bd 4a34 aabd c3fc bebd af76 26be
000000a0: ee83 fb3c 1945 8b3d 4cdf 70be 85eb ed3d
000000b0: 8c80 07be 1383 56bd 4666 b93d b3cc dab9
000000c0: 79fb 4ebd 969f bbbd 6f57 a3bd 6150 713d
000000d0: 3721 48bc 07f9 4dbe 6ead 60bb b880 81bd
000000e0: c30c 90bd 5992 e23c 61ad 253e e127 e03d
000000f0: d36c 05bd e627 d93d e8a4 8d3e 0bdc 383e
0.1311621 0.011339524 0.06675832 -0.096018866 0.19376333 0.22252259 -0.14062825 -0.27930284
0.1402448 -0.0075031933 0.061436802 0.20577143 0.019787313 -0.06768914 -0.24450196 -0.047110487
0.0672271 -0.039092075 -0.0059323926 -0.074896984 -0.09989268 0.055431977 0.030403562 -0.09306187
-0.05506138 0.12759322 0.016706184 -0.04159698 -0.20200804 -0.0056356485 -0.27413043 -0.14462657
-0.021899637 0.015791556 -0.07236603 -0.036156353 -0.07034454 -0.083107546 -0.09325554 -0.16256212
0.030702557 0.06800289 -0.23522681 0.116171874 -0.1323263 -0.052371096 0.0905271 -0.00041732713
-0.05053279 -0.09161298 -0.07975661 0.058914546 -0.01221495 -0.20114528 -0.003428306 -0.06323379
-0.07033684 0.027657675 0.1617942 0.10945106 -0.032574486 0.10603313 0.27664876 0.1805269

c3.weight f4 [64, 64, 3, 3]
00000000: f17b 883b 0b68 263d 507f 24bd 466b 933b
00000010: 9031 9f3d a26a 803d 3a20 24bd 06e5 b1bc
00000020: be05 bcbc d550 813c f4f0 0dbd 8706 f3bb
00000030: cac2 30bc c2fe 87bc feef 6ebb c5b9 783c
00000040: 8328 4ebd 99e9 efbd aa05 2b3c 258b 03bc
00000050: d8ca f3bc 190b e1bc 6585 9cbc 0823 793c
00000060: 1802 06bc ad6b 123d 8f87 da3c 1d67 e1bb
00000070: 6458 23bd d1af 6d3c d0f7 273c 3d97 89bd
00000080: dcca f3bc f713 473d 9a92 89bc e65f 423d
00000090: 6738 85bd 46f2 cdbd b4c5 17bd 3742 bc3c
000000a0: 5432 4ebd fc69 8fbd bf98 1fbd af19 963c
000000b0: b58f 2fbd 2533 573c 498c 963b ca53 65bc
000000c0: c855 1ebd 5b62 96bd b330 d2bc eee6 8bbc
000000d0: a7a4 72bc ecea 03bd de2c dabc d044 f4bc
000000e0: e319 6b3c b8d2 333d c813 5fbd 04f8 94bd
000000f0: c34e 83bd f57a 673d d681 483a f028 2e3d
00000100: edac 21bd 7f0f a6bc d825 0abe ced5 a5bd
00000110: 856d 53bd f083 513c 64d1 2d3e d942 2c3e
00000120: e7a8 b2bc f2ec 4abc b76a 13bd 5ad4 373b
00000130: cfa3 0cbd 611e b8bd 3f63 023d 3b7c 8cbd
00000140: 9dbe 67bd 2e7a 26bd 229a bf3c d448 1cbd
00000150: 9f2a 393d 45e5 793d 7c56 023d a231 4c3d
00000160: 0954 22bd 4f22 9b3c a542 193d 2afe c0bc
00000170: 39c8 103d fc27 803d 5923 253c 7f1d a83d
00000180: 7efa 763d 77c0 bfbd 5a80 e33c 8bf8 89bd
00000190: 8590 90bc 1640 2dbc b178 0fbd a617 403d
000001a0: 35a2 283a 7870 8d3d 562b 313d 41f6 0abc
000001b0: 3f0d 01bd 183d 4bbd 4559 93bc e9e3 5f3d
000001c0: 02b8 49bd ad4c edbb 8290 b03d 4395 2ebd
000001d0: 6d7d 6c3c 53fa 26bb daa9 b83c 9334 193b
000001e0: 1408 a93d 12b4 10bd dcb1 143d 2d17 673d
000001f0: 8c5b d0bd 3c2f 91bc 377d debc 9736 0d3c
00000200: 1957 e5bb 7a50 173c bad3 3d3c 7ebd 813d
00000210: 3e78 113d d3ec 713c b682 27bd df35 c5bc
00000220: fd03 4abc bf23 7cbd 11f8 743d c58b 2ebd
00000230: 91b1 03be 89a0 f03a 363c 5e3d 7c37 5d3d
00000240: 7009 77bb dbb8 b3bc cc10 52bc dd61 6d3d
00000250: c37d ebbc 8fc7 123d a530 123e d169 083d
00000260: a601 1abd 194f 69bc 17ef 64bd e263 73bd
00000270: 610d 683d 18f7 d2bd f0aa 84bc 5cc5 b4bc
00000280: 1818 cdbd 89e0 62bd aa5f bb3c c59a eb3c
00000290: 6e6b 8b3d 3f56 37bc afc9 713c f8b7 e93b
000002a0: b76d 8cbd c1c2 8f3d 3e2b 9b3c e194 bd3c
000002b0: 3f00 29bd 7cbe b5bc 161e 683d 01bf 95bd
000002c0: c542 ca3b 4572 5d3d a634 cdbc b12c 5e3d
000002d0: 2c14 d6bb 3df0 423d 8fcd ce3c 81a7 c83d
000002e0: 2074 173c 30f7 533d b505 08ba 56d8 d8bd
000002f0: ecca 1fbd 9a93 873c e08b 88bc 88c2 f6bc
00000300: b770 693d 60d7 e7bc 9919 e73c 2281 babd
00000310: 8c63 0abd 9ca3 4b3d 2ea7 e4bc 85d5 f83b
00000320: 61bf cf3c 85df 83bc 076b a9bc 0582 f23c
00000330: cde0 223a a951 223d 7add 543d 4c0d cc3c
00000340: 4ed4 66bc 7b22 ccbc 43c4 06bd 799e 90bc
00000350: 0eaf 663b 3d42 4f3d bbc5 3b3a 85a2 8e3d
00000360: da48 ad3c 2b21 6a3b 4da4 39bc 048f 02bc
00000370: a009 463d 333d aa3d 7cfd 12bd 3f23 03be
00000380: 38b0 9d3c 39f0 ec3c 36c8 933b 4c49 cabc
00000390: 0fec b6ba 463b ffbb 230b 25bd 6bef 1b3a
000003a0: 3c7d 3c3c 8824 663d 699e b7bc 01c7 01bd
000003b0: d5a0 373d 7189 133a e912 f43c 21b6 7b3c
000003c0: fa48 493b cad8 103d a4d3 473c 90f3 2bbd
000003d0: 82a2 1839 869c 953b 06c3 91bd d917 12be
000003e0: 8f65 22be f24f efbc fabc 893d 2012 9f3c
000003f0: 4709 253a 5d7c 34bd 1c39 ed39 1111 b8bc
0.0041651656 0.040626567 -0.040160477 0.004498872 0.07773125 0.062703386 -0.040069796 -0.021715652
-0.022951957 0.015785614 -0.03465362 -0.0074165496 -0.010788629 -0.01660097 -0.0036458964 0.01518101
-0.050331604 -0.11714477 0.010438362 -0.00802878 -0.02975981 -0.027471112 -0.019106576 0.015206106
-0.00817921 0.03574722 0.026675967 -0.006878747 -0.039879218 0.01450725 0.010251954 -0.067182995
-0.029759817 0.048603024 -0.016793538 0.047454737 -0.065048985 -0.100559756 -0.03705378 0.022980792
-0.050340965 -0.07002637 -0.03896403 0.018322794 -0.04286166 0.013134752 0.00459436 -0.013997028
-0.038656026 -0.073429786 -0.025657987 -0.01707789 -0.014809764 -0.03220646 -0.026632722 -0.029817969
0.014349434 0.04390213 -0.054462224 -0.07273868 -0.06411507 0.056513745 0.00076487416 0.04251951
-0.039471556 -0.020271061 -0.13490999 -0.08097421 -0.051618118 0.012787804 0.16974407 0.16822375
-0.021809055 -0.012385594 -0.035990443 0.0028050155 -0.034335908 -0.08990169 0.03183293 -0.068596326
-0.056578267 -0.040643863 0.023388926 -0.03815539 0.045206662 0.061009664 0.03182076 0.04985202
-0.039630923 0.018937258 0.037417073 -0.023558695 0.035347197 0.062576264 0.010079228 0.08208751
0.06029748 -0.09362882 0.027771164 -0.06736859 -0.017647037 -0.010574361 -0.03502721 0.046897553
0.0006432862 0.06906217 0.04325422 -0.008481563 -0.031506773 -0.04961881 -0.017986903 0.05466071
-0.04924775 -0.0072418065 0.08621313 -0.042622816 0.014434201 -0.0025478795 0.022541929 0.0023377284
0.08253494 -0.03532798 0.036302432 0.056418587 -0.10173711 -0.017722718 -0.027159316 0.008618972
-0.0069989082 0.009235496 0.011586124 0.06334971 0.035515063 0.014765936 -0.04089614 -0.02407354
-0.012330052 -0.061557528 0.059806887 -0.042613763 -0.12860705 0.001835839 0.05425664 0.054007992
-0.0037694834 -0.021938732 -0.0128213875 0.057954658 -0.028746491 0.035834845 0.14276369 0.03330404
-0.03759923 -0.01424005 -0.055892076 -0.059421428 0.056653384 -0.10301036 -0.01619479 -0.022066765
-0.10014361 -0.055389915 0.022872765 0.028760323 0.068076 -0.011189996 0.014757558 0.0071325265
-0.06856864 0.07019568 0.018941518 0.02314228 -0.04126 -0.022185557 0.056669317 -0.07311822
0.0061725103 0.054064054 -0.025049519 0.05424184 -0.0065331664 0.04759239 0.025244502 0.09797574
0.009243995 0.05174941 -0.00051888387 -0.10588138 -0.03901188 0.016549874 -0.01666826 -0.030122057
0.05699226 -0.028300941 0.028210448 -0.091066614 -0.03378634 0.049716577 -0.027911749 0.007593813
0.025359811 -0.016097793 -0.020680917 0.029603014 0.00062133075 0.03962866 0.05196903 0.024908684
-0.014088703 -0.024918785 -0.032902014 -0.01765369 0.0035199556 0.05060028 0.0007162948 0.06964592
0.021152902 0.0035725336 -0.011330676 -0.007968668 0.048349023 0.08312454 -0.035886273 -0.12806414
0.019249067 0.02892314 0.004509951 -0.024693154 -0.0013955849 -0.0077890484 -0.040293824 0.0005948457
0.011504468 0.056187183 -0.022414403 -0.031683926 0.044831116 0.00056280853 0.029794173 0.015363247
0.0030713663 0.035362996 0.012196455 -0.041980326 0.00014556388 0.004565778 -0.07117276 -0.1426691
-0.15859054 -0.029212926 0.067254975 0.019417822 0.0006295633 -0.044063915 0.00045246712 -0.022469075

c3.bias f4 [64]
00000000: 8c13 abbd 41d6 41bd 6a5b 8cbd 09ea 99bd
00000010: af58 80bd 8b4d b3bd e2b8 e63c b544 143e
00000020: 65e9 713c d195 b3bd 477d 0cbe 1f39 29bd
00000030: d6f3 7f3c 84cf 373d 39e8 b0bc c81d bdbd
00000040: 92d2 a7bd 5d21 073e 1407 abbd 5c87 65be
00000050: 160c 30be a28e 983c 0caa 6fbd e0df be3d
00000060: e2db 7b3d ad06 693e 9822 aabd fe81 fdbc
00000070: f65f dabc 92e8 8e3c 7c1a cebc ed07 cdbd
00000080: 9f1b 85be c1e8 cdbd 0b68 5c3d 691a 03bd
00000090: 6497 33be b229 e6bc e556 2fbe ba68 28bd
000000a0: b2ef c23c fbac 9cbd 4c32 c1bd 0ee4 8cbe
000000b0: d348 85bd 5292 0fbd 6e95 babd 2f50 093e
000000c0: d5b7 a7bd 3cb1 c0bc 9936 8c3d 7366 3b3e
000000d0: ffe6 84bc a278 84bc 12d4 cabd 159f 923c
000000e0: e450 d2bc 8bd3 9b3d a4a4 6c3d bdec 0f3e
000000f0: 9112 65bd adf3 35bd a1d0 1dbe 5b8e b9bc
-0.08353338 -0.04732347 -0.06853373 -0.07515342 -0.06266915 -0.087550245 0.02816433 0.14479335
0.014765118 -0.087688096 -0.13719665 -0.04131424 0.0156221 0.044875637 -0.021595107 -0.09234196
-0.0819446 0.13196321 -0.083509594 -0.22414917 -0.1719211 0.0186227 -0.05851178 0.093200445
0.061488993 0.22756453 -0.083073795 -0.030945774 -0.026657086 0.017444883 -0.025159113 -0.10011277
-0.25997636 -0.1005416 0.05381016 -0.03200761 -0.1753822 -0.028096054 -0.17122991 -0.0411155
0.023795936 -0.07650181 -0.094334215 -0.27517742 -0.06508031 -0.03505165 -0.09110533 0.13409494
-0.0818936 -0.023522012 0.06846351 0.183008 -0.016223429 -0.016170803 -0.099037305 0.017898122
-0.025673337 0.07608708 0.0577742 0.14055152 -0.05592591 -0.04442184 -0.15411617 -0.022650888

l1.weight f4 [1024, 64]
00000000: b84a d13d bfbf edbd 4c1c 1abd b378 b8bd
00000010: 590c a83d 1672 9e3d 03c0 ff3d 0644 943c
00000020: 6620 b2bd 6b3a fbbd e8be da3d f72a 12bd
00000030: 305e 0e3d 043c 0abd 2b96 0fbc 6e6f 0cbd
00000040: 07e1 f9bd 85b9 78bd 3a73 23bd ec66 81bd
00000050: 4cc2 be3c 30c8 c6bd 0ffe efbd e666 1b3d
00000060: d7ea 8f3d 6c89 c9bd 81d1 e2bd 765b 8abc
00000070: b4eb 92bd f4a3 2cbd a103 9abb 0b7a 2cbd
00000080: 4dc6 c1bd 05b4 983d 3bb5 1abd 81b2 cf3c
00000090: ab2e 983c d774 8c3d 9809 e5bc 281d d83d
000000a0: 2e6c e23d 9bbe c4bd 9456 223d 7170 dabd
000000b0: 7d10 b7bd 7ca2 c53d d0fe d13d 1e00 47bd
000000c0: e965 84bd 820c 473c bf87 9f3d 7eaf c03d
000000d0: f362 843c 6e36 83bd 2fda f5bd db86 633c
000000e0: bd7a c8bd 46b9 05bd d6bc 1d3d a3c1 ddbc
000000f0: fa62 9abd c6db f4bd 1395 5abb ab92 af3d
00000100: 095d f23c a3fb ac3c 1020 cf3c a408 233d
00000110: 5449 b9bd 2087 c038 5cc6 373d c310 95bc
00000120: 1137 f43d 9a10 04be 64e3 5abd cf5b dfbd
00000130: ab78 89bd 629c c1bd 8ab5 c93d ffb0 c03c
00000140: 0ea9 803d c31c a0bd 60ab 673d c25d 92bd
00000150: bfe3 5f3d 8008 efbb ac3c 133e 94be c93d
00000160: 06d7 77bd 9c48 f1bd a217 46bd 802f 293d
00000170: ca8f 8ebd 613e fbbd 7558 5abd 49ad 393d
00000180: a339 ec3d f4f4 5f3d 2863 ee3d 6129 76bc
00000190: e358 debd f693 97bd e342 fabb 94ac 873d
000001a0: ac6d a93d ce50 a9bd 0633 8f3d 4ed9 fb3d
000001b0: 652a 0c3e 53e3 8f3d 3a71 1b3d b6f3 af3d
000001c0: 9433 87bd 0f2c ee3c 1bb9 583d bccc bbbd
000001d0: 3031 4d3d df9a afbd b04d a23d 5be4 c6bd
000001e0: 5663 e73b 662e eebc b6e7 ebbd 550f 693d
000001f0: 0533 913d f43e 4a3d 9f9d ed3c 1de4 21bc
00000200: 1f7a c63d 691c 993d 78f1 a33d 3999 b73d
00000210: ed7b 05be 25a2 b8bc 53b1 91bd d7f3 433d
00000220: 4005 ae3d f619 52bc 3f9d bebc 2594 243d
00000230: 8014 e73d 27a4 22bd 6259 b03c 8bd1 fc3d
00000240: 0ee3 0cbe 77a0 ef3c 6b0d 99bd a838 ffb9
00000250: 71aa 16bd 90d2 b6bc 4e08 d23c 13c3 f4bd
00000260: f309 e13d 2c34 053e 931b 68bd af61 c63d
00000270: e5b9 b2bd 8684 a03c eff5 b53d 5b74 d0bd
00000280: e901 653a 0952 ef3d 8a25 6e3d 66c6 04bd
00000290: d102 50bd b80e e9bc 10df df3d 4a34 a2bd
000002a0: 0c2e b53a 3f44 153d d854 9f3d 04e9 f3bd
000002b0: 1444 5f3c c0fb e63d d178 e53d c913 9c3d
000002c0: c108 403c 3f73 9cbc 0764 e3bd a836 cf3d
000002d0: 0e4c c6bd aaa6 de3c b0f4 913d f727 593c
000002e0: 595c 10be 0cde 76bc 2b8e 42bb b119 023d
000002f0: c3c7 083e 872b b1bd 82c5 8d3d 7613 85bd
00000300: 4742 99bd 4fa3 a0bd a883 923d b315 c7bd
00000310: 6e5a 0a3d 1f81 70bc 48ec 253d 7821 13bd
00000320: 7972 74bd cf84 243d c242 e2bd 5c4b a63d
00000330: 75da f0bd 3efc eebc c45f ba3d d4e3 723d
00000340: cca5 66bd 9191 fcbc a563 3fbd 431c 00be
00000350: 6734 0eb9 7db7 5bbd b605 c3bd 0ad6 c13d
00000360: 11ca ebbc ef30 2d3d 532a d3bd 5881 403d
00000370: 36b1 f53d 9c67 0e3e 50b0 063e f9f0 223d
00000380: f0df a33c 4b91 af3d be89 c93c 33a0 73bd
00000390: 6d6d 03be 80b3 37ba d6db 90bd b9c2 0c3e
000003a0: b666 c6ba e8c3 eb3d 14da e8bd 038b c6bc
000003b0: d32d 5d3d 20cd 6e3d b5e6 05bd 1774 ee3d
000003c0: 7530 073d 2b53 d5bd a2de 9abd b3d8 df3c
000003d0: c69b 833c e8bf 0c3e 0a9f f33d 7dee 07bd
000003e0: c1f2 0cbd 88bb 733d 19e5 f43d dd2e b53c
000003f0: a875 7e3d e4f4 1abd 9a84 2c3d 283a 8f3d
0.102193296 -0.11608838 -0.037624642 -0.090073965 0.0820548 0.07736604 0.12487795 0.018098842
-0.08697586 -0.12267002 0.10680944 -0.035685506 0.034757793 -0.03374864 -0.00876383 -0.034285955
-0.12201124 -0.0607238 -0.03990481 -0.06318459 0.023286007 -0.097061515 -0.1171838 0.03793993
0.07027214 -0.09840664 -0.11075116 -0.016889315 -0.07173863 -0.042148545 -0.0047001396 -0.042108577
-0.09461651 0.07456211 -0.03777049 0.025353672 0.01857694 0.06858223 -0.027958676 0.10552436
0.1105579 -0.096066676 0.03963335 -0.10665978 -0.08938692 0.09650132 0.1025368 -0.048584096
-0.0646475 0.012148978 0.077895634 0.094084725 0.016160464 -0.06406866 -0.12004506 0.0138871325
-0.097890355 -0.032647394 0.038510166 -0.027069872 -0.075384095 -0.11955981 -0.0033353015 0.085728966
0.029585378 0.021116083 0.025283843 0.039803162 -0.09047189 9.1804424e-05 0.044866905 -0.01819647
0.119245656 -0.12896958 -0.053439513 -0.10906183 -0.06712469 -0.09453656 0.09849079 0.023521898
0.062822446 -0.07817986 0.05655992 -0.07146789 0.054660555 -0.0072947145 0.14378613 0.09850803
-0.060507797 -0.11781427 -0.04836238 0.041305065 -0.06961019 -0.12267757 -0.053307015 0.045331273
0.11534431 0.054676965 0.11640006 -0.015024514 -0.108567975 -0.07401268 -0.007637368 0.066247135
0.082728714 -0.082673654 0.06992154 0.12297307 0.13688047 0.070257805 0.03794978 0.08591406
-0.066016346 0.029073743 0.052910905 -0.09169909 0.050095737 -0.08574461 0.07924974 -0.09711524
0.0070614023 -0.029074859 -0.11518805 0.056899387 0.07089809 0.049376443 0.029005824 -0.009881047
0.096912615 0.07476122 0.08005041 0.08964772 -0.13035555 -0.022538254 -0.071139 0.047839966
0.08497095 -0.012823572 -0.02326834 0.040180344 0.11283207 -0.03970733 0.021526996 0.12344655
-0.1375849 0.02925132 -0.074732624 -0.00048679602 -0.03678364 -0.0223172 0.025638726 -0.1195127
0.10988226 0.13008183 -0.05666692 0.096866004 -0.08726863 0.019594442 0.08884799 -0.10178443
0.00087359414 0.11685569 0.05814127 -0.03241577 -0.050783936 -0.028449401 0.10931218 -0.079201296
0.0013822927 0.036442038 0.077798545 -0.119096786 0.013627071 0.11278486 0.112046845 0.07620961
0.011720837 -0.019097922 -0.11103063 0.10117847 -0.09682475 0.027179081 0.071267486 0.013254157
-0.14097728 -0.015067589 -0.002968679 0.031762782 0.13357453 -0.0865088 0.06922437 -0.064978525
-0.074833445 -0.07843649 0.07154018 -0.09720936 0.033777647 -0.014679222 0.04050854 -0.03592059
-0.059679482 0.04016572 -0.11047889 0.081198424 -0.11760417 -0.029173013 0.09100297 0.059299305
-0.05631046 -0.03083113 -0.046725888 -0.12510781 -0.00013561697 -0.053641785 -0.09522574 0.09464653
-0.028782876 0.042282995 -0.10310807 0.04699835 0.11996691 0.13906711 0.13153195 0.03978059
0.020004243 0.08572634 0.024601813 -0.05947895 -0.12834711 -0.00070076436 -0.070731804 0.13746156
-0.0015136811 0.115119755 -0.1136972 -0.024236208 0.05399878 0.05830109 -0.032690722 0.11643236
0.033005197 -0.10416254 -0.07561995 0.02732501 0.01606549 0.13745081 0.11895569 -0.033186425
-0.034411196 0.059505016 0.119577594 0.022117073 0.062123924 -0.037831202 0.042118646 0.06993514

l1.bias f4 [1024]
00000000: 3fad ccbc 2b7a d93d 25ab 86bd 5335 e13d
00000010: 1a2e 403d 9e86 c9bd 46fe 95ba df93 cd3d
00000020: c50a c53d 0519 7d3d 209c d5bd 8952 bc3d
00000030: 80cf 083e eaf9 2abd c65b 943c 885e d53c
00000040: 1e08 4cbd 8d4a 503d 1f8a b23d 8ab4 cabd
00000050: 3737 1dbd 05bd 8a3d bb77 aa3d fa05 5bbd
00000060: c440 763d 912a dfbd 830a b2bc 2a56 0bbd
00000070: 25a8 c63d be77 7dbd ad93 0dbd 6d6a 613d
00000080: 66ac 143e 2c58 81bd 58b1 133c 118b 103e
00000090: f816 dbbc a825 853d 7b2c 32ba 2189 af3c
000000a0: 5398 a93c 826d 28bd 469a f43d fbd1 59bc
000000b0: 33aa 13bd f0ea c23d 48ef e63b 5f67 c4ba
000000c0: 4a24 313b 6ca1 d0bd 013e 123c 78df 8abd
000000d0: afd0 bb3d 054e 2fbd 55e9 943d a1a3 6fbd
000000e0: 35a8 67bd cb72 33be 1b9f 023e d52a d9bd
000000f0: af8b f13d 1e59 c8bd 47d8 80bd d683 81bd
00000100: 938b 293d 7de7 51bc 1678 5dbb 4b38 0e3e
00000110: e442 0cbd 54fe bebd 50f8 afbc b82d 1ebd
00000120: 9893 cd3d 14fa 76bd 49b0 e03d c472 803c
00000130: c81a f33c 784e e33c 9b98 46bd a2a5 4cbc
00000140: de4e 2a3d f003 0b3e 0020 71bd eeb1 143e
00000150: fcef e3bd 8c22 efbd 0578 4d3c 0f6a d83d
00000160: fe7c b23c 99bf 7abc 2bae 093e a190 cfbd
00000170: 7303 9e3d ce9b 773d 756a b63d 5ef6 96bd
00000180: 5e55 f5bd 6137 e8bd 52ae 7b3d 0c09 f3bd
00000190: 2cc7 35bd 28f7 ce3d 1cdb 7fbd 5de5 143e
000001a0: 10f7 0a3d df44 87bc f7ae 9fbc 8d19 b23d
000001b0: 6bba fbbd c64b c3bd d732 1b3d f6db f7bd
000001c0: 3601 933d ed73 95bd 4215 adbd 0fde d0bd
000001d0: f9fd e03d 218e 863d 34bd 96bd 89b6 5ebd
000001e0: f7ad 53bd d276 bfbd a5c0 33bd de5f c7bb
000001f0: 6ecc e8bc 408b 763d b66e 1abd 9313 8ebd
00000200: 453b c83b 0b98 91bd 130e c83d 4cc2 c83d
00000210: b02a fa3d fcbc 52bd 2c90 a93d c8dc 25be
00000220: e9b9 473d 1292 a9bd 6971 cb3c c2f6 e6bd
00000230: 25db 3dbd a5aa 8c3d e40b ed3c 745d d03d
00000240: da34 68bc 0de2 023e d9b9 8fbd 09eb 21bd
00000250: c5e3 8e3b 8462 a9bd d476 6cbc b025 63bd
00000260: 6be8 c8bd aa19 59bd ad77 86bd 60d6 c0bd
00000270: 7905 de3d 2a5b b0bc 35ee e4bd 1a19 853c
00000280: 5c5f eebd e397 dfbd 9f4b 92bc 57d1 afbd
00000290: 771c 833c fc0f d1bd 1d0b 70bc fa67 e9bd
000002a0: f6da b6bd 4e54 0d3e 9a0a 12bd 1d07 b3bd
000002b0: fb73 3cbd 349b dd3d 62e0 8abd 181b 663d
000002c0: 59e9 7e39 dd6e d33c 3d4b acbb 11de e43d
000002d0: ebf8 ca3d e3e1 7039 13c1 8cbd e64e 78bd
000002e0: bf38 84bc 241e 113e 9b17 863d a44e e3bd
000002f0: 1306 0cbd cf32 28be ce5f 8d3d 67f6 1b3e
00000300: d6c2 463d 12f2 dfbd 3c1a 2a3e 645c 9cbd
00000310: 7aee 5bbd 0f14 733d c23d c43d 9cab 873d
00000320: 8faa 3c3d f6b6 2dbd 1686 c5bd 1938 10bd
00000330: 4434 59bd d36f b53d 6ddb cfbb 33bd a8bd
00000340: 9cae 19bd 2d7b 093e d8ca 6cbd 45df 063e
00000350: a810 14bd 814c 3b3d 0781 b03c b6be ce3b
00000360: 4fa8 81bd 7905 14be 61a7 19bd 01a6 5abd
00000370: c33f 773d 84c1 f9bc 05f3 eabc a620 c6bd
00000380: 9f26 c83d b439 26bd 2ab7 41bd 525f cdbd
00000390: 7d1e 34bd abea 063e c883 7fbd b942 e73d
000003a0: 1e29 7bbc cced 623d 9dbc ec3c 1df4 cfbd
000003b0: 6e80 dcbd fb68 9cbd 238c 84bc 4fa7 c5bd
000003c0: e182 993d 6bae f93b 9e72 c63d f918 bbbc
000003d0: 65cd ed3d 5d65 c4bd 4c80 73bd 2540 0d3e
000003e0: 1f43 233d 41ad 903d b489 80bd a5b1 983d
000003f0: 59e0 c0bc bd3b b7bd 09c8 d03c a734 803d
-0.024984954 0.10619005 -0.06575612 0.10996499 0.046918966 -0.09840129 -0.0011443577 0.1003797
0.09621195 0.06179144 -0.10430169 0.0919543 0.13360405 -0.041742243 0.018110167 0.026046053
-0.04981243 0.050852347 0.08717751 -0.09897716 -0.038382735 0.06774334 0.08323618 -0.053472497
0.06012036 -0.10896791 -0.021733528 -0.03401772 0.0970004 -0.061881773 -0.034564663 0.055033136
0.1451889 -0.063156456 0.00901445 0.1411555 -0.02674435 0.06501323 -0.0006796789 0.021427693
0.020702517 -0.04112006 0.11943488 -0.013294692 -0.036050986 0.09517467 0.0070475675 -0.001498442
0.0027029687 -0.10187039 0.008925916 -0.067809045 0.091706626 -0.042799015 0.07271067 -0.058505658
-0.0565569 -0.17524259 0.12756006 -0.10603873 0.11794221 -0.09782623 -0.06291252 -0.06323974
0.041392874 -0.012811539 -0.00337935 0.13888662 -0.03424348 -0.09325853 -0.02148071 -0.03861782
0.10037917 -0.060297087 0.10971124 0.015679725 0.029675856 0.027747378 -0.04848538 -0.012490662
0.04157912 0.13575721 -0.05886841 0.14521 -0.11129758 -0.11676511 0.012540822 0.10567104
0.021788117 -0.0153044695 0.13445346 -0.10135008 0.07715502 0.06045132 0.08907024 -0.073712096
-0.11979173 -0.11338688 0.06144554 -0.1186696 -0.0443794 0.10105735 -0.06246482 0.1454062
0.033927023 -0.016512332 -0.01949261 0.0869628 -0.12291416 -0.09535937 0.03789028 -0.12102501
0.07177965 -0.07297502 -0.0845132 -0.10198604 0.109859414 0.06570078 -0.073603064 -0.054373298
-0.051679578 -0.09348835 -0.043884892 -0.0060844263 -0.028417792 0.060191393 -0.03770324 -0.06937327
0.006110581 -0.07109078 0.097683094 0.09802684 0.12215173 -0.05144976 0.08279452 -0.16197503
0.048761282 -0.08279814 0.024834352 -0.11277534 -0.04635157 0.06868485 0.028936334 0.10174075
-0.014172757 0.12781544 -0.070178695 -0.039530788 0.0043606483 -0.082707435 -0.014432628 -0.055455863
-0.09809955 -0.05300299 -0.06565795 -0.09415889 0.108408876 -0.021527845 -0.11178247 0.01624732
-0.11639282 -0.10917642 -0.017858325 -0.0858485 0.016004784 -0.10208127 -0.014651087 -0.11396785
-0.08928482 0.13801691 -0.03565464 -0.08741591 -0.046009045 0.10820618 -0.06781079 0.056178182
0.00024310256 0.0258097 -0.0052579925 0.11175168 0.099107586 0.00022972333 -0.068727635 -0.06062212
-0.01614034 0.14171654 0.06547471 -0.11098984 -0.03418548 -0.16425632 0.06903039 0.15230714
0.048525654 -0.10934843 0.1661157 -0.076348096 -0.053694226 0.0593453 0.09582092 0.06624529
0.046061095 -0.042410813 -0.096447155 -0.03520975 -0.05302836 0.088592194 -0.0063432963 -0.08239212
-0.037520036 0.13425894 -0.057810634 0.13171108 -0.036148697 0.045727257 0.0215459 0.0063093556
-0.063309304 -0.14455213 -0.03751314 -0.05338097 0.060363542 -0.030487783 -0.028680334 -0.09674196
0.097729914 -0.040582374 -0.04729382 -0.100279465 -0.04397439 0.13175456 -0.062381536 0.11292023
-0.015329627 0.055402562 0.028898532 -0.10153983 -0.107666835 -0.07637211 -0.016180104 -0.09651052
0.07495666 0.007619669 0.0968983 -0.022839056 0.116114415 -0.09589646 -0.059448525 0.13794
0.039858934 0.070642956 -0.06276265 0.07455758 -0.023544477 -0.08946941 0.02548601 0.06260043

l2.weight f4 [10, 1024]
00000000: 01ba 893c fb7f d7bc 5e36 21bb 8b3b c9bc
00000010: 556d 65bc d023 60bc d254 70bd 7d63 95bc
00000020: fe42 3c3e 044a 07bd 3e9f 89bc ec67 0cbe
00000030: 27db 1cbc daf8 d13c 991e 833c ab91 0d3e
00000040: 0eaa 9cbd a2be 3bbd d8ea d63d 3435 6d3a
00000050: 15c5 0d3d 025a 08bc 564f 213e 9721 67bb
00000060: 04b6 4fbd 39e3 9e3a f6c4 3a3d 2758 5f3d
00000070: 3270 663c b03e 4c3e 7f0c ec3c 620b ab3d
00000080: 65e4 75bd fe23 e7bd dfc3 b2bc 29e0 83bc
00000090: 0446 4f3d e15a 353d 1e48 d3bc 7cf1 b9bd
000000a0: 8a99 763d 99ea d83c e58c 093d 57ec 36bc
000000b0: 7233 0a3e 5667 593d 41e7 f13c 7e03 5cbd
000000c0: 4e4b 0fbb 9e21 dfb9 1240 39bc 5784 9ebd
000000d0: 81ca 5f3e d331 4cbd 5e25 7f3c 4633 f93d
000000e0: 36cd ac3d 7c0f 6dbd 1236 de3d 2e22 9abb
000000f0: 5fa1 ec3d 07a7 903c ebf1 2dbc e314 bb3c
00000100: 136c b83c 9283 243e 1ab8 3bbb a8df cfbd
00000110: 114c aa3c 8fd9 a9bc f61a 6ebd 0f0a febd
00000120: d1df af3c 67c2 32bd 663b 463d b895 87bb
00000130: 027e 37bd 6919 8f3c c8f7 94bb 1ea5 0abd
00000140: 2e20 47be eaac d13c eea4 ac3c d2b8 0b3e
00000150: da94 ca3c 5e0c 2ebd a7b5 bb3b a35d 0d3e
00000160: beae 233e 2a6e 58bd 4a3d 9c3d b2e0 09bc
00000170: c0fb d5bd df66 80bd 5abd 65bb 52a9 7dbc
00000180: dd1b c4bb 578e a4bd 9673 16bd 22a4 c53c
00000190: 3f5a 0d3e a2a6 9bbc 4bf1 a53c 572e 2abd
000001a0: 24e6 09bc 3f11 453d e0f1 a23b 3451 d23c
000001b0: d0dc 363b 65b4 97bb 2a02 df3b 62d4 97bb
000001c0: 2d0d 2cbd 89c1 60bd 23cb 3ebc f8bd fcbc
000001d0: 6cb4 96bd 9a77 803d d622 4d3b 9e35 c8bd
000001e0: f6a4 eebc a0dc f4bc d2ba 4e3d 913b 353d
000001f0: 3b1e 503c d31c 593e f018 78bc aba8 2a3d
00000200: 44e8 16bb 16b4 7b3d 26b3 273c 2227 283e
00000210: f2f9 38bc 4fa8 99ba 77ee 04bd 24a2 3bbd
00000220: 998a 96bb 9bc4 02bd 0e45 49bb 36df 4dbc
00000230: 4bdb f23c c1a1 b7bb c315 d0bd 456e 99bc
00000240: 7301 59bd d3c9 b8bd 8672 51bd 0608 f8bd
00000250: e490 253c 7257 0fbb fb52 97bc be2e c03c
00000260: 8df3 4d3d 208e 183d 7e40 28be 80ae 5e3b
00000270: cfbc c83d 98f5 0e3d 26e8 df3b 7c2b 05bd
00000280: 4802 edbc 0a7d 06bd 4644 0dbd 3bdd 2c3e
00000290: 500d 953d 9110 f4bc bba5 1ebd b5b3 22bd
000002a0: 7284 8b3c 6421 ee3c 694d 2dbd d209 21bc
000002b0: 48fa 913d 34d2 49bd 5ff0 813d 9121 533c
000002c0: 8067 eebb 32a4 3b3b 48b6 f53b 8b10 a2bc
000002d0: 776b 27bd 5204 103e e8dd 03bb 2455 fcbc
000002e0: dfd4 1d3e 5336 653d 681d 0a3e b029 f0bb
000002f0: 87e8 93bc cb30 edbd 7d01 553c 1c90 acbd
00000300: 3d75 2f3c 2b8f c0bd 24a3 66ba 84aa 53bb
00000310: cf56 0e3d d622 ca3c bae4 ac3d 1e73 d0bb
00000320: 1f50 b8bd a1dc d3bc 283d bd3c c373 42bc
00000330: 808f c9bd 8dbe 973d fa44 9fbb 22a5 293d
00000340: 233d 8fbd 2d52 a0bd c14f 23bd 3570 a23d
00000350: d485 0ebd 2d67 3a3d 5ecb f3bc 2ead 5abd
00000360: 750b 2a3d 8e71 2cbc fae9 e4bb e398 4bbc
00000370: a437 c8bc 265d 1ebe 2705 e83d 9ad0 1f3c
00000380: 35e4 013e 2dcf c7bd 2cbb cebc cd3c 65bc
00000390: 9a24 e23c 4be2 abbd 4755 ec3d 20e1 5a3b
000003a0: 1e8d ad3b 0aad 713d 5611 72bc 8885 32bb
000003b0: 47e6 bfbc 4528 21bc 6e37 5dbd 5913 713c
000003c0: e04e 32bc beee d4bc f10a f53d 76b3 d83d
000003d0: 0a99 273e b473 00bd 703c 8f3d 96b6 823b
000003e0: fcf3 75bd f336 6ebd 7dab 8c3a 8e0e cebd
000003f0: d08c b43c d1fa 803c cdbf e63c 64ea 09bd
0.016812326 -0.026306143 -0.0024599056 -0.024564525 -0.014003118 -0.013680413 -0.05867464 -0.018235916
0.1838493 -0.03302957 -0.016799565 -0.13711518 -0.009573734 0.025631357 0.016005801 0.13825099
-0.07649623 -0.0458361 0.10494012 0.00090487604 0.03461178 -0.008322241 0.1575292 -0.0035267824
-0.050710693 0.0012122161 0.045597993 0.054527428 0.014064835 0.19945788 0.028814552 0.083517805
-0.060032267 -0.11286162 -0.021821914 -0.016098099 0.05060388 0.044276122 -0.025791224 -0.090792626
0.06020502 0.026479052 0.033581633 -0.011164746 0.13496187 0.053077064 0.029529216 -0.053714268
-0.0021864953 -0.0004255892 -0.011306779 -0.077400856 0.21854593 -0.049852204 0.015572874 0.12167983
0.084375784 -0.057876095 0.10850157 -0.0047037816 0.115542166 0.01765777 -0.01061676 0.022837108
0.022512471 0.16065815 -0.0028643669 -0.10150081 0.020788224 -0.020733623 -0.05813118 -0.12404262
0.021469029 -0.043642428 0.04839649 -0.004137721 -0.044797905 0.017468171 -0.0045461394 -0.033848874
-0.1944587 0.025595147 0.021074738 0.13644722 0.024729181 -0.042492263 0.0057284418 0.13805251
0.15984628 -0.052839436 0.076288775 -0.008415388 -0.10448408 -0.06269621 -0.003505549 -0.015482264
-0.005984767 -0.08034962 -0.036731325 0.024126116 0.13803957 -0.019000355 0.020256659 -0.0415481
-0.008416686 0.04811215 0.0049726814 0.025673486 0.002790261 -0.004629659 0.006805678 -0.0046334723
-0.042004753 -0.05487207 -0.011645111 -0.030852303 -0.073586315 0.06272812 0.0031301281 -0.09775852
-0.029131394 -0.029890358 0.050471134 0.04424626 0.01270252 0.21202402 -0.015142664 0.04166476
-0.0023026625 0.06145104 0.010235583 0.16421178 -0.01129006 -0.0011723134 -0.03245398 -0.045808926
-0.004594159 -0.03192578 -0.0030711326 -0.012565425 0.029645583 -0.0056039994 -0.10160401 -0.018729338
-0.052979898 -0.0902287 -0.05113461 -0.12110905 0.010105345 -0.002187219 -0.018472185 0.023459788
0.050281096 0.037244916 -0.16430852 0.0033978522 0.098016374 0.034902185 0.006833094 -0.032512173
-0.028931752 -0.03283409 -0.03448894 0.16881268 0.0727793 -0.029793056 -0.03873227 -0.039722163
0.017030928 0.029068656 -0.042310152 -0.0098290015 0.071278155 -0.04927273 0.06344675 0.012886421
-0.0072755218 0.0028631804 0.0074985363 -0.019783279 -0.04087397 0.14064148 -0.002012128 -0.030802317
0.15413235 0.05596001 0.1348778 -0.0073291883 -0.018055214 -0.11581572 0.013000843 -0.08425924
0.010709104 -0.09402307 -0.00087981136 -0.003229768 0.034750756 0.024674814 0.08442064 -0.0063613793
-0.08999657 -0.02586204 0.02310045 -0.01186842 -0.098418236 0.074093916 -0.0048605176 0.04141725
-0.06994083 -0.07828174 -0.03987098 0.07931558 -0.034795597 0.045508552 -0.029760059 -0.053387813
0.041514833 -0.01052512 -0.0069859 -0.012426588 -0.024440594 -0.15465221 0.11329108 0.009754324
0.1268471 -0.097563125 -0.025235735 -0.013991547 0.027605344 -0.08392771 0.11539703 0.0033398345
0.0052963635 0.059002914 -0.014774641 -0.0027240235 -0.023425234 -0.009836261 -0.05400794 0.0147140855
-0.010883063 -0.025992747 0.119649775 0.105811045 0.16366974 -0.031360343 0.069939494 0.003989051
-0.060047135 -0.058157872 0.001073226 -0.1006137 0.0220398 0.015744599 0.02816763 -0.033670798

l2.bias f4 [10]
00000000: c692 b43d 677e 41be 80d2 c83d 25e9 123e
00000010: 4914 b53e 0f0b e2bd 9458 8c3c 304b 28be
00000020: 0c41 293e e4aa 5cbe
0.08817057 -0.18895875 0.09805775 0.1434675 0.3536704 -0.110372655 0.017132081 -0.16434932
0.1652872 -0.21549565
