saved_CNN_small.pt (torch, 613672 bytes, 10 tensors)

c1.weight f4 [64, 3, 3, 3]
000000 a5 af 37 3d a2 7d b6 be fa a6 49 bd 2e b1 8e 3e
       0.044845242 -0.35642725 -0.049231507 0.27869552
000010 1e d5 c5 be cc 5c 7b 3e f3 bc 2d 3d 69 1f 18 be
       -0.38639158 0.24547118 0.042416524 -0.14855732
000020 8b f9 84 3d d5 27 1b 3e 2f 50 da bd 2d 03 19 3e
       0.06492909 0.15151913 -0.10659825 0.14942618
000030 42 7d 99 3e 03 79 c4 be c1 14 43 3e 62 15 ca bc
       0.29978377 -0.38373575 0.19050886 -0.0246684
000040 12 c8 22 be 3a 28 20 3c 08 85 1c 3e 6e 89 91 be
       -0.15896633 0.009775216 0.15285122 -0.28425163
000050 32 95 15 3d 73 5b 9f 3e c6 21 c2 be 77 f2 aa 3e
       0.036519237 0.31124458 -0.37916392 0.3338811
000060 1a e9 54 3e 16 46 9a be 58 cc 87 3e 88 b5 88 be
       0.20792046 -0.30131596 0.2652309 -0.26700997
000070 59 1e a5 be a4 82 1f 3d 2e 27 aa bd 2c 03 14 3e
       -0.32249716 0.038942948 -0.08308254 0.14454335
000080 c4 1a 45 3e 70 71 74 bd ea 91 de bd a8 a8 a6 3d
       0.19248492 -0.059678495 -0.10867675 0.081376374
000090 44 69 5a be 16 2c 4b be 86 69 9a be 23 12 b8 3c
       -0.21329218 -0.19841036 -0.30158633 0.022469586
0000a0 33 7a b1 3d 7f b1 d4 3a a7 bf 02 3e 12 63 12 3e
       0.08665886 0.0016227214 0.12768422 0.14295605
0000b0 60 bf ae 3c 23 21 5d be 1a 6c 03 be ef 36 ac bb
       0.02133149 -0.21594672 -0.12834206 -0.005255572
0000c0 4e c2 6b 3e 54 bb 11 3e 3e 7f 05 3d 15 4d 8b 3e
       0.2302334 0.14231616 0.03259205 0.27207246
0000d0 3b ac 99 3e e9 96 a0 bd 51 0b 4f 3e 14 4a 97 3e
       0.30014214 -0.07841284 0.2021916 0.29548705
0000e0 b7 bd 52 3e 40 99 24 be cf 8e 19 3e 84 d6 b5 bd
       0.20580183 -0.16074085 0.14995883 -0.08878806
0000f0 6e a5 11 be bf aa ce bd 0a 46 54 be 40 cd 29 be
       -0.14223263 -0.10091161 -0.20729843 -0.16582203
000100 2a df 23 be f9 8b a1 bd 98 f7 63 3e 23 4b 22 3e
       -0.16003099 -0.07888026 0.22262418 0.15848975
000110 7a 3d 12 3c f7 bb 42 3d c9 1f ae ba 46 2a 25 3e
       0.00892579 0.04754254 -0.0013284619 0.16129407
000120 fe 84 76 be 32 9b 92 be 06 e5 98 be b6 b2 68 3d
       -0.2407417 -0.2863403 -0.2986223 0.056811057
000130 d7 b1 c5 bd 73 a9 3e 3e 41 b7 15 3e c6 a3 27 bd
       -0.09653061 0.18619327 0.14620687 -0.04092767
000140 d2 92 92 3d de a6 ca 3e 04 bf 5a 3e b7 1a 7b 3e
       0.0715691 0.39580435 0.21361929 0.2452191
000150 ef d1 4f 3e 15 8e 43 3e 41 b5 69 3d 51 76 6b bd
       0.20294927 0.19097169 0.057057623 -0.057485882
000160 1d f7 0c bd 12 45 2b 3e 54 c4 1d be 8b 05 71 be
       -0.034415353 0.16725567 -0.15406924 -0.2353727
000170 7a ad 86 be 19 cb 26 be fa ec 6b be 14 f7 19 be
       -0.26304227 -0.16288413 -0.23039618 -0.15035659
000180 fc 9a 77 bd fb 1e 84 be ca a8 03 be 51 42 3c bd
       -0.06045054 -0.25804886 -0.12857357 -0.04596168
000190 57 2d 44 be b5 f0 76 be 16 44 ac 3a a3 f1 6a be
       -0.19157921 -0.2411526 0.001314285 -0.2294374
0001a0 6a 7d 49 be 87 93 3d 3c 27 6a 4b be d5 70 1f be
       -0.19676748 0.011570818 -0.19864713 -0.15570386
0001b0 42 31 ab be 74 6d b3 3e 78 41 1f be dd 73 9d 3e
       -0.33436018 0.35044444 -0.15552318 0.3075246
0001c0 9d 7e 55 3e 12 79 50 be 45 87 7d 3d ad da b9 be
       0.2084908 -0.20358685 0.06189658 -0.3629965
0001d0 38 14 17 3e 74 d6 91 be 11 5a bd 3e 7c 77 8f 3d
       0.14753807 -0.28483927 0.36982778 0.07005212
0001e0 2b aa c7 3e b1 71 a9 3e ab 4a b4 be 2b b3 d5 3d
       0.38997015 0.33094552 -0.35213217 0.10434564
0001f0 72 c0 cc be f8 7d 81 be 3d a6 63 be a0 18 36 3e
       -0.39990574 -0.2529142 -0.22231384 0.17782831
000200 35 25 3b 3e c9 86 63 3e 96 21 92 3e 64 92 bc be
       0.18275912 0.22219385 0.2854125 -0.36830437
000210 af ca cc 3c e1 94 5b be 14 9a c8 bd d4 e4 5b bd
       0.02499899 -0.21443512 -0.09795013 -0.053685024
000220 65 f3 d3 bd 9c eb 96 3e b5 02 ff 3d fd aa e8 be
       -0.10349158 0.2947663 0.12451688 -0.45442954
000230 d8 d9 91 3e 5a 3c 48 3e c1 36 5a be 2f 04 51 3c
       0.28486514 0.19554272 -0.2130995 0.012757345
000240 93 59 15 be b8 58 44 be 41 14 9b 3d 53 82 b2 3e
       -0.14584951 -0.19174469 0.075722225 0.34865054
000250 5c 7a 01 bf 35 d1 80 3e 90 5a 3c 3e d3 d8 84 be
       -0.5057733 0.25159612 0.18393922 -0.25946674
000260 46 92 2e 3e c3 9d da bc b4 cb 80 be d8 6b 94 3e
       0.17047986 -0.026686555 -0.25155413 0.28988528
000270 f7 b9 13 3e 27 ca b1 be ee 6f 07 3e 7c 08 dc 3e
       0.14426409 -0.34724542 0.13226292 0.42975223
000280 6a 6f b4 be 34 5a c3 3d 8b 19 45 be b8 16 3a be
       -0.35241252 0.09538689 -0.19248025 -0.18172729
000290 3c 36 08 3e 9a 73 39 be 04 68 d6 3c 04 9b 20 3e
       0.13301939 -0.18110505 0.026172645 0.15684134
0002a0 ee 12 7d 3b f0 65 3a 3e cd 10 7b 3e 45 c6 bd bc
       0.003861602 0.18202949 0.24518128 -0.023165831
0002b0 54 3d ce ba c8 91 c1 3a 1c da 2d bc 5d 0b 2b bd
       -0.001573483 0.0014768178 -0.010611083 -0.041758884
0002c0 a1 0d 75 3e 78 a9 08 be 5c 41 64 3e 7c f0 f5 3d
       0.2393098 -0.13345897 0.22290558 0.120087594
0002d0 22 a7 a3 be 39 07 0a 3c 3d f8 97 3e 05 4b f8 bd
       -0.3196345 0.008424574 0.29681578 -0.12123684
0002e0 a4 3c de bd 6b d5 2b 3e 3d 2a ca bd 05 0b 42 3e
       -0.1085141 0.16780631 -0.098713376 0.18949516
0002f0 06 83 dc 3c 1d ea df bd bc dc 11 3e ba 62 d9 3d
       0.026917946 -0.109333254 0.1424436 0.10614534
000300 59 b6 a5 be 6c 44 bc bd 5a 61 62 be 38 c3 43 3e
       -0.32365683 -0.09192738 -0.22107449 0.19117439
000310 c6 2e 3e 3e d3 be 7f 3e e1 21 7f bd 64 30 39 be
       0.1857253 0.24975137 -0.06228817 -0.18084866
000320 40 7e d8 bd 19 94 69 be c6 01 a4 be a4 60 5e bc
       -0.10570955 -0.22810401 -0.32032603 -0.013572846
000330 d7 70 99 3e 69 d5 2d 3e d0 0c 08 bd bb b1 1f 3e
       0.29968902 0.16975941 -0.033215344 0.15595143
000340 05 e1 22 3e 78 92 22 be e1 2c 81 be 7d 68 a4 be
       0.1590615 -0.15876186 -0.25229552 -0.32110968
000350 79 b3 ad bd f4 b4 ac 3e f8 02 8f 3e 03 cb ce 3d
       -0.08481497 0.33731806 0.27931952 0.10097315
000360 f5 fc 06 be f1 89 91 be 93 18 4d be 14 e6 86 bd
       -0.13182433 -0.28425553 -0.20028906 -0.06586853
000370 00 ad a8 be 21 d6 cb 3d 29 7c 38 3e f5 83 e4 be
       -0.3294449 0.09952951 0.18016113 -0.44631925
000380 63 24 02 3e d4 1a b1 3e b3 2f 07 3e 56 3c 19 3e
       0.12709193 0.3459078 0.1320179 0.14964423
000390 7b 66 6e 3e 36 9d 3b 3e b4 7a 86 3e cd e7 7a 3e
       0.2328128 0.1832169 0.2626549 0.24502487
0003a0 a3 91 80 3d ed f5 0d 3f d6 d4 22 bd 8c 1b 5a be
       0.06277778 0.5545338 -0.039753757 -0.21299571
0003b0 67 c3 ee 3d cf 60 8a bd ef 73 94 be 42 b3 d9 bd
       0.11658364 -0.06756746 -0.289947 -0.10629894
0003c0 d0 ff 05 3e 94 26 e0 be 1c 2f aa 3c 25 85 b7 bd
       0.13085866 -0.43779433 0.020774417 -0.08960942
0003d0 99 8a 0b 38 67 d9 1d 3e 52 fd af be b7 50 8b 3e
       3.326926e-05 0.15414964 -0.34372956 0.27210018
0003e0 b3 d9 74 3e 6f 40 b1 3e aa 2c 77 bc 6c 32 b2 be
       0.2391117 0.3461947 -0.015086332 -0.34804094
0003f0 49 77 c5 bd e6 fe de bd 7e ac 3d 3e 8e c4 9f be
       -0.096418925 -0.10888462 0.18522832 -0.31204647

c1.bias f4 [64]
000000 10 84 60 3d a8 2e 4f be 0e db 2f be e4 e8 b5 be
       0.054813445 -0.20232642 -0.17173406 -0.35529244
000010 60 b1 44 bc 04 f6 97 3c 53 0d 97 3d e7 83 b0 bd
       -0.01200518 0.018549927 0.07375588 -0.086189084
000020 cb 52 01 3e 31 0d 25 bd 23 56 18 3d 00 f0 20 bd
       0.1262924 -0.040295783 0.03719152 -0.03929138
000030 36 f2 3a bd fe 2e 93 be 71 5b 1b 3d 76 46 a1 bd
       -0.045641147 -0.2874679 0.037929002 -0.078747675
000040 8f 57 cc bc 23 11 a8 be c9 e3 8b be 04 c8 fa 3b
       -0.024944095 -0.32825574 -0.27322224 0.0076532383
000050 3d 9e 08 3f 55 fe be 3d c6 a6 02 3d d3 eb 04 bc
       0.5336645 0.09325854 0.03189733 -0.0081128655
000060 42 bf e3 3d f7 84 db be d3 76 bd 3c c7 95 89 3d
       0.11120464 -0.42874882 0.023127949 0.06718021
000070 7e b2 ad 3c 9f db 0b bd 4e 09 6c be 7f 4a 94 bd
       0.021203276 -0.034144994 -0.23050424 -0.072407715
000080 d2 b9 89 bd f3 14 c6 3e e2 6d b7 bd 9b 0e 0b 3d
       -0.067248955 0.38687858 -0.08956505 0.033949476
000090 42 7c ac 3d 4a f4 40 3f f6 de 88 bc c0 17 43 bb
       0.08422138 0.75372756 -0.016707879 -0.0029768795
0000a0 17 6d 22 3d 4a 4a 40 be 7f 4f d2 bd 07 be d9 bb
       0.039654817 -0.18778339 -0.10269069 -0.0066449675
0000b0 d3 21 60 3d 29 97 17 3d e2 ed f5 be 5e 78 8e be
       0.054719757 0.037009392 -0.48033053 -0.27826208
0000c0 d7 ed e6 3c 95 0e 57 be 2b 3a 4e bc b8 d2 e3 3e
       0.028189583 -0.21001656 -0.0125871105 0.44496703
0000d0 26 7f 20 3c e7 b3 92 bc 2c 3d a1 bd 82 38 3f 3e
       0.00979594 -0.01790805 -0.07872996 0.186739
0000e0 14 c6 3d bd 01 40 80 3c 7a 79 ec bd d8 da 91 be
       -0.04633148 0.01565552 -0.11546607 -0.28487277
0000f0 2b 68 75 be 7c 2c ca bd e5 4e 13 3c bf 72 80 be
       -0.23965518 -0.09871766 0.008990978 -0.25087544

c2.weight f4 [64, 64, 3, 3]
000000 c8 33 89 bd 9c ee 9c bc 4c fb d5 3c 90 3b aa bd
       -0.066993296 -0.019156747 0.026120804 -0.08312142
000010 9c 5e 3a bd dc 82 7c bd 46 e8 57 bc bb 52 ab bc
       -0.045500383 -0.061648235 -0.013177937 -0.020913472
000020 58 e3 3f bd 1a 2a e6 bc f4 9f 0f bd 9d 34 9c 3c
       -0.04684767 -0.028096247 -0.035064653 0.019068057
000030 7a 00 51 bd c3 a3 ea bb 35 e7 1a bd ca f0 79 bd
       -0.051025845 -0.007160635 -0.037818152 -0.06102065
000040 64 b6 42 bd 67 81 e9 bc 04 5e 47 3d 52 1d 0f 3d
       -0.047537223 -0.028504087 0.048673645 0.03494007
000050 7f b9 83 3c 65 f8 dd bc 47 f2 5b bc aa bf 8a 3b
       0.016079662 -0.027095983 -0.013424463 0.004234274
000060 32 0f 8e bc 7b ec 07 3d eb 79 7f bb 5d 6c 74 bd
       -0.01734123 0.03318451 -0.003898258 -0.059673656
000070 fa 86 f1 3c b9 b5 ca 3d ad 8f 77 bd c3 37 23 3d
       0.029483307 0.09897942 -0.060439754 0.0398481
000080 71 d1 e4 3d 7a 9e af bc 29 a5 ef 3c ef c3 ab 3d
       0.1117276 -0.021437872 0.02925356 0.08386981
000090 b7 0e 85 bc 73 d0 09 bd d3 e9 85 bc 96 37 32 bd
       -0.016242368 -0.03364606 -0.016346848 -0.043510042
0000a0 09 f8 83 bd 32 54 d8 bd 47 e5 8e bd 35 54 82 bd
       -0.06443793 -0.10562934 -0.06977325 -0.063637175
0000b0 3f 86 d8 bd cf ff 89 3c 56 44 ce 3c 49 75 00 3c
       -0.105724804 0.016845612 0.02517907 0.007840463
0000c0 e1 70 9f bd b6 ed 8b 3c 6f 61 a3 3c 63 f0 92 bd
       -0.07785202 0.017081123 0.01994392 -0.071747564
0000d0 15 ef 98 bd 5e 3d 54 bd de bc 68 bd 61 21 8d 3c
       -0.07467476 -0.051816337 -0.056820743 0.01722783
0000e0 83 bc 2e 3c 92 73 10 bd dd 8a 1d bd 2e f7 33 3d
       0.010665062 -0.035266466 -0.03846251 0.0439369
0000f0 0e ad 3d bd 19 b0 22 3d 52 9b cb bb d5 29 57 bd
       -0.046307616 0.03971872 -0.006213584 -0.05253013
000100 95 95 bf bb 92 e5 4b bc c5 3b f0 bc 4f 00 34 38
       -0.005846689 -0.012444871 -0.029325375 4.291563e-05
000110 02 db 59 bd e6 60 3a 3c 39 fb c9 3c 87 48 1f 3d
       -0.053187378 0.011375641 0.024655925 0.038887527
000120 f5 cc 76 bd 4f ff 8d 3c 42 9d 92 bc 45 7a 14 bd
       -0.060254056 0.017333655 -0.017897252 -0.036249418
000130 60 79 19 bd fa 7d 41 bd 47 9c ab bc 86 a7 5e bd
       -0.037469268 -0.04723928 -0.020948542 -0.05435898
000140 93 fe 22 bd 29 b7 22 3d b5 54 9e bc 9a c1 5e 3c
       -0.039793562 0.039725456 -0.0193275 0.013595963
000150 33 54 0e bd 4c 99 81 bd 44 1b 73 ba 6c 6c 0a bd
       -0.034748267 -0.06328067 -0.0009273777 -0.033794805
000160 37 65 2b bd f0 16 20 bd 57 55 44 bd 02 c7 38 3c
       -0.041844573 -0.039084375 -0.04793295 0.011277916
000170 68 50 66 3c eb f8 9c bc a1 29 83 bd fc 21 ee bc
       0.014057256 -0.019161662 -0.064044245 -0.02906894
000180 c5 43 87 bc cd c6 31 3d 4a 19 a5 bd 97 46 34 3d
       -0.016511807 0.04340248 -0.08061464 0.044012632
000190 82 7f 0e 3d af 15 81 bc 7e 74 9c bc c6 f5 18 3d
       0.03478957 -0.01575741 -0.019098517 0.037343763
0001a0 02 24 09 bd 19 a9 0b bd 54 61 53 bd 88 cc ee bc
       -0.033481605 -0.03409681 -0.05160649 -0.029150262
0001b0 89 84 bf bb 47 27 d1 bc cc 07 a5 bb 28 d1 d3 bd
       -0.005844657 -0.025531424 -0.00503633 -0.10342628
0001c0 ff 69 77 bc 8e 4f 82 bd 3b 11 ae bd 87 75 2b bc
       -0.015100955 -0.0636283 -0.0849938 -0.010465032
0001d0 62 dc 3a 3c 5b ad b3 bd 9a f9 97 3b 1c 94 a5 bc
       0.011405082 -0.08773299 0.004637909 -0.020212226
0001e0 60 2e dc bc 53 51 23 3e 82 2c 95 3d 46 e7 43 3d
       -0.026877582 0.15948991 0.0728388 0.04782798
0001f0 6d da db 3d 30 d1 03 3e 43 70 e6 bc 7d 1b 76 3c
       0.10735021 0.12872767 -0.028129702 0.015021202
000200 00 d8 60 bd aa ba 66 bd 9b 5d a6 3d d0 64 83 3d
       -0.054893494 -0.05633036 0.081233226 0.06415713
000210 4e fa fa bc d8 e1 b7 3d 9b a2 8a 3d 50 94 4f bd
       -0.030636933 0.08978623 0.06769296 -0.05067855
000220 94 c5 b7 3c a4 e9 b6 3c 24 02 6e bd e0 59 2e bd
       0.02243308 0.022328205 -0.05810751 -0.04256618
000230 34 0a 67 bc 90 73 d8 bb 7b 73 ec bc b5 e0 f5 bc
       -0.014101554 -0.006605573 -0.02886366 -0.030014375
000240 25 fa 05 bc a0 ba b3 3d bc 42 88 3d 73 00 30 bd
       -0.008177315 0.0877583 0.066533536 -0.04296918
000250 33 bd cf bb 96 59 07 3e ce 4a e7 bc 8c b4 10 bd
       -0.006339693 0.13217768 -0.028233912 -0.035328433
000260 cd 27 61 bc 4f 97 53 3c 1b 79 54 3c 5a a3 0c 3d
       -0.013742399 0.012914493 0.012968327 0.03433547
000270 bf 7b 66 bd df b1 39 bd f9 55 fc bc 08 38 7b bc
       -0.056270357 -0.045335647 -0.030802714 -0.015333183
000280 be 8e 91 bd 15 08 9f bd a7 74 97 bc 7a 5a 88 3b
       -0.07107304 -0.077652134 -0.018488241 0.0041611763
000290 c4 f2 06 bd 3d 6f 76 ba ac fc 15 3d aa fb ee 3c
       -0.032946363 -0.0009400731 0.03661792 0.029172737
0002a0 46 2e 0e bc d6 46 a4 bb b1 25 5f 3d 53 79 0a bc
       -0.008678025 -0.005013327 0.054479305 -0.0084517775
0002b0 d2 44 17 bc 26 c8 24 bd 9e 39 59 bd 26 94 50 3d
       -0.009232717 -0.04022994 -0.053033464 0.050922535
0002c0 20 0c 2f bd e6 0e 43 bd b3 4d 5e 3d 05 98 19 3d
       -0.042736173 -0.04762163 0.05427332 0.037498493
0002d0 84 a6 6b bd 1b 12 17 3d 42 4a 1a 3c 4f 5d e0 bc
       -0.05753185 0.0368825 0.0094171185 -0.027388243
0002e0 12 b2 62 3d 11 64 2d 3d d7 76 35 bd b6 61 f4 3d
       0.055345602 0.04233176 -0.044302788 0.119326994
0002f0 37 f8 2c 3d 96 25 01 bd 82 24 4c 3d 29 c6 21 3d
       0.042228904 -0.031529985 0.049839504 0.03949562
000300 98 3d 8c bd 51 b2 42 bc ef 71 40 bd 4b 65 9b bd
       -0.068476856 -0.011883334 -0.046983656 -0.075876795
000310 2c fe c4 bc d5 30 c2 3c 4c 0e bc bd 34 87 c2 3c
       -0.02404698 0.023704926 -0.091824144 0.02374611
000320 f2 e8 8c 3d 68 6a 6d bd 05 4c aa 3d 28 f4 8c bc
       0.06880368 -0.057962805 0.08315281 -0.017206267
000330 3d f1 3b bc 5d 58 59 3d 3b a5 81 3c b8 64 b6 39
       -0.01147109 0.053062785 0.015825858 0.00034788786
000340 09 73 a0 3c aa c6 38 3c bb 1b 88 bd 71 02 23 3d
       0.019586103 0.011277834 -0.06645914 0.03979725
000350 1f 74 bf 3d ac dd 0e bc 87 ab 08 bd fb ef 9d 3c
       0.0934832 -0.008719843 -0.033366706 0.01927947
000360 6e 40 8b bb 41 1a 60 3d f8 6c 34 3d 36 4f 67 bd
       -0.004249624 0.054712538 0.044049233 -0.056472026
000370 67 79 db 3d a4 40 aa 3d c5 44 80 bd b9 9f 1c 3d
       0.10716515 0.083131105 -0.06263117 0.03823826
000380 fe d8 ca 3d 5b fa 57 bd c8 51 26 3d ec ac 83 3c
       0.09904669 -0.052728992 0.040605336 0.016073667
000390 2d d6 36 bd 1f 7a 4d 3c d7 dd 94 3d 39 e3 3a bc
       -0.044637848 0.012541323 0.07268875 -0.011406713
0003a0 71 3a 3f 3d 23 68 15 3d 0d c4 af bb e8 ed 91 bc
       0.046686593 0.036476266 -0.0053639472 -0.017813638
0003b0 fb 64 25 3d ea 69 a2 bd f3 d8 1e 3b 2d 8b 56 bd
       0.040379506 -0.07930358 0.0024238199 -0.052378822
0003c0 f6 13 ec bc c3 70 42 bd 98 27 18 bd 31 97 38 3c
       -0.028818112 -0.04747082 -0.037147135 0.011266516
0003d0 c9 31 a0 bc 8d b6 85 3d 0d b4 6d bd a3 2b a2 bd
       -0.01955499 0.065289594 -0.058033038 -0.07918479
0003e0 9f 58 4d 3c 90 e8 0a 3c 00 6e 8a bd ad 43 cb 3c
       0.012533336 0.008478299 -0.06759262 0.024812544
0003f0 7e 1a 2e 3a 8b cd 9c 3d dc f3 91 3d 6d a6 a1 bb
       0.0006641521 0.07656392 0.071265906 -0.0049331696

c2.bias f4 [64]
000000 f1 66 44 3e bd 44 ad bd c2 ef 04 be f9 36 fc bd
       0.19179894 -0.084603764 -0.12982085 -0.12315173
000010 94 41 f3 bd a9 1d 80 be ef ce 1d 3d e2 71 92 be
       -0.118777424 -0.2502263 0.038527425 -0.2860251
000020 a9 f6 9b 3d e7 0b 0b 3e 7e 15 56 3d 5d 3a b1 3d
       0.07615406 0.13578759 0.05226659 0.0865371
000030 67 10 1a 3e 70 7a 84 bd b0 ab 07 3d 11 22 f9 3d
       0.1504532 -0.064686656 0.03312272 0.12164701
000040 c4 c8 18 3d bf 9d 5d be 5b 03 8d bd 77 a2 0a 3d
       0.03730084 -0.21642207 -0.06885406 0.033846345
000050 ab c6 e2 3e 3c 41 fd bd c3 06 e4 bd cd b2 fa 3d
       0.44292197 -0.12365958 -0.11134102 0.12241135
000060 db 23 48 3e 84 c4 a5 3d eb 55 db bd 77 6e 9d 3d
       0.19544928 0.08094123 -0.10709747 0.07687085
000070 71 e5 82 be 03 3f a4 3c 7a ca d0 3d 40 bf 4c 3e
       -0.25565675 0.020049578 0.10194869 0.19994831
000080 0f 20 8f 3d 0f ce 13 bd 22 ed 86 bd 8a f3 43 3e
       0.069885366 -0.036085185 -0.06588198 0.19135872
000090 bf 5f d8 3d 36 84 29 be a5 33 8f 3e df 5d 54 3c
       0.10565137 -0.1655434 0.2796909 0.012961834
0000a0 a5 84 8e bd 2f 46 15 3e 24 d1 57 bd 43 6a 11 3e
       -0.06958894 0.14577554 -0.052689686 0.14200692
0000b0 c6 cc 5a bd 99 92 c9 bd 70 e3 26 3e 5b 87 62 3c
       -0.053417943 -0.098424144 0.16297698 0.013826217
0000c0 37 1c bb bd fb 9f 86 be c3 b8 b8 bd bb ba de bd
       -0.09136241 -0.2629393 -0.090196155 -0.1087546
0000d0 0b 2d 08 3d fa 9a 4d bd f2 f9 73 3e 1e 03 1d 3d
       0.03324608 -0.050196625 0.23825815 0.03833305
0000e0 d4 27 4c 3e a8 2c 15 3d a4 24 94 3d 02 82 5f bd
       0.19937068 0.03641954 0.07233551 -0.054567344
0000f0 33 8c 4e be 1e bc 62 3d 00 41 30 bd 43 2e 0e 3e
       -0.2017067 0.055355184 -0.04303074 0.13884835

c3.weight f4 [64, 64, 3, 3]
000000 d4 e8 18 3d 38 01 57 bc 7c 86 ee 3c 8f 3d b6 bc
       0.037331417 -0.013122849 0.029116862 -0.02224615
000010 cf f4 7c bd 52 98 be 3c b3 7e cb bc 04 58 86 3b
       -0.061756905 0.023265991 -0.024840688 0.0040998477
000020 7d 5e 1c bd 6e 71 a6 3d 30 db 06 bc 41 b8 87 3c
       -0.03817605 0.08127104 -0.008230969 0.016567351
000030 42 3a 46 3d 3d 66 ae 3d 4e 64 84 bc 35 78 29 bd
       0.048395403 0.08515594 -0.01616111 -0.041374404
000040 bd e1 ef bb 61 32 88 3b 20 4d e2 bd dc b0 9a bc
       -0.0073206113 0.0041563963 -0.11049867 -0.018883161
000050 95 89 50 bc 4e 68 ae bd 6f 93 0d bd 13 28 a4 3c
       -0.012728115 -0.08515988 -0.03456443 0.02003864
000060 3c 07 cc bd 53 6a 61 bc ad a7 d3 3c bb a0 4a 3d
       -0.09962317 -0.01375826 0.02583679 0.04946969
000070 1a d3 cb 3d 23 4b 4a bd 71 52 c0 bd 9d d8 f0 3c
       0.09952374 -0.049388062 -0.093907245 0.029400164
000080 c4 db 20 bd fc 7e a8 bc 2c 5d 47 3d 4c 8c dc 3c
       -0.039272085 -0.020568363 0.04867284 0.026922368
000090 7f 06 ae bd 57 18 bf bd 8a d3 ea bb 3f 67 43 bd
       -0.08497333 -0.09330814 -0.0071663307 -0.047705885
0000a0 be c9 61 bd 07 03 0f bc cb e8 e4 3c a0 79 73 bd
       -0.055124037 -0.008728749 0.027943036 -0.059442163
0000b0 70 e2 c9 3c cb 74 9b bd d8 e8 ba bd 61 bd 6b bb
       0.024644107 -0.07590636 -0.09126443 -0.0035971033
0000c0 a8 7f 73 bd 54 87 aa bd bc ef 2f bd c5 06 b7 bc
       -0.059447914 -0.08326593 -0.042953238 -0.022342095
0000d0 38 a2 2b bd b2 ce a7 bc 0f f9 bc 3c 84 18 25 bd
       -0.04190275 -0.020484302 0.02306798 -0.040306583
0000e0 ed ed 76 3b 3a 30 df bc dd c5 03 3d 56 96 ee bc
       0.0037678436 -0.027244676 0.03217112 -0.02912442
0000f0 f1 72 13 bd e0 af 3b bd c7 c5 8c bc 29 6e 6f 3d
       -0.03599829 -0.045822024 -0.017184151 0.058454666
000100 6a f1 7e 3d 12 ef 7a bd 13 27 23 be 3d c6 8c bd
       0.06224195 -0.06126315 -0.15932874 -0.068737485
000110 b1 ad bf bd 7c 0d 8e bd 11 7e 18 bd 7e 37 4c bd
       -0.09359301 -0.06936166 -0.0372296 -0.04985761
000120 a5 b3 e7 3d 7b f4 da ba c3 4f f7 3c 2c fa 38 3e
       0.11313561 -0.0016704941 0.0301894 0.18064183
000130 1b e5 a1 bc 30 2d 52 bd dc 08 96 3c 2c de fa bb
       -0.019762566 -0.051312625 0.018314771 -0.0076558795
000140 0a 2c d4 bc 67 c2 35 bd be b8 9c bd 0d eb 1e bd
       -0.025899906 -0.04437485 -0.07652424 -0.03879838
000150 e1 e0 fe 3c ba 78 de 3d 29 0e 4c bd 67 ab 89 bd
       0.03111309 0.108628705 -0.04981819 -0.067221455
000160 dd d5 30 bd f6 5e 2e bd 2f e6 fa bd da c2 a2 bd
       -0.043172706 -0.04257103 -0.12250935 -0.07947321
000170 bf 19 d9 bb 91 ac a9 3d 76 25 1d 3d b3 6a ee bc
       -0.0066253836 0.082848676 0.038365804 -0.029103613
000180 1f 1f 97 bd d0 20 6e bd 28 d4 3b bd cb ba 0e bd
       -0.07378983 -0.05813676 -0.045856625 -0.03484611
000190 5b 6a fa 3a c3 be 8a 3b 3c 69 e9 bd 53 66 3b be
       0.0019105183 0.0042341664 -0.11397025 -0.18300752
0001a0 bd 16 93 bd 5c 2f f8 bc 25 c1 40 bd 95 22 d7 3c
       -0.07182071 -0.03029602 -0.047059197 0.026261607
0001b0 7e ea 04 3e fe aa a7 bd 86 17 fd bc c9 c5 99 bc
       0.12980077 -0.08186911 -0.030895006 -0.01877107
0001c0 57 98 ce bd b5 6c 04 bd c9 b1 8f bc 7a 9b 1e bc
       -0.1008765 -0.032330234 -0.01754083 -0.009680623
0001d0 f2 5c 45 bd af a5 c0 bd 5c d8 b1 bd 62 91 5f 3c
       -0.048184343 -0.09406602 -0.086838454 0.013645502
0001e0 96 2d 43 3c b5 c1 15 bd 68 07 2e bc 33 15 ef bc
       0.011912724 -0.036561687 -0.010621883 -0.029184913
0001f0 6f 6a 8e bb 40 84 16 3d a5 4b 38 3d 91 16 91 3d
       -0.004346184 0.036747217 0.044994015 0.07084382
000200 c4 d1 8a bc 6d 6b 0c bd b2 e8 fc bc 3f 0a 72 bd
       -0.016945727 -0.034282137 -0.030872677 -0.059091803
000210 51 c1 c2 bc 50 7b f2 bb bf d4 61 3a 01 c2 5b 3c
       -0.023773821 -0.007399954 0.00086147705 0.013412953
000220 40 fc 4f bc 29 65 be 3c 41 9d 9d 3c 3b 77 9f 3c
       -0.012694418 0.023241596 0.019240024 0.019466033
000230 eb 02 c4 bc 67 4b 50 3b 8c 70 19 bd 66 a4 30 bd
       -0.023927173 0.0031783225 -0.03746085 -0.043125533
000240 96 39 9c 3d 18 cf 4b 3c a8 ac 3b bd 9e 02 c4 bc
       0.07628171 0.012439512 -0.045818955 -0.02392703
000250 76 47 10 be d3 25 a5 bd 02 29 bc bc 40 44 8c bd
       -0.1408976 -0.08063855 -0.022968773 -0.06848955
000260 b5 ef 8d bc 57 0a 01 bd e7 1a b9 bd 31 a9 9f bc
       -0.017326215 -0.031504 -0.09038334 -0.019489856
000270 99 74 55 3d e3 b5 52 bd 9b a5 66 bc 27 14 83 bd
       0.05211315 -0.051442992 -0.014077569 -0.06400328
000280 39 a3 1a bd 94 c5 ee 3c d3 9d f4 3d 15 b7 17 bd
       -0.037753318 0.029146947 0.11944165 -0.037039835
000290 60 70 89 bc d2 04 22 3d a0 e5 b3 3d 3e ca d4 bc
       -0.016777217 0.03955538 0.08784032 -0.025975343
0002a0 41 08 93 3c 46 a6 cf bc 23 fb db bb e4 68 0f 3e
       0.017948272 -0.02534784 -0.0067132874 0.14004856
0002b0 ef 6c 87 3d b1 90 2d bd 3d 04 8c 3d fd 47 80 3d
       0.06612574 -0.042374317 0.06836746 0.06263731
0002c0 a1 63 52 bd 10 99 ee bc e5 30 64 bc bd 51 88 3c
       -0.051364545 -0.02912572 -0.013927673 0.016640538
0002d0 16 56 5e bd 4d f2 ad 3d 53 8d 2a 3d 9f 50 81 bd
       -0.054281317 0.08493481 0.041638684 -0.063142054
0002e0 6b bf e9 3c c5 e8 4c 3d 30 6b 7a 3d f4 81 26 3c
       0.028533658 0.050026674 0.06113738 0.010162819
0002f0 5c d3 3c bd 0a 01 03 3d 60 e8 3a 3d e2 f7 56 bc
       -0.046100006 0.031983413 0.045631766 -0.013120623
000300 87 18 f3 bd 47 21 13 bd 5d 03 58 3c 34 55 f6 bc
       -0.118699126 -0.035920408 0.013184396 -0.030069925
000310 9b b2 9d bd 91 18 07 3d e4 68 c1 bc 04 84 1f 3d
       -0.07700082 0.032982413 -0.023609586 0.03894426
000320 ea 6a 3c bd 24 1a 01 be df 11 f7 bd 72 9d 1c bd
       -0.0460004 -0.12607628 -0.120639555 -0.03823609
000330 2e e2 af ba 62 5f 81 bc e9 6e 50 3c 0c 6d 51 3d
       -0.0013418847 -0.015792552 0.012721756 0.051129386
000340 b7 57 62 bc f4 36 3a 3c 9e 5f 92 3d 85 8a 9a 3d
       -0.013814858 0.011365641 0.07147144 0.07545952
000350 07 ba ac 3b 7f 9b e5 3b c3 85 5c 3c 78 e3 dc bb
       0.0052711996 0.007007062 0.013459626 -0.0067409836
000360 79 2f 1c 3d bb 86 6c bc 71 e4 4b bb 06 7a 2f 3d
       0.03813121 -0.014436419 -0.0031111503 0.04284098
000370 f3 8a 3c 3e d8 98 2e 3c 03 19 4e bd f8 d8 a8 bd
       0.1841238 0.010656558 -0.05031682 -0.082445085
000380 6d 3e 3e bd 34 9b ce bd bb 30 cd bd 88 71 b2 bd
       -0.046446253 -0.100881964 -0.1001906 -0.087130606
000390 da 24 e0 3d 76 57 2a 3e d4 7e b0 bd 64 68 96 bc
       0.10944529 0.16634926 -0.086179405 -0.018360324
0003a0 28 7b 92 bd a9 00 4f bb 87 e3 ba 3d 76 f7 97 bd
       -0.071523964 -0.0031586087 0.09125429 -0.07420246
0003b0 44 7b b7 3b 25 a7 7c bd 84 e0 3b bd 76 99 77 bc
       0.005599411 -0.06168284 -0.04586841 -0.0151122715
0003c0 6d 90 b3 bc bf fd 7b 3c 29 99 fd bc 76 4a 91 3d
       -0.021919454 0.015380322 -0.030956822 0.070942804
0003d0 4b 89 6e 3d 54 47 00 bc 2d fe 39 bc af 15 83 bc
       0.0582364 -0.007829506 -0.011352104 -0.01600155
0003e0 01 77 24 3d bc 7c 2e 3d 87 b7 28 bd ba 7e 37 bd
       0.040152553 0.042599425 -0.04119065 -0.04479859
0003f0 08 f0 32 3d a4 f5 a5 38 1e 4d b4 bb 15 73 17 3d
       0.043685943 7.913567e-05 -0.005502357 0.036974985

c3.bias f4 [64]
000000 c6 b9 32 3d 6b 1b bc bd 51 66 a7 3c be 90 1e be
       0.0436342 -0.09184917 0.02043453 -0.15484902
000010 bb 5d d5 bd 59 ba 95 be 8e 0f 3a bd 3a 9c 01 3d
       -0.10418268 -0.29243734 -0.04542499 0.03164313
000020 ea f0 3c be 0f 1a 3b bd c4 87 72 bd 30 ca 92 bd
       -0.18451276 -0.04567915 -0.059211507 -0.071674705
000030 6e 64 ba 3c 1a 3d f7 3d 96 c3 97 bd 3f c1 ff 3d
       0.022752967 0.12072201 -0.07410352 0.12488031
000040 c4 77 1f 3e a8 34 fe 3c bf 18 55 be 1c 59 36 be
       0.1557303 0.031030968 -0.20810221 -0.1780743
000050 9e 0f ce bd 9f 96 95 3d 19 d0 61 bd f7 26 2a be
       -0.100615725 0.07304119 -0.055130098 -0.16616426
000060 85 e6 1b 3d 3b 63 48 3c 42 04 d3 3d 2b 1c 91 3d
       0.038061637 0.01223069 0.103035465 0.07085451
000070 ec 70 45 be fd f0 27 bd 4a 0c 4a bd 22 c5 d9 3c
       -0.19281358 -0.04100131 -0.049328126 0.026583258
000080 04 01 f6 bd 95 46 cd bd fd a4 03 be 5f d6 11 be
       -0.120119125 -0.10023228 -0.12855907 -0.14241932
000090 e0 c2 a2 3d 98 dc 4d bd 2e 64 1b bd 3c 22 c2 bd
       0.07947326 -0.050259203 -0.037937336 -0.09479186
0000a0 a5 1d bf bb c4 30 a9 bd f4 0d 7b 3d 7d 4d 00 be
       -0.0058323913 -0.082612544 0.061292604 -0.1252956
0000b0 6b 0b ab bd 0d ff e1 bd 9a 8b 1a be 1c f5 f7 bb
       -0.08351787 -0.11034975 -0.15092316 -0.007567061
0000c0 02 7e ff bd 88 54 76 3e 77 85 05 be a6 5f dc bc
       -0.12475206 0.24055684 -0.13039194 -0.026901077
0000d0 ff d0 99 3d 4b 8e 1b 3e 3a 40 1d 3d c0 8f 23 3d
       0.07510566 0.15190999 0.03839133 0.039932013
0000e0 63 c9 2c be c8 30 82 be d7 2f b7 bd cb 0a 90 3d
       -0.16873698 -0.25427842 -0.089446716 0.070333086
0000f0 85 83 e6 bd 3b 0f 4b 3d 72 44 27 3d 05 cf 0b 3d
       -0.11255554 0.04957507 0.04083676 0.034132976

l1.weight f4 [1024, 64]
000000 8e da a2 3c ef 93 28 3d cc aa a9 3d 37 86 dd bb
       0.019879606 0.041156705 0.0828453 -0.0067603844
000010 1b a8 ce bd 15 c8 2b bd 4b dc a2 3d 9d a0 41 bd
       -0.10090657 -0.04193886 0.07952174 -0.047272313
000020 8b 70 93 3d 17 7e a4 bd fc fe ee 3d 08 3c 9e bd
       0.071992 -0.08031862 0.11669728 -0.07726294
000030 f2 c0 40 bd 19 96 cc 3d 26 db 1a be bd 7c 42 3c
       -0.047059007 0.09989566 -0.15122661 0.01187056
000040 7b 2b d3 bd db ab c2 3d a8 15 98 3b 2e d3 b5 3d
       -0.103110276 0.09505435 0.0046412535 0.0887817
000050 a1 15 d7 bd 5d b1 cb 3d 0a c3 83 bd c9 08 06 3e
       -0.10502172 0.09945939 -0.06433685 0.13089289
000060 75 c8 99 bd cd 24 32 bd 80 ab c3 3d 4e 0c 60 bd
       -0.07508937 -0.043492127 0.095541954 -0.054699235
000070 c1 ac 95 3d e1 43 27 bd 31 60 91 bb 60 57 e2 3c
       0.07308341 -0.04083622 -0.0044365157 0.027629554
000080 6e a1 2b 3d 66 6a 0c 3d d2 97 e3 3d 25 41 18 bd
       0.041902 0.034281157 0.11112942 -0.0371715
000090 d6 c6 f5 bd c5 86 d9 3c e6 a6 06 bd b9 56 a1 bc
       -0.120008156 0.026553521 -0.03287401 -0.019694673
0000a0 9c 39 55 3d 65 d1 a0 bd 68 19 d0 bb da cc cf bc
       0.052056894 -0.07852439 -0.006350685 -0.025366236
0000b0 9c ce d3 3b 4c 02 b3 3d dc 60 99 3c 0c eb ee 3d
       0.0064638387 0.087406725 0.018722944 0.116659254
0000c0 3c 18 88 3d bb 29 28 3c e5 ea ab 3d 24 be 94 3d
       0.06645247 0.010263856 0.08394412 0.07262829
0000d0 fd 45 fe bc 8d 2a c1 3d fa 20 c4 3d 17 c4 61 3d
       -0.031039232 0.09431944 0.09576602 0.055118646
0000e0 e5 42 03 3b 38 6b 82 3d 3d d9 85 3d f7 e1 eb bd
       0.0020028886 0.063681066 0.065355755 -0.11517709
0000f0 da 27 d5 3d 17 ad 97 bd 6d 54 cb 3d 0c 9c 53 bd
       0.10407992 -0.07406061 0.09928212 -0.05166249
000100 45 eb f6 bd 99 e6 c5 bc 42 2a fd 3c 4e 0c c4 3d
       -0.12056593 -0.02415781 0.03090394 0.095726594
000110 3b e1 d8 3d 81 52 00 3d 70 cd 0e bd 87 17 04 bd
       0.10589834 0.03132868 -0.03486389 -0.032249
000120 2b b0 75 3d 9f 16 39 bd 29 9c b7 3d 2f a7 5c 3d
       0.05998246 -0.04518759 0.08965332 0.053870376
000130 e4 70 90 3c 2e 5d df 3d 0c 79 9b bd 4d d9 d1 bd
       0.017631955 0.109064445 -0.07591447 -0.10246525
000140 42 30 6b bc df 7b 0a 3e 2e bd 3a 3a a0 f2 84 bd
       -0.014354767 0.13523816 0.0007123527 -0.064915895
000150 64 c7 c7 bd 41 5c c7 3d 06 c6 20 3c 4b eb 77 3d
       -0.097548276 0.09734393 0.0098128375 0.060527127
000160 cd f9 5a 3d 49 4f b8 bd e6 38 66 3c df 96 c2 3d
       0.053460885 -0.089994974 0.014051652 0.095014326
000170 5a 28 f4 3d 79 21 e8 bd 62 a7 08 3c df b6 d1 3c
       0.11921759 -0.113345094 0.008340688 0.025599895
000180 63 67 bf 3d dc 44 ff bd 71 bf 26 bd 25 5d 5a bc
       0.09345891 -0.12464306 -0.040709917 -0.013327871
000190 8e 41 21 bd 5c 1c b4 3d dd a4 61 bd 89 8a b2 3c
       -0.03936916 0.087944716 -0.055088867 0.021794574
0001a0 b6 2c 43 3d 62 52 fb bc 61 03 ce bd e3 d7 8f bd
       0.04765006 -0.030678932 -0.10059238 -0.07023599
0001b0 fa 60 97 3d 38 6a 67 bd 18 d1 80 bd f1 2d df bb
       0.07391544 -0.056497782 -0.062898815 -0.0068108966
0001c0 76 0d f3 bd 0f f5 81 bd fb c1 2a 3d a0 bf 22 bd
       -0.11867802 -0.06345569 0.0416889 -0.03973353
0001d0 fb 34 d9 bd c2 86 ab bd dd b3 54 ba bb e7 11 bd
       -0.10605808 -0.083753124 -0.000811396 -0.035621386
0001e0 63 5b bd bd 96 61 1e 3e 10 97 3b 3d 86 f5 1b bd
       -0.09245946 0.15466914 0.04579836 -0.038075946
0001f0 80 1c a2 3d e2 c3 00 bc e1 73 05 3d 7b f4 ce 3d
       0.07915592 -0.007859202 0.032581214 0.10105225
000200 ec c9 8f bd d6 3f 82 3c 66 d1 e8 bd cd 9e 20 3d
       -0.070209354 0.01589958 -0.113680646 0.039213944
000210 5d 10 e7 bd aa da 72 3c 5d 24 28 3d 75 2d e4 bd
       -0.11282418 0.014822641 0.041050304 -0.11141483
000220 a1 8b 06 3e a2 02 eb bd d6 82 6c bc 41 b1 68 3c
       0.13139202 -0.114751115 -0.014435491 0.014202417
000230 7f fb 69 3d 8c bf 0f 3c 22 56 1a 3d 75 7c ef 3c
       0.05712461 0.008773696 0.0376798 0.02923415
000240 77 50 0c 3e c8 db 1a bd e8 37 8d 3d fd fa 2b bd
       0.1370257 -0.037807256 0.06895429 -0.041987408
000250 ab 51 fb 3d 65 30 c2 3d f9 72 78 bd 2c 10 12 3e
       0.12271436 0.09481887 -0.06065652 0.14263982
000260 7d b8 13 3e 34 68 9a bd db a8 08 bb de 71 fd bd
       0.14425845 -0.075394064 -0.0020852599 -0.12375234
000270 51 67 6d bb 80 7f 95 bd 7d 20 07 3e 91 be ca bc
       -0.0036224911 -0.07299709 0.13195987 -0.024749072
000280 a6 9b d8 3d 8b ea af 3d 45 48 9d bc 2c 68 09 3e
       0.105765626 0.085896574 -0.0191995 0.13418645
000290 bc c5 94 3d 13 44 a3 3d 82 34 1e 3e ab 24 de bd
       0.07264277 0.079719685 0.15449718 -0.108468376
0002a0 da b3 75 bd 2e ef 94 bd df 0c 5f bc 9b 75 0d 3b
       -0.059985973 -0.072721824 -0.013613909 0.002158499
0002b0 52 81 af 3d d2 60 cc 3d e2 ec 12 3d 63 a7 9f 3c
       0.08569588 0.099794045 0.03587044 0.019488996
0002c0 54 79 ce 3c c8 1c bb bd a4 51 21 3d b3 34 1e 3e
       0.025204338 -0.09136349 0.0393845 0.1544979
0002d0 69 21 69 3b 4a d0 06 bd 2c 86 76 bd e3 18 56 bd
       0.0035572893 -0.032913484 -0.06018655 -0.052269828
0002e0 b5 64 d2 bd 4c 2f c1 bd a4 d8 e8 3d 32 7a 48 3d
       -0.102731146 -0.09432849 0.11369446 0.04894466
0002f0 6f 3d 86 bc 2a ed 39 bd b4 b3 9e bd cf 31 4b 3d
       -0.016386716 -0.045392193 -0.077491194 0.049608048
000300 ee fe 5f bb f0 4c 90 bd 7d c0 98 bd a5 ff 51 bb
       -0.003417905 -0.07045925 -0.07458589 -0.0032043245
000310 be dc 8a 3d 80 0d 6f 3d 4b 30 68 bb 1c 8f 1f bc
       0.067803845 0.058362484 -0.0035429175 -0.00973871
000320 0f 00 ec 3d 9a ad d8 bd 8c 74 b5 bd e4 ad 80 bd
       0.11523449 -0.10579987 -0.0886012 -0.06283167
000330 79 34 cb 3d e1 79 85 3d db 21 57 bd 34 d6 27 bd
       0.09922118 0.06517387 -0.05252252 -0.040975764
000340 51 21 64 bd aa d3 d1 3d de 0e 56 bd 40 de 1a bd
       -0.055695836 0.1024545 -0.052260272 -0.03780961
000350 cc 5b ba 3d c3 61 8b bd 8a a6 ff 3d 7e 47 a4 bb
       0.0909954 -0.06805756 0.12482937 -0.0050134053
000360 33 16 b0 ba e7 de 3b 3d 30 ed bb bd 57 3d d0 3d
       -0.001343435 0.045866873 -0.09176099 0.1016795
000370 cf 40 b7 bd b2 c6 d6 3d a9 48 a5 3c 81 a2 db 3d
       -0.08947908 0.10487117 0.020176249 0.107243545
000380 22 a7 d3 3c d9 70 1e bc a9 b1 bd 3d c4 9d 8d 3d
       0.025836531 -0.00967046 0.092624016 0.06914857
000390 c5 92 a1 bd 56 46 da bd 2c 79 f7 3d 55 ea f1 bd
       -0.07889322 -0.10657947 0.120836586 -0.118122734
0003a0 24 58 cc bd 85 59 c5 3c 63 0c 21 3d b8 e1 e5 bd
       -0.09977749 0.024090538 0.039318454 -0.11224693
0003b0 4a 95 f5 3d ae ef be bd f5 71 21 3d bb f7 ad 3d
       0.11991365 -0.09323059 0.03941532 0.084945165
0003c0 0b b5 e0 bd c2 9f 7c 3c a3 0b 84 3d e0 8f 22 bd
       -0.10972031 0.015418949 0.06447532 -0.03968799
0003d0 e7 c2 fd 3c c1 8c f1 bd 94 01 4a 3d 3a 3f a4 bd
       0.030976726 -0.11794425 0.04931791 -0.08019872
0003e0 c0 12 f9 bc cb 49 11 3d f8 ec 32 3b 36 f2 d5 3d
       -0.030404449 0.035470765 0.002730189 0.10446589
0003f0 52 5e c7 3d da a8 f0 bd e0 5d f8 bd 38 69 7d bd
       0.09734787 -0.11750956 -0.1212728 -0.061867923

l1.bias f4 [1024]
000000 95 38 b1 3d ca e9 c2 bb b0 09 2e bc 8b ef d4 bc
       0.0865337 -0.00594828 -0.010622427 -0.02599313
000010 76 1b 59 3d f3 33 c5 bd cb 35 5e 3d 6e 53 96 bc
       0.053004704 -0.09629049 0.05425052 -0.01835033
000020 e8 9a cb 3d 1c e3 73 3d 58 27 a2 3d 45 03 ae bd
       0.099416554 0.05954276 0.079176605 -0.08496717
000030 eb 25 33 bc 34 3c d7 3d 9a 66 ba 3d 3a 61 bc 3d
       -0.010934333 0.1050953 0.09101601 0.09198232
000040 e9 af 93 3d 20 35 18 3c 2e 3a 8d 3d ba 9d 02 bc
       0.072112866 0.00929001 0.068958625 -0.007972175
000050 4e b1 72 bd 0a 65 0b 3e 21 ee a4 3d 98 06 18 bd
       -0.059251122 0.13612762 0.08053232 -0.037115663
000060 73 4b 7e 3d f1 95 d5 3d e0 05 e5 bd 14 35 fb 3d
       0.062083673 0.1042899 -0.11182761 0.12265983
000070 bc ae 19 3e 32 d8 89 3d 3b cc ca 3d a4 b0 07 3e
       0.15008062 0.06730689 0.09902235 0.13250977
000080 7a cd 9e bd 03 85 8a 3d 94 c1 a0 3c a7 58 f0 3c
       -0.07754035 0.06763651 0.019623555 0.029339148
000090 ee 73 90 3d 31 0c f8 bd d9 fd ae 3d 31 73 e4 bd
       0.07053362 -0.121117 0.08544511 -0.111547835
0000a0 77 d4 2a 3d 38 21 06 3e 72 7f cb bd 4f 99 3b 3d
       0.04170653 0.1309861 -0.09936418 0.045800503
0000b0 c6 4f e3 bd 4a cf b3 bd e2 1f b2 bd 17 4c 8e 3d
       -0.110992 -0.087797716 -0.086974874 0.06948107
0000c0 20 30 04 be ad 4c 0a 3e 13 e3 ff bd c6 4a c8 bd
       -0.12908983 0.13505812 -0.12494483 -0.09779887
0000d0 04 83 d3 3c ba 1e e8 bc 79 41 fe 3d c2 da 3e bd
       0.025819309 -0.028334964 0.12414832 -0.046595342
0000e0 02 54 c0 bc cf 8a f6 bd ec 68 07 3b b4 7a ba 3d
       -0.023477558 -0.120381944 0.0020661904 0.09105435
0000f0 cc c0 e3 3d 01 79 18 3d 8f b5 16 3e 91 fb f7 bd
       0.111207575 0.037224773 0.14717697 -0.12108529
000100 d4 84 db bd 38 d2 cf 3d 9e 28 6d 3c ce 06 a9 bd
       -0.10718694 0.10147518 0.014475016 -0.08253251
000110 69 db 82 bd 43 47 c0 bd c8 43 3c bd f9 4a 3b 3d
       -0.063895054 -0.09388592 -0.04596308 0.045725796
000120 c5 f1 b5 3d 1d 9e 17 3d 37 29 12 3e 80 5e 58 3d
       0.088840045 0.037016023 0.14273535 0.052824497
000130 eb 9a 76 3d ba 9d 3c 3c de a9 cb bd f9 3f de bd
       0.060206335 0.011512214 -0.09944509 -0.108520456
000140 dd 5f 74 3d bb 55 9c bd 94 6c fe 3d 41 00 cc bd
       0.059661735 -0.07633539 0.124230534 -0.09960986
000150 91 48 fd 3c 32 6d 73 3d ea 02 f0 bd 54 93 24 bd
       0.030918391 0.05943031 -0.11719306 -0.040179566
000160 7c a7 37 3d 5c d6 c3 3d a3 2d a6 bb b8 c2 04 bc
       0.04483746 0.0956237 -0.0050713583 -0.008103065
000170 06 fb a6 bd d0 bd a9 3d 13 39 eb 3c 89 8d ad 3d
       -0.08153348 0.08288157 0.028713739 0.08474261
000180 85 9f e1 bd ba f0 8e bd c9 cc 87 bc 66 34 9d bb
       -0.11016754 -0.06979509 -0.016577141 -0.004797506
000190 ce d5 ed bd 0b 55 eb 3d b4 aa a8 3d ba 41 3b 3e
       -0.11613046 0.1149083 0.08235684 0.18286791
0001a0 17 a7 e7 3d df 7b 0e 3e de 13 04 3d 51 5e 04 3e
       0.11311167 0.1391444 0.03224551 0.12926604
0001b0 70 51 61 bc 27 8a 89 3d bb ed 4c 3d bc a0 65 3d
       -0.013752326 0.067158036 0.050031405 0.05606149
0001c0 51 ac 3b bc 6a 65 37 bc e6 58 e9 3d 32 40 bf bd
       -0.011454658 -0.011193613 0.11393909 -0.09338416
0001d0 15 99 8b bc 41 c9 9b bd 44 68 27 3d 9a 94 30 3b
       -0.017040769 -0.076067455 0.04087092 0.0026944042
0001e0 f4 ff d5 bc ad 0b 98 3d 4f 76 81 3d 04 7d b5 3d
       -0.026123025 0.07424102 0.06321394 0.088617355
0001f0 d0 77 2e bd 13 7e 09 3e 25 53 b0 3d cb 5f e2 3d
       -0.04259473 0.13427 0.086096086 0.11053427
000200 ab b2 e4 3a 46 a9 04 3b 99 e5 16 3e 9c a1 dd bd
       0.0017448267 0.0020242496 0.14736022 -0.1082184
000210 42 c7 3a bd bc 1d 9f 3d a1 29 8e 3c 2d e1 d9 bd
       -0.045600183 0.07769343 0.017353835 -0.10638652
000220 91 f0 83 ba 16 5a 15 bd 81 94 72 3c 42 a3 73 bd
       -0.0010066201 -0.036462866 0.014805914 -0.059481867
000230 dc 3f cd bd 6b 73 cb bd 66 7f ea bc 9c de 62 3d
       -0.10021946 -0.099341236 -0.028625201 0.055388078
000240 b1 6b af 3d 45 f2 30 bd aa 5b 81 bd 4d ad cb bc
       0.085654624 -0.043199796 -0.06316312 -0.02486291
000250 90 48 bf bd 11 46 01 3e 0b 58 8a 3d 7c dd f1 bd
       -0.09340012 0.12624384 0.06755074 -0.11809823
000260 ad 34 b1 bd a2 54 9c bd 88 4e 83 3d 91 4f a8 3c
       -0.08652625 -0.0763333 0.06411463 0.020545753
000270 91 84 35 3d c0 74 69 3b cc 73 ff bd e1 1a 57 bd
       0.04431588 0.0035622567 -0.124732584 -0.052515868
000280 b9 5c 7a bd 5d ff 5b bc a0 62 bb 3d 17 16 0b 3e
       -0.061123583 -0.013427583 0.091496706 0.13582645
000290 c9 51 09 3c 17 e9 98 3d e9 c8 f1 3d ee 87 db 3d
       0.0083813155 0.07466333 0.11805899 0.10719286
0002a0 ed e0 40 3d 51 aa 14 3e 8f f5 e3 3d 6b 93 e1 3c
       0.047089506 0.14518096 0.11130821 0.027536115
0002b0 8d 07 eb 3d 39 eb 8f 3d 28 02 cb bd 7f 57 96 bc
       0.114760496 0.07027287 -0.09912521 -0.018352268
0002c0 8a ce 92 3d 7e 6a 5a 3d 35 1f 8c bd fe 08 2a 3d
       0.071683004 0.053324215 -0.0684189 0.041512482
0002d0 48 b0 d3 bd d7 02 e5 bd 64 ca df 3d 52 a9 be 3d
       -0.10336357 -0.11182182 0.10927275 0.09309639
0002e0 a4 e3 61 3d 80 82 ec bd ef 91 01 3e 0d 94 59 3d
       0.055148736 -0.115483284 0.12653325 0.053119708
0002f0 f5 d5 87 3d 77 36 ad bc 33 a1 d8 3c b5 86 1a 3d
       0.06632606 -0.021144135 0.026444053 0.037726123
000300 b5 26 07 bd de 94 fc 3b 87 71 f3 bd e3 aa 08 3e
       -0.0329959 0.007708176 -0.11886888 0.13346438
000310 05 37 84 3c ae 33 b9 3d 9a fa ed bc e5 b5 af 3d
       0.016139517 0.0904306 -0.02905016 0.085796155
000320 3c 06 d2 bd 6c ca 28 3c 02 66 8e 3d 0b 29 97 3d
       -0.10255095 0.010302167 0.0695305 0.07380875
000330 3c 0c 2a 3b 1f 42 0c 3e d7 fd 0c 3e 25 d7 00 be
       0.0025947234 0.13697098 0.13768707 -0.12582071
000340 59 47 03 3e 30 30 52 3c dc 8c 98 bd 04 60 84 3d
       0.12820186 0.012828872 -0.07448742 0.06463626
000350 f7 d6 5e 3d 6b dc 50 bd 5a 78 ac bc b0 6b 07 3e
       0.054404225 -0.050991457 -0.021053482 0.13224673
000360 27 62 56 bd 3c bb 6c 3a dd ad 31 3c ad 71 78 bc
       -0.0523397 0.00090305856 0.010844675 -0.015163821
000370 ae 85 38 3e d6 6f e3 bd 7c d2 91 3d be 0d 22 3d
       0.18019745 -0.111053154 0.07120225 0.039563887
000380 d3 fc dc bd ea 49 0c 3e 2b cf 10 3d bd bc b0 bd
       -0.1079041 0.13700071 0.03535382 -0.08629749
000390 38 83 45 3d e1 6f 4e 3d 8d 47 69 3d 75 bd b9 bd
       0.048220843 0.050399665 0.056953 -0.09069339
0003a0 0b 4e ab bd 21 8a 58 bd 38 c6 62 bd 65 8c be bd
       -0.08364495 -0.052866105 -0.055364817 -0.09304122
0003b0 a7 56 cd bd 5c 79 6d bd 2b d7 9b 3d 49 17 b7 bd
       -0.10026293 -0.057977065 0.076093994 -0.08939988
0003c0 1f 9a d1 bc 19 fa 0e 3e 89 bd 0a 3e 92 02 75 3d
       -0.025586186 0.13962592 0.13548864 0.059816904
0003d0 01 33 e2 3d be b3 7d 3d 30 23 e5 3d a4 10 15 bd
       0.110448845 0.061938994 0.11188352 -0.036392823
0003e0 a0 da 22 3d b0 5e db 3d 19 90 2b bd 37 b7 eb 3d
       0.03975928 0.107114196 -0.04188547 0.11509555
0003f0 d4 da e7 bd 57 75 e2 3d 17 f7 69 bc 49 95 47 bc
       -0.11321035 0.11057537 -0.014280102 -0.012181588

l2.weight f4 [10, 1024]
000000 1a cb ca bd c5 8b cf bc e5 b1 c0 bd 80 06 03 bd
       -0.0990202 -0.025335202 -0.09408931 -0.03198862
000010 30 8f 5a 3d fb ae 49 be a2 25 bd bc 23 04 ce 3c
       0.05335921 -0.19695656 -0.023089234 0.025148457
000020 f3 ab bd bc 62 20 03 3d 59 87 21 be 1d fb be 3b
       -0.02315328 0.032013305 -0.15774287 0.005828275
000030 a9 40 ca bc ed f9 b4 3a 8e 2c da 39 00 82 71 3c
       -0.024689035 0.0013807394 0.00041613396 0.014740467
000040 9c c4 f1 bd d4 1a b6 bd 64 11 a6 bc b1 e5 b4 bd
       -0.118050784 -0.08891836 -0.020271964 -0.08832873
000050 d9 c9 aa 3c a5 10 89 bc 8d b0 26 3d 20 ee 1f 3e
       0.020848202 -0.01673157 0.040695716 0.15618181
000060 c1 19 12 3e 88 7c 50 3d 18 2b a2 3c 07 af 85 3d
       0.14267637 0.050900012 0.01979594 0.065275244
000070 e8 5b 0d bd d6 62 0a bd f7 f9 39 bd f9 26 75 3d
       -0.034511477 -0.033785664 -0.0454044 0.05985162
000080 95 6f ab bc 7c e0 17 3b f2 a6 21 3e a9 19 4f 3d
       -0.02092723 0.0023174575 0.15786341 0.05056158
000090 48 e1 49 3e ae 0a 72 bc 8a 1f 88 bc ab ba c0 bc
       0.19714844 -0.014773054 -0.016616601 -0.02352651
0000a0 85 1c 3f bd f1 30 98 bd ad ac d8 3c e8 56 c5 3c
       -0.046658058 -0.0743121 0.026449526 0.024089292
0000b0 1b 86 c1 bb 7e a1 8e 3c b1 8b 54 3b 4b 84 61 bd
       -0.005905879 0.01741099 0.0032431895 -0.055057805
0000c0 5d fb e9 bd 19 73 63 3d 75 a6 7a bd 75 51 53 3d
       -0.11424897 0.055529688 -0.061193902 0.051591355
0000d0 b5 6e 35 bb b2 64 03 3d c9 cf 21 3e 0c ab 17 3d
       -0.0027684395 0.032078452 0.1580192 0.037028357
0000e0 95 68 fc bd c3 b5 86 bc 4c 41 ac 3c a4 c1 69 bc
       -0.12324635 -0.016444093 0.02102723 -0.014267359
0000f0 b9 65 dd bc a1 d5 8d 3d 54 69 2f bd af a9 2b bd
       -0.027026044 0.06925512 -0.042825058 -0.04190987
000100 60 1e b9 bc 6e cf db 3d f3 8f f4 3c 00 b0 b0 bc
       -0.022597492 0.107329234 0.029853797 -0.021568298
000110 4a 9d 01 bd 2c a9 c4 3d b5 a7 94 3c 0f 25 9d bd
       -0.031644143 0.096025795 0.018146375 -0.07673084
000120 fc 68 95 3d 98 ab 14 bd d1 55 e2 3d 1e 67 e7 3c
       0.07295415 -0.036296457 0.110515244 0.028247412
000130 11 0f c0 bc 63 6e 8e bc e2 77 c5 bd 0a 3f 00 bd
       -0.023444684 -0.01738662 -0.096420065 -0.03131012
000140 b0 66 47 bc 3e e1 ca 3d ef bb da bd 80 02 52 3d
       -0.012170479 0.09906243 -0.10680377 0.051271915
000150 91 3d e0 bc da 55 cc bb 2e e6 ed bd fc 3b a6 3c
       -0.027373107 -0.0062358202 -0.11616169 0.020292275
000160 b5 34 a8 3c e0 36 ff bb 75 01 3c bd 74 7a 38 3d
       0.020532945 -0.007788524 -0.045899827 0.045038655
000170 e1 c6 be bd cd ca 2c ba 30 e8 44 3d 66 77 e2 3c
       -0.09315277 -0.0006591499 0.048072994 0.027644824
000180 87 ee eb 3d da f4 a9 bd 45 2a 3b 3e 7f d6 9b bd
       0.11520105 -0.08298655 0.18277843 -0.07609271
000190 55 cf 09 3d 01 0c 00 bd 5b 31 2c bd 4a f3 89 3d
       0.033644993 -0.031261448 -0.042039257 0.06735857
0001a0 87 09 19 3e 68 c7 d0 bd c3 dd 43 3e 89 0d 00 be
       0.1494504 -0.10194284 0.19127564 -0.12505163
0001b0 65 08 1c 3c b3 97 40 3e 2e cf a3 bd ad 24 ac 3d
       0.009523486 0.18807869 -0.07998501 0.08405433
0001c0 e5 41 23 bd 5d 6f b2 3a 9d 7c 2d be d7 8b c8 3d
       -0.039857764 0.0013613511 -0.16942067 0.09792297
0001d0 0f 53 a0 bd 6b fb 68 39 a7 a5 1f bc d5 bf fe bc
       -0.07828342 0.00022218905 -0.009744084 -0.031097332
0001e0 2f c1 1c 3c d8 60 7b 3c d0 b8 86 bd b1 28 a2 3d
       0.009567543 0.015342914 -0.06578219 0.079179175
0001f0 00 46 37 3c 90 3f f4 bc c6 f8 09 bd 2c ee 81 3e
       0.011186123 -0.029815465 -0.033684514 0.25377023
000200 9d 86 75 3d 02 73 4b bd 21 c4 00 be 41 33 13 38
       0.05994283 -0.049670227 -0.12574817 3.5095265e-05
000210 19 c0 76 3c 5b 91 24 bd 55 77 69 bd 34 80 1f 3e
       0.015060448 -0.040177684 -0.05699857 0.1557625
000220 93 ae b8 3d 67 21 8a bd 03 4b 95 3d 5a 64 26 3e
       0.090176724 -0.06744652 0.07289698 0.16249219
000230 44 f6 a4 3c 06 c8 d5 3b e0 1b 3f 3d fd 81 60 3b
       0.02013696 0.006524089 0.046657443 0.0034257167
000240 b8 43 35 b9 0e 50 cd bc 1f 1c 44 bd 15 0a 2e 3d
       -0.00017286732 -0.025062587 -0.04787838 0.042490084
000250 ac e6 f7 3b dd 49 45 3d e2 39 3c 3d 67 21 07 3d
       0.00756534 0.048166145 0.04595364 0.03299084
000260 71 99 0b 3e 2b f1 80 3d 92 b5 83 bd e2 25 a2 bb
       0.13632752 0.06295999 -0.06431116 -0.0049483636
000270 78 fd ec bc 0c 56 01 3d a7 67 c9 bc a4 73 41 bc
       -0.028929457 0.0315762 -0.024585558 -0.011807356
000280 c3 7b 46 bb 42 05 9d 3c b2 86 29 be 8b 47 ed 3d
       -0.003028617 0.019167546 -0.16555288 0.11585911
000290 69 33 2c 3e 98 bc 92 bd 28 f0 1d bd 50 07 8f bb
       0.16816486 -0.07164878 -0.03855911 -0.0043648854
0002a0 39 6e a5 39 23 b0 48 bd e3 f3 e3 3d 3d 75 cd bd
       0.00031553375 -0.048996102 0.11130502 -0.10032127
0002b0 b2 5d 02 bc 60 64 73 bd bf 11 66 bc f8 34 75 3a
       -0.007956909 -0.059421897 -0.014042317 0.0009353901
0002c0 46 ae 91 bc 3d b5 a9 3c c6 bb 37 bb 5b bb d6 bb
       -0.017783295 0.020716304 -0.0028035506 -0.006553096
0002d0 45 54 30 bd e8 10 bc 3a 1f 44 38 be f5 be ce bc
       -0.043049116 0.00143483 -0.17994736 -0.02523754
0002e0 d6 e2 c1 bc 0a 6d e0 3c 4b d6 11 bc 1b 69 6e bd
       -0.023667734 0.027395744 -0.008901189 -0.058205705
0002f0 4e cb 82 bd 02 f3 42 3e 4f f5 8c 3a 47 05 8f 3c
       -0.063864335 0.19038013 0.001075426 0.017458571
000300 8d 0d 58 3d 06 c3 0a 3d bd 83 33 bd 56 7a 3a 3c
       0.052747298 0.033877395 -0.043826807 0.011381706
000310 2f 3c cf 3c 17 2e 05 be b1 00 40 3d 26 35 5f 3a
       0.025297252 -0.13005863 0.04687566 0.00085146946
000320 6a 0c 60 bd b7 10 dc bd d6 fd dd bd bb 22 b1 bd
       -0.05469934 -0.107453756 -0.10839431 -0.086492024
000330 43 86 94 3d 97 f2 b4 3d 72 8e c1 bd 31 c1 56 3c
       0.07252171 0.08835333 -0.094509974 0.013107584
000340 7e 11 83 bd b4 43 7b 3d eb af 89 bc 5d 9c 9a bd
       -0.06399821 0.061343864 -0.016807517 -0.07549355
000350 fe cf eb 3c 0d 41 2f 3d 01 a7 13 bd 32 5c a0 bd
       0.028785702 0.042786647 -0.03604794 -0.07830085
000360 90 2c cb 3d fd ff c1 3d 4c 3c 1f bc ae 99 05 bb
       0.09920609 0.09472654 -0.009718966 -0.002038579
000370 9d 46 ad 3d c7 a4 e2 3d 4a 9c 04 be 5e ef b9 bc
       0.08460734 0.11066585 -0.12950245 -0.022697147
000380 86 d4 62 3c 93 a1 a4 3d d9 4d 93 3c 7f 29 37 3d
       0.013844615 0.0803863 0.017981457 0.044717308
000390 37 67 8b bd 64 4e 4d bd 54 fe 2f 3b b0 45 af 3c
       -0.06806796 -0.050123587 0.0026854472 0.021395534
0003a0 87 51 02 bc 23 f5 fc bb 09 b6 92 3d e2 e1 3f bc
       -0.007954008 -0.0077196523 0.07163627 -0.0117115695
0003b0 08 6d 6c 3d 9c b4 fe bc b6 c5 78 3d 49 90 5c bb
       0.057721168 -0.03109198 0.060735427 -0.0033655337
0003c0 1c f0 c7 3d af 3c 21 bd 80 e4 39 bb 8d 5a a7 3d
       0.09762594 -0.039364513 -0.0028364956 0.08171568
0003d0 9f 8c b2 bc d9 c2 8c 3c 4b 0c 5c 3d f6 b0 56 bd
       -0.021795569 0.017182754 0.05372266 -0.052414857
0003e0 1c 83 d3 bd 3e 4d d5 3c aa c0 23 3c fe f3 58 bd
       -0.103277415 0.026037809 0.009994665 -0.052967064
0003f0 e6 0f e9 3c b0 c6 20 3d 90 8c 92 3c bc e7 95 bd
       0.028449964 0.039251983 0.017889291 -0.073195904

l2.bias f4 [10]
000000 08 01 71 3c c6 71 49 be 94 7d 07 3c b4 54 bd 3d
       0.0147097185 -0.19672307 0.008269686 0.092446715
000010 54 1b 99 3e 34 50 db bd 34 01 18 bd 16 b4 d1 bd
       0.29903662 -0.10708657 -0.037110522 -0.10239427
000020 4d ba 0f 3e 31 61 24 be
       0.14035912 -0.160527
