saved_CNN_small.pt (torch, 613800 bytes, 10 tensors)

c1.weight f4 [64, 3, 3, 3]
00000000: 22a0 56be 57f9 92be f7d0 a33b f478 8a3c
00000010: 42c1 023c 622b 4cbd 3d35 34ba 905e 1d3d
00000020: 5fe5 2b3e 8a07 45be 416b 9cbd 4447 70be
00000030: 26e8 013e 6a3f 16bb 5839 1fbe b2da 95bd
00000040: eb97 86bc 1d43 b3bb eb0c 3cbc 8608 3fbc
00000050: bf5a c4bd 9a25 983e 1d00 a73e 29db 313e
00000060: 88a2 6e3e becd 5f3e 13d4 edbc 2597 dcbd
00000070: f19c 3abe 5e39 403e b084 863c 2b35 333d
00000080: be3a 6e3d 5bb6 b63e e9ad 023e 5bdf ffbd
00000090: 70d4 42be 3e5f a53d 9b3b 8a3e e105 6cbe
000000a0: f22e 693e 417c bcbd 9750 8f3e fc6e 8f3b
000000b0: f488 94be dab8 afbe 2bb9 f73c 722f 673e
000000c0: 1aa9 e43d 12c8 76bd afb3 483d 061a be3e
000000d0: e1c0 36bd a8f3 abbe b054 16be 345d b3bc
000000e0: cee3 b0bd 4b8c 84be b0cc dcbc 5892 48be
000000f0: f7de 20be 022a b6be 20a1 38be 9d47 f63d
00000100: b1a8 cb3c cfe5 ba3d c19d 7c3e cdd6 183d
00000110: a10d 9cbd 7c06 bebd bde0 dc3d da11 243e
00000120: fd39 673d 047f e7bc 2ba5 d73d 8d47 ae3d
00000130: 8184 303d dd61 5d3e 20ad 4b3e 1098 963e
00000140: 9d22 1f3d b2f3 a1be 980f 3abd ae18 d63e
00000150: 5661 cfbe 9a8b 663d 7bcf d73e a013 eebe
00000160: b34c de3e 0202 943e 5981 61be d78e 4dbe
00000170: dc85 b23d de01 d2be 41c4 3b3e 5654 0d3e
00000180: b28b bebe 03bf 583e 9b3a 14bc 96da 5fbe
00000190: 4413 833d 4d18 a93c bc60 adbe d901 46bc
000001a0: da43 8c3e cfbd a0be 377d db3e 5d49 a33e
000001b0: 39a0 efbd ea82 473e 8daa 913e 2af9 f53c
000001c0: 1202 373e 4ab7 6b3d 046a 333d 5925 89bd
000001d0: b3d5 64be ec9d 3e3e 42c3 7cbd 3c53 443e
000001e0: 34f1 a63d f856 cbbd a80a eabd f877 b9bc
000001f0: 79bf 70be 5cba 69be c75c cc3d 995f 8b3e
00000200: 610a 263d 3afe 8d3d 0c32 10be da8e 363d
00000210: 4707 14be 3f88 11be f0e5 49be 074b 42be
00000220: 2892 a63e 943f 913e b9dc 94ba 656b ff3d
00000230: 3240 d1be c604 5b3e b002 b1be 777a a63d
00000240: 0907 cabe 96bd 683e 1747 613d e271 bb3e
00000250: 630e 713e e5cf bdbe f71d 453e 1d98 bebe
00000260: 9718 7dbd 350c 9dbe e330 843e 0c28 7cbb
00000270: 56dc 7e3e 56e0 2b3e b542 8bbe 36b4 d5bc
00000280: 9b8e 93be bf16 a43e dc5a 703e 7263 3c3d
00000290: 1775 c73d 2009 033e d979 1ebe a0ad 403d
000002a0: 2580 703e 9ff3 943d 68ca ddbd adcc b93d
000002b0: 4447 7bbe f66b 50bc cea1 1c3e 9dae 78be
000002c0: cb6e 343e 4395 2e3e 6955 efbd 4298 f53d
000002d0: 64e9 00bd 1fa7 c0bb 9cdc 2b3c f38b e63c
000002e0: bf8a a13d 9e5b b73d a599 9a3d c2c1 6cbe
000002f0: e8db eabd 61ef 54be dad1 d63c 35fa 133e
00000300: 274a 833d 0c64 c63b b51a 023e c1a3 02be
00000310: c096 74be 1bc8 1fbd e4e5 67bd a40d 603e
00000320: 9415 503d e6ea 99bd 9dc4 0bbe da7c 9d3e
00000330: 674a 44bd 9327 b43d 511d fe3c e241 c7bc
00000340: d77e 5f3e 2251 5fbd 0685 3abe aae6 21bd
00000350: 4c0f 343e 68a4 11be 05a9 f7bd 14a0 9ebd
00000360: abb4 2f3e 26ac 92bd 9e20 e7bb c0c7 cb3d
00000370: 7f68 b4bc 0f18 3ebe f704 c03d 020d fabd
00000380: b2df 6dbe f597 7d3d 8232 413e 88c0 30be
00000390: dd65 303d 3a2f 2b3e e933 4c3e 47e9 07be
000003a0: 32c6 223e f5e1 d63c b36b a4bd c1e8 083e
000003b0: b193 f8bc 0317 553d 7c60 e53b 9b90 6e3e
000003c0: fd50 fe3d 62f4 c43d c8e0 5dbd d55d 55be
000003d0: 5a1c b7be 1ad6 823d 7939 4bbe a750 103c
000003e0: 058a 893e ef4a 073e 7de9 ae3e be23 55bd
000003f0: a798 51be 5ddd 6abe 5967 2cbe 388f debd
-0.20959523 -0.28705856 0.004999276 0.016903378 0.007980647 -0.04984606 -0.0006874388 0.03842026
0.16786717 -0.19241157 -0.076376446 -0.23464686 0.12686214 -0.0022925981 -0.15549219 -0.073171034
-0.016429862 -0.005470647 -0.011477689 -0.011659747 -0.09587621 0.29716188 0.32617274 0.17368759
0.23304188 0.21855828 -0.029031789 -0.10771016 -0.18223931 0.18771884 0.016420692 0.043751877
0.05816149 0.35686 0.12761654 -0.124937735 -0.19026351 0.08074807 0.269986 -0.23049118
0.22771814 -0.09203387 0.27991173 0.004377244 -0.29010737 -0.34320718 0.030239662 0.22576693
0.11165066 -0.060249396 0.048999485 0.3712923 -0.044617537 -0.33584332 -0.14680743 -0.021895029
-0.086372 -0.25888285 -0.026953071 -0.19587076 -0.15710054 -0.35578924 -0.18030214 0.12025378
0.024860712 0.09125864 0.24669553 0.037314225 -0.07619787 -0.092785805 0.10785053 0.16022435
0.056451786 -0.028258808 0.1052955 0.08509741 0.043095116 0.21619363 0.1989026 0.2941289
0.03885137 -0.31631237 -0.045425028 0.41815704 -0.4050395 0.05628548 0.42150483 -0.46499348
0.43417892 0.28907782 -0.22021998 -0.2007402 0.08716938 -0.4101705 0.18336584 0.13801703
-0.37215954 0.21166615 -0.009047176 -0.21860728 0.06400159 0.02064147 -0.33862865 -0.012085401
0.27395517 -0.31394812 0.4286897 0.3189191 -0.11700482 0.19483534 0.28450432 0.030026037
0.17871884 0.057547845 0.043802276 -0.066965766 -0.22347145 0.1861493 -0.06170965 0.19172376
0.081514746 -0.09928697 -0.11427814 -0.022640213 -0.23510541 -0.22824997 0.099786334 0.27221373
0.04053724 0.069332555 -0.14081591 0.044569828 -0.14455901 -0.1421213 -0.1971662 -0.18973933
0.32533383 0.2836882 -0.0011357284 0.12471656 -0.4086929 0.2138854 -0.34572363 0.08128827
-0.39458492 0.22728571 0.054999437 0.36610323 0.23540644 -0.37072673 0.19249712 -0.37225428
-0.06179103 -0.30673376 0.25818548 -0.0038476018 0.24888739 0.16784796 -0.2719933 -0.026086908
-0.28819737 0.32048604 0.2347216 0.045993276 0.0973913 0.1279645 -0.15476169 0.04704058
0.23486383 0.072730295 -0.108296216 0.09072242 -0.24538904 -0.012721052 0.15296099 -0.2428536
0.17620389 0.17049126 -0.116862126 0.119919315 -0.03147258 -0.0058792974 0.010489609 0.028142905
0.07887792 0.089530215 0.075488366 -0.23120788 -0.11467725 -0.20794441 0.026223112 0.14450915
0.06410628 0.006054407 0.127055 -0.1275778 -0.23885632 -0.039009195 -0.056615725 0.21880203
0.05080183 -0.075155064 -0.13649221 0.30759317 -0.047922518 0.08796611 0.031019839 -0.024323408
0.2182573 -0.054520734 -0.18214807 -0.03952662 0.1758396 -0.14222872 -0.12092785 -0.07745376
0.17158763 -0.07161741 -0.007053449 0.09950209 -0.022022484 -0.18563865 0.09375947 -0.12209512
-0.23229864 0.061912496 0.18866923 -0.17260945 0.043065894 0.16717234 0.19941677 -0.13272582
0.15895918 0.026230792 -0.080283545 0.13370039 -0.030343862 0.0520239 0.007000027 0.2329735
0.12417791 0.09616925 -0.054169446 -0.20836575 -0.35763818 0.06388493 -0.19846143 0.0088082915
0.26863113 0.13212179 0.34162512 -0.05203604 -0.20468388 -0.22936006 -0.16836299 -0.108671606

c1.bias f4 [64]
00000000: 693b 4a3e 6d5d c93b 9bbe 523e cfb5 6dbd
00000010: c3e0 cbbd eb6e 4abc 9e9a 0cbe 3e69 133e
00000020: 20fa ee3d 72b6 d1bd 661e c1bc 1453 483e
00000030: c5d3 82bd 50a9 46be 8d7e 283f 36a5 803c
00000040: 9315 373d d3b4 d93d 79f7 59be b0e6 4fbe
00000050: a8cf d3bb 4654 0b3d e059 d3bd cdf8 babc
00000060: 3887 ecbe 7c90 04be b1a1 6ebe 675e 20be
00000070: f62d 71be 6c5b b93c 087d 02bd 58af 1abd
00000080: 8013 c7bd 578f 4d3d 0520 fabd 1567 8e3b
00000090: 0120 9bbb c325 1d3e 353d 323d 0d9d a2bd
000000a0: 4934 88be dec7 053f 64a3 0fbe 876e 4dbe
000000b0: c8a5 aabe 1ead 66be 986c 64bd fffc 66bd
000000c0: c549 42be d966 4dbe 33bd 24be fe70 babc
000000d0: 6610 c03d b608 4f3e 4e16 01be 76b3 1fbc
000000e0: 79c3 11bd 352d 1c3e 0268 6c3d c56f 673d
000000f0: 03d4 c7bd 5a3b 903e e465 d5be 0bd6 253d
0.19749226 0.0061451704 0.20580523 -0.058034714 -0.09954979 -0.0123555465 -0.13730857 0.14395615
0.11668801 -0.10239877 -0.023574065 0.19562942 -0.06388048 -0.19400525 0.658181 0.015703779
0.04469831 0.106301926 -0.2128581 -0.20302844 -0.0064639635 0.034015916 -0.10319877 -0.022823716
-0.46196914 -0.12945741 -0.23303868 -0.15661012 -0.23552689 0.022626601 -0.03185752 -0.037764877
-0.09720516 0.050185528 -0.122131385 0.0043457844 -0.00473404 0.15346436 0.043515403 -0.07940111
-0.2660239 0.522581 -0.14027172 -0.20061694 -0.33329606 -0.22526976 -0.055767626 -0.05639362
-0.18973453 -0.20058765 -0.16087799 -0.022758957 0.09378128 0.20218167 -0.12606165 -0.009747377
-0.035586808 0.1525162 0.057716377 0.056503076 -0.09757235 0.28170282 -0.416793 0.04048733

c2.weight f4 [64, 64, 3, 3]
00000000: dc14 f6bb 8754 8bbc 1295 e0bc 360c 0b3d
00000010: 1908 8f3b 6d4a b63a 9ed0 963c 9907 ba3c
00000020: 2840 163b 9ac4 d73c c82d 96ba e7b2 9cbb
00000030: 3263 95bc 4c03 023d 1782 0ebc 2a17 d83c
00000040: 9551 5aba 5f78 0ebd 3284 453d 478a 5a3d
00000050: 5f4d 4e3d cacf 0b3d 2f9b d63c efb0 eabc
00000060: ee64 84bc a707 dfbc 8671 c7bc 9e16 12bd
00000070: 0590 3dbd cb3e 48bd 03a5 c23c 74ae 4dbd
00000080: 6c9f 1ebd 6375 c0bc 1eb7 58bc 54e8 c13c
00000090: 3c48 df3b a695 c8bb 57f2 923c ba09 81bb
000000a0: 9ad4 7fbc 90c6 3dbc f792 d2bc 21f5 573d
000000b0: 64c9 3a3d 2a26 da3c e9b1 a63c 64eb a43c
000000c0: ef09 cc3b d83d 903c be44 2dbd 005f 1fbd
000000d0: 231b 1f3d a760 613c c098 d53a 753d 183d
000000e0: 171a 9ebc ddff fe3b 8448 433c 2039 973b
000000f0: 00ed 0a3c d757 c2bc 5db1 273c 4e83 093d
00000100: 12d7 40bd 349b 103c a0b9 2d3b fce6 24bb
00000110: ed02 41bc c480 34bd d70d dabc 5bda c13c
00000120: 0eef f6bb 7e9f f23c 7c13 87bc eff0 963c
00000130: fd36 363b 2ae3 70bc 56dd 00bb 9f2c eebc
00000140: d1ae 3abd 7154 5cbc 4fdf b3bc e6ee b7bc
00000150: 4993 d3bc 4a00 e8bb 2e9b 0e3c 7340 c9bc
00000160: 42ad e33c f48a bebc 1ad2 0dbc 6c85 49bd
00000170: 661e 5d3c 3cb6 20bd c895 32bd 6174 04bd
00000180: bcf6 a2bc c206 d4bb 6a1f 633c b082 1a3d
00000190: 083f 1abd a184 0f3d adf1 0d3d f604 3ebc
000001a0: b81c e63c 98ef 08bd c237 0cbb 51da d13c
000001b0: bed7 d63c 2200 8bbc 4eba a0bb 3004 eb3a
000001c0: 5e4b 173d 0510 dcbc c21a 5c3b adb9 fbbb
000001d0: 9a34 23bd 6cb1 fe3b ede2 14bd d2dd fc3b
000001e0: a4af 24bc 121a 633d 4a9a 183d 6bfc 013d
000001f0: a4dc ce3c bd3b f23c 4aa1 e13c 731a 8a3d
00000200: 9c3b e23c 3958 7c3d 92f4 7bbc 1176 143d
00000210: add4 d2bc e648 01bd de4e 66bd 1967 c43c
00000220: 5169 bebb 0218 afbc ab3a 15bd a4aa f4bc
00000230: 162c c43c 49a2 d63c 07d4 cfbc 1cde e9bc
00000240: ab0c 833c a8d1 2b3b aa16 cdbc 7a26 94bb
00000250: 060a 3bbd aef6 a23a 6843 f03b f72a bc3b
00000260: e331 18bd 725f d93b 148f 23bd 9b7a db3c
00000270: fac4 f53c 097c 4bbb b31d 243d aaa1 23bd
00000280: e040 e8bc d9cc debc 32ef 20bc 9bca 0cbd
00000290: 29ec f63b 3d40 57bc 2ef3 bc3c 5f6a 093d
000002a0: cc65 e63c 4249 0e3d a67a cb3c 6a81 d33c
000002b0: 2d91 053d e77a d53c 9a2f 6ebc 1c34 c6bc
000002c0: 496c 22bd 98fa 5cbc 09fa 183b 2262 f6bc
000002d0: 533d a23c 9bc7 1a3b 9964 8d3c 61ba 18bc
000002e0: 1c7a 71bc 8b9d 27bb 02e4 68bb 05ca 8f3c
000002f0: a2b3 8bba aa2b 37bd 2fb4 fcbc ed83 89bd
00000300: d413 55bc 5b1d 7fbb b3b9 31bd 391f e93b
00000310: 8946 89bc a9bf bcbc 7b82 bcbb c4de 0d3c
00000320: 704c d7bc 5eb4 f4bb 4981 0d3d 99d8 733d
00000330: e9c7 2c3d 04a9 b9bc 9e6d 34bc d26b 8d3b
00000340: 0fec e13b 850a 35bd ec5a 2fbc 4d5a 94bc
00000350: bc6b 02bd 2687 f8bb 05eb 9cbc 177d 033d
00000360: 36ba 9b3c c9e9 53bc f356 573a 05e8 7bbc
00000370: d7a7 e1bb e6a5 09bd 2a07 1d3d 4e70 0ebc
00000380: 9660 9abb 7c39 3b3d 85ed 8dbb 9208 bd3c
00000390: c711 1a3d 0acf b6bc 6017 e03c 1ce2 e63c
000003a0: e17e fc3c 62aa fcbb a9fd 0e3d ed06 9a3c
000003b0: 718c d5bc d6bb 42bc c034 d33c 4c0a cc3c
000003c0: 0e04 15bd 7d91 08bd 9ddc dc3b 3b8d 90bc
000003d0: f6c8 b3bc b1e5 36bc 1fbb d6bb 4662 243c
000003e0: 4df2 843d a042 103b 5598 853b 387b 1e3c
000003f0: 7a44 0e3c 13e8 9bbc dae0 113c 6d01 7fbb
-0.007509811 -0.01700808 -0.027414832 0.033947192 0.004364979 0.0013907679 0.018410023 0.022708701
0.0022926424 0.026338864 -0.0011457736 -0.004782069 -0.018235777 0.031741425 -0.008698008 0.026378233
-0.0008328197 -0.034782764 0.048221774 0.053354528 0.050366756 0.03413371 0.026197044 -0.028648822
-0.016161408 -0.027225329 -0.024346124 -0.0356661 -0.046279926 -0.04888801 0.023760324 -0.0502152
-0.038726255 -0.023493474 -0.013227252 0.023670353 0.006814031 -0.006121355 0.017937822 -0.003937927
-0.015614653 -0.0115829855 -0.025704844 0.052724008 0.045602217 0.026629526 0.020348506 0.020131774
0.00622677 0.017607614 -0.042301886 -0.03890896 0.03884424 0.013755954 0.0016296133 0.037167985
-0.01929955 0.007781966 0.011919145 0.004614964 0.008479357 -0.023723526 0.010235158 0.033572488
-0.047080107 0.008826066 0.0026508346 -0.0025162091 -0.011780483 -0.044068113 -0.026617927 0.02366369
-0.0075358218 0.029617067 -0.016488783 0.018425433 0.0027803772 -0.014702598 -0.0019663176 -0.029074011
-0.045576874 -0.013447867 -0.021957068 -0.022452783 -0.025827067 -0.0070801126 0.00870399 -0.024566865
0.027792577 -0.023259617 -0.008656049 -0.049199507 0.013496017 -0.039236292 -0.043599874 -0.03233755
-0.019893043 -0.006470532 0.01386247 0.03772229 -0.037657768 0.035038594 0.034654308 -0.0115978625
0.028089866 -0.03343162 -0.002139554 0.025616797 0.02622592 -0.016967837 -0.0049050217 0.0017930325
0.03693711 -0.026863107 0.0033585285 -0.0076820464 -0.039845087 0.007772615 -0.036349226 0.0077168727
-0.010051642 0.055444784 0.037256517 0.031734865 0.025251694 0.029569501 0.027542729 0.06743326
0.027616315 0.061607573 -0.015378134 0.03624541 -0.025736177 -0.031563662 -0.056227557 0.023974942
-0.0058108945 -0.021373753 -0.036432903 -0.029866524 0.023946803 0.02620043 -0.025369657 -0.028548293
0.015997251 0.0026217494 -0.025035221 -0.0045211883 -0.045663856 0.0012433135 0.007332254 0.0057424265
-0.03715695 0.0066336924 -0.03993137 0.026791861 0.030001152 -0.0031049273 0.040067386 -0.039949097
-0.028351247 -0.027197288 -0.009822654 -0.034372907 0.0075354767 -0.013137874 0.023065176 0.03354871
0.028124712 0.034737833 0.024838757 0.025818545 0.032609154 0.026059581 -0.014537716 -0.02419477
-0.03965405 -0.013487481 0.0023342392 -0.03007609 0.019804632 0.002361751 0.017259883 -0.00932178
-0.014738586 -0.002557608 -0.0035536294 0.017552385 -0.0010658393 -0.044719376 -0.030847637 -0.06714616
-0.013005216 -0.003892741 -0.043389987 0.0071143177 -0.016757267 -0.02304061 -0.005752859 0.0086590685
-0.026281565 -0.0074677905 0.034547124 0.059532735 0.042182837 -0.0226636 -0.011012463 0.0043158317
0.0068945955 -0.044199485 -0.01070283 -0.018109465 -0.031841025 -0.0075844703 -0.019155035 0.032101717
0.01900969 -0.012934157 0.00082145556 -0.015375142 -0.006886463 -0.03360548 0.03833691 -0.008693768
-0.004711221 0.04570912 -0.004331293 0.023075376 0.03761461 -0.02231552 0.027354896 0.02818399
0.03082222 -0.007710741 0.034909878 0.01880213 -0.026067944 -0.011885604 0.02578199 0.024907254
-0.03638082 -0.033341873 0.0067401663 -0.017645469 -0.021946412 -0.011163161 -0.0065530683 0.010033196
0.06491528 0.0022012368 0.0040769973 0.009672932 0.008683318 -0.01903156 0.008903706 -0.0038910762

c2.bias f4 [64]
00000000: c244 0c3b 6d21 273d 0c6c 72bd 9748 40be
00000010: 07d9 39bd 2610 0dbe efbc 36bb 2c65 d6bc
00000020: 442f ee3d a269 003d 7fff 503d 6db4 7ebd
00000030: 7792 d83d 4d27 1fbe 9345 8cbd 5ec1 673e
00000040: 6516 313d 365e 1539 d3b9 323e 9dd3 523e
00000050: d018 133d 3daa 85bd ed56 16bc c15c 12be
00000060: f46a 443e 4ddd 913c c4c6 51be d31d 763e
00000070: 65bc ba3d 07ed 6abe a26a 263e dd4b 513d
00000080: 3d46 ab3e 48c1 31be 6168 913e 2292 28be
00000090: ac57 873d a0b7 babc 70de ecbd 204b ccbc
000000a0: 2038 683c 7095 053c 0401 2d3d 6c2d 3e3a
000000b0: db3d 183d fc0f 5a3d 1d1f 90bd 32ba b7bd
000000c0: 0cb4 3a3c adbd bbbe 4c2a 42bc d3a6 09be
000000d0: 6082 3cbd b58f 67bd 7d4c 343d b396 1d3e
000000e0: e1c6 b1bd ee87 bbbd 040c 1b3e b715 a4bd
000000f0: 1c96 703e faa2 efba ea14 bbbd e77a 933c
0.0021403288 0.04080336 -0.059185073 -0.18777691 -0.04537299 -0.13775691 -0.002788361 -0.02617129
0.11630109 0.03135074 0.05102491 -0.062183786 0.10574811 -0.15542336 -0.06849208 0.22632357
0.043234248 0.00014244844 0.17453699 0.20588537 0.035912335 -0.06526611 -0.009175998 -0.14293195
0.19181424 0.01780572 -0.2048598 0.24034815 0.09117965 -0.22941981 0.16251615 0.05109774
0.33452025 -0.17358887 0.28399947 -0.16461995 0.06608519 -0.022792637 -0.11565864 -0.024938166
0.0141735375 0.008153304 0.042237297 0.0007254693 0.037168365 0.0532379 -0.070371844 -0.08971061
0.011395466 -0.3666815 -0.011850905 -0.13442545 -0.046022773 -0.056533534 0.044018257 0.15389518
-0.08680511 -0.09156786 0.15141302 -0.08011954 0.23494762 -0.0018282824 -0.091348484 0.01800294

c3.weight f4 [64, 64, 3, 3]
00000000: 4a7b 8e3c 0c68 2d3d e5c1 6cbc 7783 b8bc
00000010: 2f72 633d d996 18bd 98be 1e39 f70b 27bd
00000020: c575 99bc 4cfe 9d3d 1732 793d 50d8 4f3d
00000030: f0f6 69bd a4f1 f23d 1886 92bc 3ad2 c53b
00000040: 3f50 47bd 7a37 f13c f0bf 32bd 1ee9 aa3c
00000050: ce15 113d 4ab6 ce3c eacd e4bc 1df6 d6bc
00000060: 9337 553c 872c a83c 18ac 093d eed3 473d
00000070: d141 ea3b 6e2a d03c d7dd 253e 6cf4 cc3c
00000080: a4d9 113c 50a1 84bc 49a8 15bd 5285 e8bc
00000090: 5ce7 48bd 0059 bcbc 2816 83bd d811 b83d
000000a0: d31d eebc cec6 14bd 95bc 29bd c295 40bd
000000b0: 4b9d 153d b985 313c 1389 073e 387a 87bc
000000c0: a6ae 0abd ab39 53be 2e2f c6bc 6d87 30bd
000000d0: 5896 71bd f0c1 c73a ca89 e6bd ac5b 483d
000000e0: 80bd 32bd 4ca7 1d3e 664b 803e 610e c13b
000000f0: d84e a2bb 8819 0ebd 9a3a 853c 75d7 443c
00000100: 328e ab3b 28ef 1e3b 38f8 ddbc e741 bdbd
00000110: 7c2b 2dbb f824 873c 1d83 b3bc cfec feba
00000120: c8ec ef3d 009d c03d b293 2e3d 93c2 74bd
00000130: 3267 ffbd bbd3 a23b 2284 28bd db0b 9fba
00000140: 2a1e 383c 219e 2b3c 2cc6 ea3d 5240 23bd
00000150: c2d8 38bc fb92 4abc a4eb a9bd 0800 9fbd
00000160: c6d9 93bd 9c37 9a3c 032c 173d 0117 b9bc
00000170: f161 c339 d00e 25bd 76e4 13bd eaef 2f3c
00000180: dafa 26bd 35cf 5f3c b3c5 513c dded 24bc
00000190: 606a 363d 5377 e8bc 8df0 c03b dbe5 3abd
000001a0: ee6d 8bbc 6475 edbc 538d 343c 39cf 04bd
000001b0: 35e0 e2bc df5f f2bb 8ee5 8bbc 7090 2a3d
000001c0: 16d7 91bc 095c f2bc 56bf 8239 f822 59bd
000001d0: d624 48bc b42b e13d a1d8 93bb 0840 28bc
000001e0: a30e dcbc 7d50 2abe 03fd a1bc 6995 41bd
000001f0: 5493 bfbc 6f6d 023c 61e1 c83a 3d14 48bc
00000200: 3180 50bc 418b 1dbd 057f 9f3d 50c3 00bb
00000210: 6742 0cbd 55b2 583b 52d3 b93c 3cae 0b3e
00000220: 2a0a 133d 6163 253c e6ee aebd 5240 bdbd
00000230: 54e3 e7ba 64bd a8bd 93ec 20bd 4aff 2fbc
00000240: 1204 bd3c 67c2 a03d dfc5 07bd d8a9 023e
00000250: 305f 223d d734 7b3d 5845 bfbc 6017 49bd
00000260: b576 10bd ce7e 553d c072 413d fc70 d43a
00000270: fb8b cfb9 dbce 85bd 8a34 32bd e815 d8bc
00000280: ddaf 4dbd def4 b9bc ea05 e93c 84fd febc
00000290: b331 003d 3f20 32bd 69fe 0fbe 3ff5 843d
000002a0: fafd 353b 1768 40bc ffd1 0dbc e0f1 38bc
000002b0: 901b f3bc d3d4 8dbb 91ed 4b3e 4d98 0dbc
000002c0: c1e0 e1bd 69e7 53bd 9746 0cbd 3139 1e3b
000002d0: 9611 313c ef9e a1bc 1af5 f33b 506e 4fbd
000002e0: 6c33 e0bc 362c 093d fc33 47bd 1eac 52bd
000002f0: 83b9 f8ba 811b 1fbd d166 95bd af68 2abd
00000300: cc00 a5bb a6ba 5bbd f766 9cbb 8296 41bd
00000310: 41f9 35bd 6322 39bc 5584 0ebc 8a85 99bc
00000320: 465a 3fbd b618 d7bd c78a e33d 945b 46bd
00000330: 9908 09bd e170 19bc 9599 853c dc2c 873d
00000340: 1638 533d dc41 ddbb 7b80 ec3d 4579 0bba
00000350: 69d5 313c 488e 06bd 6196 2abd 5f92 fdbc
00000360: d3aa 103e b6d8 0d3d 9c22 6a3c 9741 183e
00000370: 2f58 69bc 8dfd c3bc 5b46 a0bd 086e afbd
00000380: 0915 f6bc 5113 b2bc f54b 053d a989 4ebd
00000390: 0d78 29be 9b67 89be 1e31 ac3c cdf4 adbc
000003a0: ee80 343a 8d1d eebc 4091 573d eadd 8ebd
000003b0: eb47 213d ee25 c4bb 135b e1bd bb8e 023c
000003c0: a5a8 f9bc 39e1 fcbb 7597 9dbc fab9 c23d
000003d0: e8ff f13c 0d5e 8cbd 5b71 ba3d 5e91 853d
000003e0: cf93 9a3b 4c02 e83b d42e 053d 1614 e9bc
000003f0: 1681 0e3d 7277 433d cc0f b2bd e40b 913c
0.017392773 0.042335555 -0.014450525 -0.022523625 0.055528816 -0.037253235 0.00015139056 -0.040782895
-0.018732915 0.07714519 0.060838785 0.0507434 -0.057120264 0.118624955 -0.017886207 0.006037024
-0.048660513 0.029445399 -0.043640077 0.020863112 0.035421185 0.025233407 -0.027930219 -0.026240403
0.013013738 0.020529045 0.033611387 0.048786096 0.007148959 0.025410857 0.16197906 0.025018893
0.008901987 -0.016190201 -0.036537442 -0.028383885 -0.049048766 -0.022991657 -0.0640071 0.089877784
-0.029066956 -0.036322407 -0.04143961 -0.04701782 0.03652696 0.010835105 0.13235883 -0.01653777
-0.033857964 -0.20627467 -0.024192419 -0.043097902 -0.05898127 0.0015240293 -0.1125675 0.04891555
-0.043637753 0.1539585 0.25057524 0.0058916067 -0.0049532466 -0.034692317 0.016263295 0.01201426
0.005235457 0.0024251435 -0.027095899 -0.092410855 -0.0026423624 0.01649712 -0.021913106 -0.0019449237
0.11715084 0.094049454 0.042621322 -0.059755873 -0.12470855 0.004969088 -0.041141637 -0.001213427
0.01123766 0.010474713 0.114635795 -0.039856263 -0.011282148 -0.012364144 -0.08296898 -0.07763678
-0.07219271 0.018825345 0.036907207 -0.022593977 0.0003726627 -0.04029733 -0.03610655 0.010738352
-0.040766574 0.013660242 0.012803483 -0.010066477 0.04453504 -0.02837721 0.005888051 -0.045629364
-0.017020192 -0.02898664 0.011020022 -0.032424185 -0.0276948 -0.0073966826 -0.017077234 0.041641653
-0.017802756 -0.029584901 0.0002493809 -0.053011864 -0.012215814 0.10994664 -0.004511908 -0.0102691725
-0.026862448 -0.16632266 -0.019773966 -0.04726163 -0.023385681 0.007960661 0.0015325957 -0.012211856
-0.012725876 -0.03846288 0.07787899 -0.0019647665 -0.034243014 0.0033065279 0.022683773 0.13640684
0.035898365 0.010094495 -0.0854166 -0.09240784 -0.001769165 -0.082392484 -0.039288115 -0.010742018
0.02307323 0.07849579 -0.03314769 0.12760103 0.03964156 0.06132969 -0.023348495 -0.049094558
-0.035269458 0.052122883 0.047228575 0.0016207988 -0.0003958641 -0.06533595 -0.043507136 -0.026377633
-0.050216544 -0.02269977 0.028445203 -0.031126745 0.031297397 -0.043487784 -0.14061894 0.064920895
0.002776979 -0.011743567 -0.008656024 -0.011288136 -0.029676229 -0.004328349 0.19914843 -0.008642268
-0.110291965 -0.05173436 -0.034247007 0.0024142975 0.0108074155 -0.019729106 0.00744499 -0.05064231
-0.02736827 0.03348943 -0.04863356 -0.051433675 -0.0018976185 -0.03884459 -0.07295001 -0.04160374
-0.0050354954 -0.0536448 -0.0047730166 -0.047262676 -0.04442716 -0.011299702 -0.008698543 -0.018740434
-0.04671695 -0.1050276 0.11110454 -0.04842718 -0.033455465 -0.009365291 0.016308585 0.06600353
0.05156716 -0.006752236 0.11547943 -0.00053205 0.010854104 -0.032850534 -0.04164732 -0.030953584
0.14127664 0.0346305 0.014290478 0.1486877 -0.014242216 -0.023924613 -0.07825919 -0.08565909
-0.030039327 -0.021737726 0.03254314 -0.05042425 -0.16549702 -0.26836857 0.021019515 -0.021234894
0.0006885667 -0.029066825 0.052628756 -0.069759205 0.039375227 -0.005985967 -0.11003699 0.0079686
-0.030475924 -0.0077172783 -0.01923726 0.095081285 0.02954097 -0.06853876 0.09103652 0.06521867
0.004717327 0.007080352 0.032515362 -0.02845196 0.034791075 0.047721334 -0.08694419 0.017705865

c3.bias f4 [64]
00000000: 575b db3d 5479 7abe 66d5 d4bd 297d 60bd
00000010: 88da b7bd f7e4 83bd 29cf b7bc 2b70 803c
00000020: 2699 8d3d fdf5 193e 4cc4 19be 0395 06bc
00000030: dd23 293e 7598 ffbd 713f 6abe a07c d33b
00000040: 646e 5ebe 2896 54be 00d9 373d 7c77 a23b
00000050: 5f3b f83d 6843 713d bf21 2dbe 7cf9 9cbd
00000060: 07c5 f2bd ca4b 4b3d 77dd 473d b691 2fbd
00000070: 3fd7 8dbd 4a45 d7bc 38d1 5bbc e6df 85bd
00000080: d648 46be 7029 15be 4ce3 2ebe 7c2c 08be
00000090: 66c4 01be a4dc 3dbd fe9f 19be 2bcf 363e
000000a0: d229 ffbd 7075 9ebd 0a58 06be a167 7fbd
000000b0: c11b 25bb 11c9 75be 82b1 f2bc 1b45 24be
000000c0: b104 5fbe d363 cabd 8256 5fbe 1d25 02bd
000000d0: 407e 5bbc 4c02 ccbd 6e21 d2bd d7ce b4bd
000000e0: e32d 023e 1854 debd 0225 22be da7e e6bb
000000f0: abaa babd 6e17 a0be 2c0a b73c b78c 263e
0.10710781 -0.24460346 -0.10392265 -0.054806862 -0.089772284 -0.06440156 -0.022437649 0.015678486
0.06913976 0.15035243 -0.15016288 -0.008214238 0.16517587 -0.12480251 -0.22875763 0.0064540654
-0.21721798 -0.20760405 0.04488468 0.0049580913 0.12120699 0.058902174 -0.16907404 -0.07664773
-0.11853986 0.049632825 0.04879519 -0.04286357 -0.069258206 -0.026278157 -0.013416581 -0.06536846
-0.19363722 -0.14566588 -0.17078894 -0.1329822 -0.12672576 -0.046352997 -0.15002438 0.17852466
-0.124591485 -0.07737243 -0.13119522 -0.062354688 -0.0025193545 -0.24002482 -0.029625658 -0.16041987
-0.21779133 -0.09882321 -0.21810344 -0.031773675 -0.0133968 -0.099613756 -0.102602825 -0.08828514
0.12712817 -0.10855883 -0.1583443 -0.007034165 -0.091145836 -0.31267875 0.022343718 0.16264616

l1.weight f4 [1024, 64]
00000000: 3805 f33d 1368 b23d 4ab2 efbd 6e49 003e
00000010: 1fdd febd 6715 693d 6702 20bd 355c b3bd
00000020: 0229 c1bc c7a3 e63d 302e dbbd 03a6 f8bc
00000030: 4068 23bd 892e 7bbc db3f db3d ac07 c2bd
00000040: 3dc0 a5bd 5b0e bf3c 3c3e 233d e440 c0bd
00000050: 88d3 97bd d479 9fbd 4b50 efbd 5b90 e8bd
00000060: 2561 583d fab8 01bd 05c7 e3bd 60bb 7bbd
00000070: c1f5 173c ec7a 1fbd 9805 c0bd 5010 debd
00000080: 3725 e93c acac 4ebd 9e18 aa3b 5d3d eb3c
00000090: 83cb 073d bbe8 4f3d 0301 433d dc8d cbbd
000000a0: c65e 92bc 8731 6f3d 747a afbd 5284 ca3c
000000b0: 4ea4 ed3d f73e 203c 558b d63d 6d92 313d
000000c0: 3eab 563d d5dd e53c 5793 453d a48e 8c3d
000000d0: 6749 23bd 2827 83bd 9d7f 673d 2a0f c8bd
000000e0: 0afa 2e3d cdf6 edbd ba78 3ebc eae7 80bd
000000f0: b6a5 823d e004 b3bd cc3d 54bd 0233 403d
00000100: 5ec0 e8bd a3f2 a1bc 5ae9 1ebc d79b e13d
00000110: 8e8f f93d f5c7 ac3d dd04 85bd fa11 da3d
00000120: 06bc a9bc 8122 c8bd 66d5 efbd 08cb 3bbd
00000130: acc9 863d f7ed ac3d d11e 073d adb4 6f3d
00000140: ab6a 99bd 7ce4 0fbd 69a9 953b b6be 913d
00000150: 8f27 45bd 0ad6 18bd f8af 96bd 4f64 e7bc
00000160: 7135 f03d b8aa 9d3b 0a03 b83d fada debd
00000170: 0673 99bc 0613 a43d 3ce3 88bd 61bf 213d
00000180: 2df3 e8bd 828e b4bd 61b9 b4bd 3403 22bc
00000190: 5c26 3fbd c035 5b3d 8b7f 883c a55c 35bd
000001a0: c368 af3c 27fc 123d 9e83 8b3c 2c5e 39bd
000001b0: 0fc1 b8bd e3cd 553d 681b 57bd 35fa c6bd
000001c0: 9755 d0bd 9553 d9bd bd13 f23d d1e1 99bb
000001d0: ef64 96bd e98b 84bc 5a5f 70bd 8be5 f9bd
000001e0: 5fb3 403d 3048 c73d 15d0 f7bd e66c 8a3d
000001f0: db4f f43d c202 37bd 1002 98bb 3ed4 b0bd
00000200: 261b 00be f71a 20be ae45 b93c 3656 e1bc
00000210: 6678 363c 7333 d1bd 43a8 8d3d 1f54 643d
00000220: d845 17bd 67a7 393d 198f c8bc dcf1 9d3d
00000230: 6bc2 1bbd 536b 1ebd f928 873d fb34 97bd
00000240: 7f5f c83c 2467 b2bb cec3 8cbd f9d6 e1bd
00000250: b718 0f3e e498 de3d 86dd 833c 0720 6cbd
00000260: 007a 613d 1101 cc3c f422 2e3d d400 cbbd
00000270: 73d4 e93d 727e 453d 3c60 e2bd 9775 993d
00000280: 347c 883d 40d9 a33c e32e 2f3b dba6 0a3e
00000290: 7fd9 573d 003c 02bd 8379 0d3e 8138 d1bd
000002a0: 4533 47bd 240e 753d 1dac b93d 8ba8 733d
000002b0: 4bda 8c3d 0727 743d 6f4b e7bd f4d3 d33c
000002c0: 0615 a93d a994 d53d b086 2abd 79f7 d6bb
000002d0: eece 063d e819 76bc 0597 8e3d 8bf9 99bd
000002e0: eb9c d63d ecc3 0f3e 4dc6 17be a18d f33d
000002f0: acb3 c23d d21c d43c 41e5 5f3c 5f19 b03d
00000300: 3514 2ebd bcf2 a33d 904e 573d 4a38 003d
00000310: c098 513d c07c a63d 90a6 87bd 01ea a03d
00000320: be63 66bd b23d 50bb b27d dfbd 9f4f d9bd
00000330: 0dd0 babd 5218 e23d 2ca7 b0bd 8c3f 3bbd
00000340: 0ae8 703d 0d54 c73d d325 e63d c57b a0bd
00000350: 2a6c e13c 26cb b6bd 1a5f 04bd fd2b c4bd
00000360: b387 dcbd fbcf aabc 3b41 86bc 5436 6a3d
00000370: 561c c33b 59a4 87bd b24c ea3d 0a88 2d3c
00000380: 6def c23c 27ff 80bd e242 9ebd 33a6 0f3d
00000390: c9ed b4bd de40 7f3d c1ad 933d 2b0c 7d3d
000003a0: 2048 053c ca2b a23d cab3 56bc e61f a0bd
000003b0: cf78 0c3e b99e abbd 9e82 7ebc c526 39bd
000003c0: 9208 c33d 0bb9 cbbd fa83 043e 37f6 53bc
000003d0: 0d36 c8bd 72e2 573d 9b3a 9bbd 4d66 10bd
000003e0: 739f 0e3e 5d49 993d 3b28 b63d ec33 23bd
000003f0: 0305 08be 3705 af3c 584a 553d 3f26 c9bd
0.1186623 0.08711257 -0.11703928 0.12528011 -0.12444519 0.056905176 -0.03906479 -0.087578215
-0.023579124 0.11261707 -0.10702169 -0.030352598 -0.039894342 -0.015330919 0.10705539 -0.094741195
-0.08093307 0.023322275 0.039854273 -0.09387377 -0.07413393 -0.07786909 -0.116852365 -0.113556586
0.05282702 -0.031670548 -0.11121944 -0.06145799 0.009274901 -0.038935587 -0.09376067 -0.10842955
0.028460128 -0.05045764 0.005190923 0.028715784 0.03315307 0.05075906 0.047608387 -0.09939167
-0.017867457 0.058396842 -0.08568278 0.024721298 0.11603604 0.009780637 0.10475794 0.043352533
0.052409403 0.02805988 0.048236217 0.06863144 -0.039864924 -0.06403953 0.056518186 -0.09768517
0.042718925 -0.11619339 -0.011625463 -0.06294234 0.06379263 -0.08741164 -0.051816747 0.046923645
-0.11364816 -0.019769019 -0.00969919 0.11016052 0.12185584 0.08436576 -0.06495068 0.1064796
-0.02071954 -0.09772206 -0.117106244 -0.045847923 0.065814346 0.08443826 0.032988373 0.058521915
-0.074910484 -0.03513001 0.0045673144 0.07116453 -0.04813343 -0.0373135 -0.07357782 -0.028246073
0.11728943 0.004811611 0.08984955 -0.1088161 -0.018731605 0.08011441 -0.066839665 0.039489154
-0.11374507 -0.08816244 -0.08824421 -0.009888459 -0.04666744 0.053518057 0.01666238 -0.044277806
0.021412259 0.035885002 0.017030533 -0.045255825 -0.09021198 0.052198302 -0.05251637 -0.09715692
-0.10172575 -0.10611645 0.11820171 -0.004696109 -0.0734347 -0.016179996 -0.058684684 -0.12201985
0.04704606 0.097305655 -0.121002354 0.06759052 0.11929294 -0.044680364 -0.0046389177 -0.08634232
-0.12510356 -0.15635286 0.022616234 -0.027506929 0.011137104 -0.10214891 0.06916859 0.055744287
-0.036931843 0.045325663 -0.024482297 0.07712147 -0.03802721 -0.03867657 0.06599612 -0.07383152
0.024459599 -0.005444424 -0.06873284 -0.11027331 0.13974272 0.10869005 0.016096842 -0.05764773
0.05504799 0.024902852 0.042513803 -0.09912267 0.114174746 0.04821629 -0.110535115 0.074931316
0.06664315 0.020001054 0.0026730828 0.13540213 0.052697655 -0.0317955 0.13815884 -0.102158554
-0.04863288 0.05982794 0.09066031 0.059486907 0.068775736 0.059607532 -0.11293685 0.025857903
0.08255963 0.10428745 -0.041632354 -0.0065602628 0.032912187 -0.015020825 0.069623984 -0.075183
0.104791485 0.14039582 -0.1482174 0.11892248 0.09506926 0.025892649 0.013665498 0.08598589
-0.04249974 0.08005282 0.052565157 0.03130368 0.051171064 0.08129263 -0.06623566 0.07857133
-0.056247465 -0.0031775055 -0.10912646 -0.1061089 -0.09121714 0.11039795 -0.086256355 -0.0457149
0.05881504 0.09732828 0.11237683 -0.07836107 0.027517397 -0.08925466 -0.03231726 -0.095787026
-0.1076807 -0.020851126 -0.016388526 0.057180718 0.0059543056 -0.06623144 0.1144041 0.010591516
0.023795808 -0.062986664 -0.07727601 0.03507061 -0.088344164 0.06231772 0.07210875 0.061779182
0.008134872 0.07918508 -0.0131043885 -0.07818584 0.1371796 -0.08379883 -0.015534071 -0.04520299
0.09523119 -0.099474035 0.1294097 -0.01293712 -0.09775934 0.05270619 -0.075795375 -0.03525381
0.13928013 0.07484696 0.08894392 -0.03984444 -0.13283162 0.021364791 0.052072853 -0.09821748

l1.bias f4 [1024]
00000000: 2abf 5dbd 1858 b83d 74c8 6f3d 4550 8e3c
00000010: 44f7 a03d 3fa8 02bd ae20 01be 78f5 8d3d
00000020: fb1d 4a3d 2426 66bc 776f cebc 8793 fe3d
00000030: b2c2 133e 15ae 01bd 2698 40bd 6642 b33d
00000040: 8c8d bcbd 2312 e53d 01db 0a3d 9881 e43c
00000050: 7779 a0bd 1c73 d43d 90fa c33d 3cb2 8b3d
00000060: a95c efbd 018b 343d 3b88 093e fa55 cd3d
00000070: 7f0b c33b 389c df3d 995a 763d c29d 4abb
00000080: f1c7 1abb d43b 2a3d 8ecc 643c d0a3 45bd
00000090: cf62 dbbd d9e5 89bd 1a92 f2bd d4e0 f23d
000000a0: 2256 193e 7d2e 693d 961c 9dbd 61b0 0f3e
000000b0: 30a3 f43d 6f48 b4bd ff86 db3c b60d 5b3d
000000c0: 101d f23d 0a4e f0bd 3e0d 003e 8304 e73d
000000d0: 57b9 a8bc e070 f4bd cdd9 033e fa94 e73d
000000e0: 9d48 d2bc 7115 4a3d 457a cbbd 07d5 ea3d
000000f0: 06c8 9cba a4b7 943d a2f1 15be 729a f3bd
00000100: 1490 d53d f107 813b 46aa cf3d 4d0e c2bc
00000110: 68ca a2bd aba1 82bd 963f 8e3d 379e d6bd
00000120: 1df5 75bd 2c65 42bb 6c29 c03c 974a 7ebd
00000130: 1830 b0bd c806 a5bc e850 e7bd bda9 f23b
00000140: 56d0 163e a0ab df3d df78 37bd 6df9 d5bd
00000150: 5303 0c3e 2b12 c43d f232 8b3d 3381 623b
00000160: 1983 f13d a5db 66bb bb84 463c 98da 87bd
00000170: ceba 8a3d a876 de3d dfa6 8a3b 1831 b63d
00000180: 1f42 e7bd da4b e33d 8b10 e03b 7008 073e
00000190: 20e2 9ebd f7f4 c83d 4ef0 ca3d 0a71 9b3b
000001a0: 08e0 96bd 9b86 cd3d a042 f13d a7ea ad3d
000001b0: 6013 593b fe7c 543d c5b5 833d 8d58 dabd
000001c0: 4505 383d 01b9 d63d eed6 4bbd 13a3 183c
000001d0: 26d2 a83d 4d3c b83d 0342 99bb 9bd5 2e3e
000001e0: 2e22 953d 659f eb3d 5f77 c43c 6809 8a3c
000001f0: e15b b6bd 8e82 233d 549f c1bd 2071 393e
00000200: 1152 763d ade8 8eba f80a 47bd b15f c33d
00000210: c471 b2bd 8fd7 8b3d 7805 1bbe a1d2 f23d
00000220: 60fb c9bb d417 f83d d5c5 acbd a699 e5bd
00000230: f54c 8dbd 222c d33c 548e 983d 089f d8bd
00000240: 8cd6 003e 81c9 0a3e 6eb6 f73c 2bc6 c13c
00000250: 6a3e 80bd 7573 c03d 72a7 6fbd bc1c 113e
00000260: f622 243d 8220 503d 0f87 093e b543 163e
00000270: 7a85 833d eeb2 0d3e 7df7 eebd 2ab7 d43d
00000280: 398f 21bd b63c dfbd ec12 f63c 77c1 093e
00000290: 0423 bfbc a8b5 30bc e1af a43c f3ad 70bc
000002a0: 5d7d 0ebd ccf8 123e 1ac3 5b3d 9acc 6b3c
000002b0: 6d02 973d 7861 58bd ad8e 11bc 0e65 1e3e
000002c0: 3a9f c5bd 1b82 b4bb 8e74 873d 335b 83bb
000002d0: 6d9c da3c e85c a33d c999 e73d b104 ecbd
000002e0: 30a4 34bd bfe5 833d 8849 b33d b2e3 d3bb
000002f0: 8041 943d 5c88 d03c 4990 323e a010 ed3d
00000300: fc3c a03d 11b6 18bd bb70 343d a4b2 863d
00000310: a7e8 fa3d 6f84 5f3d a043 86bc cf36 6abd
00000320: 7261 883d 8ae0 2bbd 62ee 03be caa4 abbd
00000330: d6da 953d e950 80bd 782b 8cbd fab0 33bd
00000340: b864 8a3d 7581 b4bd 04a6 32bd bf11 6d3d
00000350: b857 cdbd 21ba cbbd 2149 d53d dd2f d339
00000360: ffbe 413c 361b 8bbd 3078 d33d 6643 78bd
00000370: 0f60 cf3b 4c4a d23d a00d fabd 84b9 ffbd
00000380: 372d efbd 4213 2d3e ee6c cfbd 479a f6bd
00000390: 3dd2 bf3c 4d5e 9dbd c230 1e3d 8ba3 00bd
000003a0: a7f0 8b3d f2b4 073e 9e10 e2bd 28d7 ee3d
000003b0: 4ff8 6bbd 62ea c03d d4d4 253e bfd2 923d
000003c0: 1013 003e 67a4 aabd 678f 163e 06bb cdbd
000003d0: cad1 9ebd dab8 cdbd 8f08 693d 1d72 91bd
000003e0: 17f8 d8bb 9f39 00be b658 e93d 545c 543d
000003f0: 94f4 d7bd b746 2c3c fa67 7b3d 7652 853d
-0.054137386 0.090011775 0.058540776 0.01737226 0.07859662 -0.031898733 -0.12610123 0.06931585
0.049344998 -0.014047179 -0.025199635 0.12430482 0.14429739 -0.03166016 -0.0470201 0.08752899
-0.092066854 0.111851 0.033900265 0.027893826 -0.078356676 0.10373518 0.095692754 0.06821105
-0.116875954 0.044077877 0.13430874 0.10026164 0.005952298 0.10918468 0.060144994 -0.0030916785
-0.002361771 0.041560963 0.013964785 -0.048251927 -0.107122056 -0.06733293 -0.11844273 0.11859289
0.14974263 0.0569291 -0.07671468 0.14032127 0.11945188 -0.08802878 0.02679777 0.053479873
0.118219495 -0.11733635 0.12505051 0.112801574 -0.02059619 -0.11935592 0.12876053 0.11307712
-0.02566939 0.049336854 -0.099354304 0.11466413 -0.0011961467 0.07261589 -0.14642957 -0.118946925
0.10427871 0.0039377143 0.10139899 -0.02368846 -0.07948762 -0.06378492 0.06945722 -0.10479396
-0.06004821 -0.0029662354 0.023457251 -0.062082853 -0.08602923 -0.020144835 -0.112947285 0.0074054883
0.14727911 0.10921407 -0.044793006 -0.10447965 0.13673143 0.09573778 0.067968264 0.0034561872
0.11792583 -0.0035226133 0.012116606 -0.0663349 0.067739114 0.10862476 0.0042313184 0.08896083
-0.112919085 0.11098452 0.0068379096 0.13186812 -0.07757974 0.09812348 0.09909116 0.0047437
-0.07366949 0.100354396 0.11780286 0.08492022 0.003312312 0.051877014 0.06431154 -0.10661421
0.0449269 0.104845054 -0.04976552 0.009316224 0.08243208 0.089958765 -0.0046770587 0.17073672
0.0728191 0.115050115 0.023982702 0.016850188 -0.08904243 0.03991943 -0.094542176 0.1810956
0.06013686 -0.0010903083 -0.048594445 0.09539736 -0.08713105 0.06828224 -0.15138805 0.118565805
-0.0061639994 0.1211392 -0.08436171 -0.11210947 -0.06899444 0.02577788 0.07449022 -0.10577208
0.12581843 0.1355343 0.030238356 0.023654064 -0.062619045 0.09397022 -0.058509298 0.14171118
0.040072404 0.050812252 0.13430427 0.14674266 0.06421943 0.13837788 -0.116682984 0.10386498
-0.03944323 -0.109002516 0.03003832 0.13452707 -0.023332126 -0.010785498 0.020103397 -0.01468991
-0.034787524 0.14352721 0.05365286 0.0143920425 0.073735096 -0.05282733 -0.008884114 0.15468237
-0.09649511 -0.005508674 0.06614028 -0.0040086745 0.026685918 0.07976705 0.11308629 -0.11524332
-0.044101894 0.06440305 0.08754259 -0.0064663524 0.07239056 0.025455646 0.17437853 0.115754366
0.07824132 -0.037283007 0.04405282 0.06577042 0.12251406 0.054569658 -0.016389668 -0.057181176
0.06659211 -0.041962184 -0.12883905 -0.083810404 0.0731713 -0.062654324 -0.068442285 -0.04386995
0.06757492 -0.088137545 -0.043615356 0.057878252 -0.10026497 -0.09947611 0.10414339 0.00040280717
0.011825322 -0.067922994 0.10325658 -0.06061115 0.0063285897 0.10268077 -0.1220963 -0.12486556
-0.11678546 0.16901878 -0.101281986 -0.12041145 0.02341568 -0.07684002 0.038620718 -0.031405967
0.0683301 0.13252619 -0.11038326 0.116621315 -0.057609852 0.09419705 0.16194469 0.07169103
0.12507272 -0.083321385 0.14703141 -0.100454375 -0.07754858 -0.10045023 0.056892928 -0.071018435
-0.0066213715 -0.1252198 0.113938734 0.051845863 -0.105446965 0.010514907 0.061378457 0.06509869

l2.weight f4 [10, 1024]
00000000: f4a9 153d 3a7f 96bc 3ebe 2cbb b605 903c
00000010: 6718 37bd 1d18 c8bc c6f1 933c 648c 3abc
00000020: ce25 e23d cd43 f23d 92d9 9b3b f226 46bc
00000030: 71b5 aebd 431f dabc 50cc 7b3c bb2c 573c
00000040: 74e0 113d f494 533c 2553 af3d 199b 13bd
00000050: a910 aa3d f386 a3bd 9abe 4fbc 84de 623c
00000060: 3f82 18be 3dd2 acbd 636c 7abc 26cc b5bc
00000070: 6236 833c 6a3f 32bb 8708 c83a aafa 773d
00000080: 56da f83c d1ec 473e 75d9 04bb c60d 233d
00000090: 2778 8fbd 1391 cf3c 7e01 2a3d 5f09 bb3d
000000a0: 4b57 98ba e2e1 23be 3870 a8bc 6441 1dbd
000000b0: ce09 9b3c 19e1 ee3d 6e2b 043a db46 8d3d
000000c0: 63ec d5bc e58c 1a3d 12e4 ff3c b015 2f3d
000000d0: 37e1 93bc fc14 393d 8044 c8bc 0b1a 99bd
000000e0: d818 2ebd ddb4 bcbd fc23 97bc 44b6 c83d
000000f0: acce d5bc 37fa 2fbd c213 6abd 1f05 c63b
00000100: c98a 64bd 16e4 e93c 7fa4 e1bc 8345 e23c
00000110: 55d0 ba3c 7c2d fb3c aad7 34bc 1ed6 563c
00000120: 5981 a63c b93d 33bd 9e90 11bc ab92 e53c
00000130: 6c47 01bd 811e 133d 0773 8d3d 6156 0cbd
00000140: 2978 033e 8876 973c 7c4c 513b 1224 4abc
00000150: ecef 063e 059a cd3c f90d 713d 3f36 033d
00000160: 3e09 3f3e 7ca8 a8bc e2b4 9c3c 1600 1f3b
00000170: 83ee 2bbe f3f0 353e 16eb 9e3d ee5f a8bd
00000180: 3f9a 003e ce17 25bd db22 1bbc 83ae 97bc
00000190: 65d5 53bd c2be a23c 788a 5bbb 57b7 0fb9
000001a0: 29a1 093c fc12 fcbc aa4a 553d 25ae 3dbd
000001b0: 87ab 82bd 5825 62bd 2b82 6a3c 590c 453b
000001c0: 9154 6fbd c521 f73d 2038 3a3d 29ad f5bc
000001d0: 878a 593c 508c ae3c d7eb f8bd 587e e83d
000001e0: 9357 e33b 274e 833d aaad 083d c215 1e39
000001f0: 4008 4abc aacf a43c 79bb a53c 6f6b febd
00000200: cfaf 6fbb b243 98ba 2ed9 c53b fa7d 6dbd
00000210: 0cc1 9bbc 6558 76bd 8645 b5bc 35dd f23d
00000220: 2e87 edbd 3d3e dfba 2642 8dbd 6667 0b3d
00000230: b363 57bc 618d b43d 3f29 82bd 861d 03bc
00000240: 93c2 1c3e d699 a3bc 7a57 c13d 3926 95bd
00000250: 73e3 47bc 8c3e 6e3d 90ed f4bc eec5 623c
00000260: 45b5 1dbd 81d9 853d 7139 543d 75f2 eebc
00000270: 0148 f23c 48ba 583d f5dd 81bb 0c74 343d
00000280: fba7 2e3d aa54 293b 2843 1d3d 8e8e 87bc
00000290: 72a0 adbd 9f86 683b 628c 053c 67b9 553b
000002a0: 58fc ab3d 686c c1bd 6cd7 babd b5da d2bd
000002b0: b31d e43d cd73 87bb 94e9 113d 23b9 0fbd
000002c0: 9079 26bc 4197 acbd 6066 8b3c ed3b 123d
000002d0: 922b 323c 698a 7a3c 9306 673d 6c18 623c
000002e0: 529a cfbd ce23 ce3c 2d7b 633a 83e3 f0bd
000002f0: edc9 8a3d 4d16 213e 54f3 b9bd 30e0 47bc
00000300: 6930 003e a8df 0cbe 0cf5 0c3e 04db 3a3e
00000310: 1a27 e7bc 5693 8bbd c253 343e 4428 5c3d
00000320: 9b25 bebc 5836 40bd 8ae8 083d 9bff 18bd
00000330: 8d13 643c 622e 96bd fac0 aa3a 6526 e53d
00000340: e6a7 54bd ec7f 9e3a a3f0 883c c547 0ebd
00000350: 0f3d 2d3c cf60 0fbd 5ac2 3abd e2ac 08bd
00000360: f1b3 94bd 8e4c e5bb 8e6a ebbc d025 ae3e
00000370: d2cf 453d b2d2 8dbb 9946 6b3b ca1e e0bb
00000380: 9438 1abc 5dfb a5bd d440 443c 565f e03c
00000390: dc29 6b3d 37c0 b43b f2af c2bc 885f dabb
000003a0: 84a6 18bd 5da1 6fbd d819 813d 2ca9 523d
000003b0: 1c28 093e 22fc 35bd 0820 8bbd 03d6 b0bc
000003c0: 296b 203e 618e c9bc 88f9 d8bd 59a1 f33b
000003d0: 6a2f 85bd 9ea5 253d feee 093d dfc5 a4bc
000003e0: c5e4 88bc 1f5e 0b3d bd64 263c c19b 553e
000003f0: 157a b73b 3bf1 f03b 1d27 f33d 8a1d 0b3e
0.036539033 -0.018371213 -0.002635851 0.017580848 -0.044701006 -0.02442556 0.018059622 -0.011386011
0.11042367 0.11829338 0.004756161 -0.012094246 -0.08530701 -0.026626235 0.015368536 0.013133223
0.035614446 0.012913931 0.085607804 -0.036036585 0.08303959 -0.07984724 -0.01267972 0.013846997
-0.14893435 -0.08438537 -0.0152846305 -0.022192072 0.016017143 -0.0027198442 0.001526133 0.060541786
0.030377548 0.19523932 -0.0020271216 0.039808057 -0.07005339 0.025337731 0.04150533 0.09132647
-0.0011622695 -0.16004136 -0.020561323 -0.03839244 0.018925574 0.11664028 0.0005041872 0.0689828
-0.026113695 0.037732024 0.031236682 0.042745292 -0.018051727 0.045186028 -0.024446726 -0.074756704
-0.04250416 -0.092141844 -0.018449776 0.098003894 -0.026099525 -0.042963233 -0.05714775 0.006043091
-0.05579642 0.028551143 -0.027544258 0.027621036 0.022804419 0.030661337 -0.011037746 0.013112573
0.02032535 -0.043760035 -0.008884577 0.028024038 -0.031562254 0.035917763 0.06906705 -0.034262065
0.12838806 0.018489137 0.0031936457 -0.012337701 0.1317746 0.025097856 0.058851216 0.032034155
0.1865587 -0.020588152 0.01912922 0.0024261526 -0.16790204 0.17767696 0.07759683 -0.08221422
0.1255884 -0.040305905 -0.009468759 -0.01851583 -0.05171718 0.019866351 -0.0033499282 -0.00013705842
0.00840024 -0.030770771 0.05207316 -0.046308655 -0.063803725 -0.055211395 0.014313261 0.0030067174
-0.05843026 0.12066988 0.04546368 -0.029989796 0.013277656 0.02130714 -0.12154358 0.11352223
0.00693793 0.06411391 0.033368744 0.0001507616 -0.0123310685 0.020118553 0.020230995 -0.12422835
-0.0036573296 -0.0011616854 0.0060378527 -0.05798147 -0.01901295 -0.060142893 -0.022127878 0.11858598
-0.11598049 -0.0017032098 -0.068973824 0.034034155 -0.013146329 0.088160284 -0.06355523 -0.008002644
0.15308599 -0.019970816 0.09440513 -0.07282681 -0.012200224 0.058165118 -0.029898435 0.013841135
-0.03850295 0.06535626 0.051812593 -0.029168347 0.02957535 0.052912027 -0.003963227 0.044055983
0.042640667 0.0025837817 0.038394123 -0.016547468 -0.08477868 0.003548063 0.008151146 0.003261173
0.0839774 -0.09444505 -0.0912312 -0.10295621 0.11138477 -0.0041336776 0.035623148 -0.03508867
-0.010160819 -0.08427287 0.01701659 0.03570168 0.010874646 0.015291789 0.056402754 0.013799768
-0.10136856 0.025163557 0.00086777174 -0.117621444 0.067767955 0.15731163 -0.09079614 -0.012199447
0.12518467 -0.13757193 0.13765353 0.1824761 -0.028216887 -0.068152115 0.17610076 0.053749338
-0.023211291 -0.046926826 0.03342489 -0.03735314 0.013920677 -0.073330656 0.0013027482 0.11188964
-0.051917933 0.0012092567 0.016716307 -0.034736414 0.01057364 -0.035004433 -0.045595504 -0.033368
-0.072608836 -0.0069976514 -0.028737333 0.34013224 0.048293896 -0.0043280954 0.0035900234 -0.006839608
-0.009412903 -0.08104584 0.011978347 0.02738921 0.057412967 0.005516078 -0.023765538 -0.0066642202
-0.037268177 -0.058503497 0.063037574 0.051430866 0.13394207 -0.044429906 -0.06793219 -0.021586424
0.15665878 -0.024604024 -0.10594469 0.0074350056 -0.06503184 0.040441148 0.033675186 -0.020113884
-0.016710648 0.034025308 0.010155854 0.20860197 0.00559927 0.0073529757 0.11872695 0.13585487

l2.bias f4 [10]
00000000: 8997 e83c 3d79 84be 19c4 223d 906d d23d
00000010: 1034 c33e bd39 13bd 5dcd fc3c 7708 09be
00000020: a5cc ff3d 4a79 65be
0.02839257 -0.25873747 0.039737795 0.10274804 0.38125658 -0.035943735 0.030859644 -0.13382135
0.12490205 -0.2240955
