saved_CNN_small.pt (torch, 613672 bytes, 10 tensors)

c1.weight f4 [64, 3, 3, 3]
000000 db 3a df bc 8f 11 91 be 66 c4 7a be 4a 49 5e 3e
       -0.027249744 -0.2833371 -0.24488983 0.21707645
000010 c3 d2 a7 3c 87 a6 3f be fd 39 40 3e ed d9 0e 3e
       0.020486241 -0.18715869 0.18772121 0.1395032
000020 bf a4 0b 3d be 42 ae bc 90 b2 4e be 07 ac 3d be
       0.03409266 -0.02127206 -0.20185304 -0.18522654
000030 4c 54 71 3e 0a 99 5b 3e f3 a0 ce 3d a5 d8 19 bd
       0.23567313 0.21445099 0.100892924 -0.037560124
000040 db 8c 93 3e 00 f2 b3 bd 4e 0a 40 3e 02 0b 90 be
       0.28818402 -0.08786392 0.18753931 -0.28133398
000050 c0 ce 36 be 18 03 b7 3e cf 44 74 3e 78 d0 1a be
       -0.17852306 0.35744548 0.23854373 -0.15118587
000060 ad 1a 8a 3d 30 25 91 3e 69 16 3b 3e 08 e1 b0 be
       0.06743369 0.28348684 0.18270268 -0.34546685
000070 11 0a 89 3c 54 16 26 3e 74 da df be 44 63 f9 3d
       0.016728433 0.16219455 -0.43721354 0.121771365
000080 46 85 2e 3e 98 7c 72 be 6f 25 04 3e 25 01 93 3e
       0.17043027 -0.23680341 0.12904905 0.2871181
000090 57 cc 47 be a5 4d a5 3c 83 f2 38 3e 8f 57 5e be
       -0.19511543 0.020178625 0.18061261 -0.21713088
0000a0 e7 b0 d2 3b d7 b9 9a 3d f8 84 89 bd 36 4b 2e 3e
       0.00642978 0.075549774 -0.06714815 0.17020878
0000b0 3d 6b a2 3e 24 72 92 be 15 96 8d bd f8 b7 a2 bd
       0.3172244 -0.28602707 -0.069133915 -0.079452455
0000c0 e6 5f ab be f0 61 8a 3e 0b 54 8b 3e 0b 3c 92 be
       -0.33471602 0.27027845 0.27212557 -0.28561434
0000d0 7b c5 29 3e 3d 14 92 3d 8e e6 3d be 87 f3 00 be
       0.16579239 0.071327664 -0.18544981 -0.12592898
0000e0 ea 9e 08 3e 9e df 25 be b4 ff 20 bd 8c 02 1c be
       0.13341871 -0.16198584 -0.039306358 -0.15235347
0000f0 32 db e1 bd 7f 35 33 be 48 de 06 be 2e 99 a5 3d
       -0.11028136 -0.17500876 -0.13170731 0.08085857
000100 3b 1a 10 3d 1f f6 2f 3e 3c 33 e2 bd b0 90 9c 3d
       0.035181265 0.17183731 -0.110449284 0.076447845
000110 52 64 52 3e 09 0b 1c 3e b9 ed 9d bd 58 d8 68 3b
       0.20546082 0.15238585 -0.077113576 0.0035529342
000120 47 45 86 bc ab 67 7a 3e f9 73 3a 3e 7b f9 3f 3e
       -0.016390456 0.24453609 0.18208303 0.18747513
000130 6b a0 59 3e a0 b2 10 bd 8a 67 a9 3d fa 3f 0e be
       0.21252601 -0.0353266 0.08271702 -0.13891593
000140 e1 49 1f 3e ce 4b 9f be 41 a8 99 3e f9 a9 c9 3d
       0.15555526 -0.31112522 0.3001118 0.09846873
000150 23 5a cc be 8a 4a bf 3e 2a 25 1f 3e 34 f7 b6 be
       -0.3991252 0.37361556 0.1554152 -0.35735476
000160 62 fc 94 3e a1 8a 09 be 00 72 7b 3c 92 d7 c7 3d
       0.29098803 -0.13431789 0.015347004 0.09757914
000170 6c 51 95 be ee f6 20 be 5b 37 59 3e 65 75 b0 bd
       -0.29163682 -0.15719196 0.21212523 -0.08616141
000180 61 3f 9b be 8a 48 be 3e 9e c9 35 3b 5c f8 8a bd
       -0.30321792 0.37164718 0.0027738581 -0.06785652
000190 ab 59 28 3e 73 55 aa bd ff 3b af 3d b7 a8 0a 3e
       0.16440456 -0.083170794 0.08556365 0.13540922
0001a0 bd e7 84 be 86 62 8d be 8f 2e 95 3e f9 d4 94 3d
       -0.25958052 -0.2761423 0.29137084 0.07267184
0001b0 a7 4f 0e 3e aa 1a 81 3e 89 1b 60 3e af a4 5a bd
       0.13897572 0.25215656 0.21885504 -0.05337971
0001c0 90 cf 10 3e f2 09 10 be 48 a4 28 bd 43 0e 9a bd
       0.14141679 -0.14066294 -0.041172296 -0.075222515
0001d0 56 26 89 be 6c 35 08 3d 24 60 9f bd 63 8d 3f be
       -0.2678706 0.033254072 -0.07782009 -0.18706279
0001e0 bd 07 84 3e f5 f4 91 3d 15 45 09 be 1c 20 76 be
       0.25787154 0.071268 -0.13405259 -0.24035686
0001f0 af 1b 7a be bb 0d 18 3e f7 75 bb 3d 98 7b 01 3e
       -0.24424623 0.14848988 0.091533594 0.12644804
000200 f8 27 35 be fb ed 83 bc 99 90 3a be 25 12 2b 3d
       -0.17691028 -0.016104689 -0.18219222 0.04176535
000210 89 ba 5c be e6 d5 76 bd 96 4e ef bd 72 46 9e 3b
       -0.21555533 -0.060262583 -0.11684911 0.004830175
000220 b5 90 6b be 8c 02 ca bd e0 c8 85 be 7d dd 03 3e
       -0.2300442 -0.09863767 -0.26129818 0.1287746
000230 c3 1a 3a 3d 08 c4 cd bc 93 c1 8c bd 4c cb ca bd
       0.04543568 -0.025117889 -0.06872859 -0.09902057
000240 3b 41 96 be 55 61 33 bd 1b 36 19 3e 98 20 47 be
       -0.29346642 -0.043793995 0.14962046 -0.19446027
000250 92 71 cb 3d 87 7a c5 3d 37 7f 8b be 5b 5f 0c be
       0.09933771 0.09642511 -0.27245495 -0.1370825
000260 d5 d7 df bd 3b e5 3d be c2 a0 5e 3e 04 2a 4e 3d
       -0.109298386 -0.18544476 0.21741012 0.050333038
000270 ac 58 4c 3e 24 54 a7 3e bc c9 e9 3e ca 3a b7 3d
       0.199557 0.32681382 0.45661724 0.0894676
000280 3f 1c a0 3e 38 4e 9c 3e 72 ce 8d bd ba e8 90 be
       0.3127155 0.30528426 -0.06924142 -0.28302556
000290 7a da 96 3c 22 bb 17 3e 43 b5 75 be c2 90 44 be
       0.018414725 0.14817479 -0.23994927 -0.19195846
0002a0 f7 e1 44 3e 65 d5 8b 3e bf ff 36 be d8 80 c4 3d
       0.19226824 0.27311245 -0.17870997 0.095948875
0002b0 90 22 8e be 49 7d 97 3e e2 4a 46 3e 95 e6 f2 bc
       -0.27760744 0.29587772 0.19364503 -0.029650966
0002c0 77 8a 67 3d fc bf f8 bd 73 10 1a 3e 7f 4f 79 be
       0.056528535 -0.12145993 0.15045337 -0.24346732
0002d0 ba 30 16 be e5 c5 8d bd 2c 00 c3 3e 8a 6f 45 3e
       -0.14667025 -0.06922511 0.3808607 0.1928083
0002e0 2c 5f a8 bd 5e f2 3a be ae fa 8e bd 87 ba f7 3d
       -0.082212776 -0.18256518 -0.06981407 0.12096124
0002f0 4d 69 9c bd e1 dc d0 be 5e 38 a0 bd e9 90 c6 bc
       -0.07637272 -0.40793517 -0.07823251 -0.02423902
000300 c8 b6 99 be 5a 31 98 3c d2 0a 74 3e dd cd c3 bd
       -0.30022264 0.01857822 0.23832253 -0.0956075
000310 0a 4a 06 be 06 f0 ee bc 28 fa 2f be 51 67 b3 3d
       -0.13114181 -0.029167186 -0.17185271 0.087599404
000320 35 e2 c0 3e bd f5 81 be d2 60 a9 3e 05 96 a7 3e
       0.37672582 -0.25382796 0.3308168 0.32731643
000330 38 2f 9d 3e 40 7d 96 3e 32 f6 e7 bd 02 6c 1b be
       0.30700088 0.29392433 -0.11326255 -0.1517792
000340 f8 74 f4 3d 59 d0 ed bd 8f 67 55 be cc cb 9f bd
       0.119363725 -0.11612005 -0.20840286 -0.07802543
000350 bb 14 a7 bd ac 2f 66 bd f8 e2 89 bd 3e 61 12 3d
       -0.08158251 -0.056197807 -0.06732744 0.03573727
000360 85 fe b8 bd d5 b3 e4 3d 27 1c 02 bd f9 5c 5e 3e
       -0.09032921 0.11167113 -0.03176513 0.21715154
000370 f3 dd 7b be b8 59 8c bd aa ab 99 bd 01 c8 57 3e
       -0.24596386 -0.0685305 -0.075034454 0.21072389
000380 0e 88 d3 3c 10 73 9b bc 82 4c 6d bd eb 86 91 3d
       0.025821712 -0.018975765 -0.05793429 0.07105812
000390 57 64 ff 3d 7b 44 49 bc 40 25 d8 3d 1e e0 54 bb
       0.1247031 -0.012284393 0.1055398 -0.0032482217
0003a0 a2 48 8d 3d 03 1c 0a 3d 24 3e a7 3d 9f de 57 bd
       0.06898619 0.03371812 0.08166149 -0.052702542
0003b0 83 b7 5b 3d 63 1b fa 3d 71 31 2d be 71 a3 29 be
       0.053641807 0.12212255 -0.16913392 -0.16566254
0003c0 b0 34 4a be e8 24 1b 3e 49 4e f7 3d 26 0b 23 bc
       -0.19746661 0.15150797 0.120754786 -0.009951388
0003d0 66 50 5c 3e cc 21 92 3c 92 e4 a9 bd 07 81 90 3d
       0.21515045 0.017838381 -0.082955495 0.0705586
0003e0 79 44 3f 3e 3c 6d fa 3d 67 5e 4e 3d 78 ce b7 bd
       0.18678464 0.12227866 0.050382998 -0.08974928
0003f0 0d e1 0b 3d d0 cb 0d 3e 7b 57 ca bc 2e 7b a5 3d
       0.034150172 0.1384728 -0.024699917 0.08080135

c1.bias f4 [64]
000000 67 1f 1d be a0 eb a1 bc 1c 9e df 3d c3 8d cd 3b
       -0.1534401 -0.019765675 0.10918829 0.006273003
000010 b7 69 9a be 49 f1 ff bd 8a 28 37 3d 08 22 a4 3b
       -0.3015878 -0.12497193 0.044716395 0.0050089397
000020 8f 54 1c 3e cf ed ab 3e db 7c 4e bd 15 6c 97 bd
       0.15266632 0.3357987 -0.05041204 -0.07393662
000030 05 17 d5 3d 48 be 35 be c4 48 e2 3c 2e 30 d2 3d
       0.10404781 -0.17748368 0.027622588 0.10263096
000040 9b a2 cd 3e d2 bc ca 3d 3c b6 85 bd 5d 9b 26 be
       0.4016312 0.09899296 -0.06528899 -0.16270204
000050 0e de 17 3d 30 e3 39 bc 1f 0d ac bd c9 65 d3 bd
       0.037077002 -0.01134567 -0.0840094 -0.10322148
000060 39 9a 0e bc a2 eb 2f 3c 25 13 56 bd f3 6c 08 bf
       -0.008703762 0.010737332 -0.05226435 -0.53291243
000070 a0 b4 0e bc da 00 fb 3e 5b a1 f1 bd 8b be be be
       -0.008710057 0.49024087 -0.11798354 -0.37254748
000080 aa 06 b4 3e d1 7a 9b bc 0a 9b 58 be 81 5b 38 3d
       0.35161334 -0.018979462 -0.21152893 0.04500914
000090 2d 54 a5 bd fc ec 6a be eb 1d 21 be f0 e3 fe 3c
       -0.08072696 -0.22941965 -0.15734069 0.031114548
0000a0 f8 7e 55 be 52 88 5d be 56 12 b2 3e d5 0d 53 be
       -0.20849216 -0.21634033 0.34779614 -0.20610745
0000b0 29 3a aa 3c c2 e1 ee bb 26 f2 4c be 9e e8 4d 3e
       0.020779686 -0.007290096 -0.20014247 0.20108268
0000c0 de c5 06 bd 0f f9 50 bd 66 89 8f bb 6b aa 6e be
       -0.032903545 -0.05101877 -0.004380393 -0.23307197
0000d0 ba 46 04 3b 89 7f 94 3e 3b df f4 bd 7c 59 4c be
       0.0020183758 0.29003552 -0.1195664 -0.1995601
0000e0 13 f2 99 bd 25 92 70 bd d1 0e a3 be 8c 21 27 3e
       -0.07516875 -0.058733124 -0.31847242 0.16321391
0000f0 ad 7c 43 be a6 47 fe bd f0 97 40 bd 27 1a c5 bc
       -0.19090529 -0.124160096 -0.0470199 -0.024060322

c2.weight f4 [64, 64, 3, 3]
000000 d8 ed 49 3d be 94 05 bd fa bc 1b 3c 28 b3 48 bd
       0.04929909 -0.032612555 0.009505505 -0.04899898
000010 8a 3d 1e bd f6 49 6a bd 8f c1 c9 bc a7 64 37 bd
       -0.038632907 -0.05719944 -0.024628429 -0.044773724
000020 ff 04 fb bc dd d9 f7 3c a1 3f c8 3c 63 99 8e bb
       -0.03064203 0.030255252 0.024444403 -0.004351781
000030 c5 d9 a4 bb 18 c3 17 bd b2 50 8b bc 46 b5 f0 3c
       -0.005030843 -0.03705129 -0.017006252 0.029383313
000040 54 65 37 3a d6 0c 4d 3c 04 b1 22 3c 99 c9 b8 bb
       0.0006995995 0.012515267 0.009929899 -0.0056392667
000050 92 b2 14 bd 8e 36 fd bb 4b 04 28 3d d4 a9 34 bd
       -0.03630311 -0.0077274507 0.04101972 -0.044107273
000060 9b 2a 75 bc 15 6b 55 3d 9d 28 6b bd b6 5f ac bc
       -0.014963771 0.052104075 -0.05741178 -0.021041732
000070 d4 41 d4 bc 58 d8 c2 bd 17 06 1b bd c8 87 bd bd
       -0.025910296 -0.095139205 -0.037847605 -0.09254414
000080 2b 0e bb bd ee f6 46 bc 4a 76 85 bd c5 4a 69 bd
       -0.09133562 -0.012143834 -0.065167025 -0.05695607
000090 ad 80 e4 3c 20 4c 0f bd 33 52 47 3d c4 f1 66 bd
       0.027893389 -0.034984708 0.048662376 -0.05638291
0000a0 f4 af 3a bb fe 07 a9 ba ae 64 98 3c 1f 4a 79 3c
       -0.0028486224 -0.0012896059 0.018602695 0.015215426
0000b0 c1 81 80 3d 44 bc 81 bd 25 1c d3 bc 82 c6 f5 3a
       0.062747486 -0.06334737 -0.025770256 0.0018751177
0000c0 c9 ac 12 3d 3f f5 4d bb 0a d6 96 bc 8f 8f d5 3c
       0.035809312 -0.0031426696 -0.018412609 0.02606943
0000d0 78 3c d6 bb 25 bb 53 bd c4 26 dc 3b fc dc 90 bd
       -0.00653797 -0.051692147 0.0067184884 -0.070733994
0000e0 7e e2 9d bc 77 2e 28 bd 4d 79 06 bd 7f 48 33 bc
       -0.019273039 -0.041059937 -0.032830525 -0.010942577
0000f0 73 ec 27 bd 06 b3 46 3c f5 77 0a bc 78 cb 1b bc
       -0.04099698 0.012127643 -0.008451452 -0.00950896
000100 b1 c4 12 3d 06 01 3e bb 89 34 40 3c 81 64 9a bd
       0.03583211 -0.002899231 0.011731275 -0.07538701
000110 c9 1f 6f bd 25 d6 28 bc a0 32 98 bc 5a 8b 8e bc
       -0.058379922 -0.010304962 -0.018578827 -0.017400432
000120 d2 2a c0 ba 15 c4 4f bc fc 26 3f bd ad 39 0e 3d
       -0.0014661199 -0.012681027 -0.046668038 0.034722973
000130 02 d7 ec 3c 9f b5 11 bd 4f dc 3b 3c e7 28 32 3b
       0.028911117 -0.035573598 0.0114661 0.0027185024
000140 59 eb 39 bc bc de 07 3c d3 16 85 3d 96 82 5d bc
       -0.011347615 0.00829285 0.06498494 -0.013519904
000150 f3 f1 9b 3c c2 64 50 3d 5a 6e 20 bd fb 24 28 3d
       0.019036269 0.05087734 -0.03916774 0.041050892
000160 18 63 6e 3d 6a 99 8d bd 76 2e cc bc 8c a6 9a 3c
       0.058199972 -0.06914027 -0.024924498 0.018878244
000170 1c 5a 93 bd 1e b8 a5 bc 97 bc ae bd 6f 18 ca bd
       -0.071949214 -0.020229395 -0.085320644 -0.098679416
000180 46 eb 52 3d de 84 19 bc 89 5d 4f 3c 99 79 fb bc
       0.051493905 -0.009370057 0.012656578 -0.03069763
000190 ee 81 66 bd 3d 74 8c bd 3e c4 fa bb c6 29 82 bc
       -0.056276254 -0.06858108 -0.0076527884 -0.01588906
0001a0 88 7f 43 bd 29 20 90 bc af 25 15 3c 0a ea 0a 3d
       -0.047729045 -0.01759346 0.009103223 0.033914603
0001b0 32 b8 45 3d 69 bc db bc 32 26 c9 3d 92 5c 25 bd
       0.048271365 -0.02682324 0.09821738 -0.040371485
0001c0 00 63 5b ba 46 f4 49 3d 43 73 7f bd c7 b3 29 3d
       -0.0008368939 0.049305223 -0.06236578 0.041431215
0001d0 f5 90 fa 3c 8c f7 86 3c 62 c4 9d 3b 34 59 85 bc
       0.030586699 0.016475461 0.0048146704 -0.016277887
0001e0 1c 66 8c bc f6 5a 83 bd 31 47 e3 bb 58 20 be bb
       -0.017138533 -0.06413834 -0.006935977 -0.0058021955
0001f0 58 f7 95 3a b6 aa d1 bc df e8 8e 3c 82 bf 03 bd
       0.0011441512 -0.025594097 0.017445026 -0.032165058
000200 a0 0e a8 3c b6 d1 87 ba f3 e4 e9 bd a1 ff 91 bd
       0.020514786 -0.0010362181 -0.11420622 -0.071288355
000210 62 c1 4f 3c 2c 7c 98 bc a1 82 0f 3d 11 c1 c5 bb
       0.012680383 -0.018613897 0.035036687 -0.006034978
000220 a4 3b 82 3d 5b ae b7 bb d2 da 52 3c 03 d3 e3 3c
       0.06359032 -0.0056055016 0.012869554 0.02781058
000230 7d 86 c3 bd 51 95 e8 3c 78 55 91 3d 45 eb 43 be
       -0.09547136 0.028391512 0.0709638 -0.19132717
000240 90 6e 7d bc 0f 9f 18 3d fc 13 4b 3b d7 07 79 3d
       -0.015468255 0.037261065 0.0030987253 0.060798492
000250 30 5a c6 3c 14 8c b1 3c b6 6c ae 3d ba 1a 9f 3d
       0.024212927 0.02167324 0.08516829 0.077687696
000260 ea d1 5a bd df a9 b1 bc 2e 5f 08 3b 89 40 d4 3c
       -0.053422846 -0.021687446 0.0020808685 0.025909679
000270 38 ee 9e bd 8d 47 b0 bd 89 43 12 bd bd 23 5a bc
       -0.0776028 -0.08607397 -0.035708938 -0.013314185
000280 b4 65 67 3c ab f9 ba 3c 81 c7 b6 bc b8 47 35 bc
       0.014123369 0.02282413 -0.022311928 -0.011064462
000290 be 88 a3 bd fb 09 8b bc 5c 9d e2 bd c0 87 21 bd
       -0.07985066 -0.016972532 -0.1106517 -0.039436102
0002a0 35 26 22 3d 5e df 61 bd cd 41 a5 3b 9e ab 3b bc
       0.03958722 -0.05514466 0.0050432445 -0.011454491
0002b0 7c 49 c9 3b 83 19 b0 3d ea 22 6b bd 34 11 55 bd
       0.006142793 0.08598616 -0.057406344 -0.05201836
0002c0 e5 64 80 3d c7 7e 8c bd 95 a2 62 3d 9b 06 b5 3d
       0.06269244 -0.06860118 0.05533083 0.088391505
0002d0 af f1 09 bd c6 f3 02 bd fb d8 78 3b 79 4d 06 3d
       -0.033677753 -0.03197076 0.0037971127 0.032788727
0002e0 07 45 5b 38 1f 5b fd 3b 38 f0 92 3d ad 42 f7 bc
       5.2277956e-05 0.0077318097 0.07174724 -0.03018316
0002f0 6c d4 09 bd 7d 60 97 bb 24 06 06 3d 2f 6e 88 bc
       -0.033649847 -0.0046196566 0.0327207 -0.016654102
000300 65 24 04 bc 97 10 a9 bd e5 44 78 bd 07 10 c0 3d
       -0.008065318 -0.082551174 -0.060612578 0.09378057
000310 07 d2 99 3c cf 90 de bc 4d 1e 6d bc 1c 5a 4e bc
       0.018776907 -0.02716866 -0.014472556 -0.012594726
000320 cd a7 0b bd 79 2e 66 bb e6 67 8a bc c8 9e 77 bd
       -0.034095574 -0.0035122915 -0.016895246 -0.06045416
000330 74 d0 1c 3c 9a 6b 1b 3d 2b a9 da bc 79 29 09 3c
       0.0095711835 0.037944414 -0.026691994 0.008371704
000340 0b 57 d4 3c 5a c9 36 3c 57 4f 80 bd e7 cd 8e bd
       0.025920412 0.011156404 -0.06265133 -0.069728665
000350 c5 bd 85 bb c9 ac d4 bc fd fe f7 3d 4a f5 f8 3d
       -0.00408146 -0.025961297 0.12109182 0.1215616
000360 b8 dd 2f bd de 15 03 bd 4c 14 99 bd 6e 6f 97 bd
       -0.042936057 -0.032003276 -0.074745744 -0.073943004
000370 b5 80 9c bd 10 e2 c4 bd d5 86 d1 bc 32 c5 94 bb
       -0.076417364 -0.096134305 -0.025576988 -0.004540109
000380 80 42 74 bc 63 80 f5 bc 0a 20 36 3c d5 51 ea bc
       -0.014908433 -0.029968446 0.011116037 -0.028603474
000390 14 fa 7a bd d5 60 f1 bc 74 b9 3c bd 07 0c b7 3d
       -0.06127365 -0.029465118 -0.0460753 0.08937841
0003a0 c3 f6 e1 bc 92 50 88 3b 14 00 c7 bd 92 fb f2 bb
       -0.027583485 0.0041599954 -0.09716812 -0.0074152434
0003b0 1c 72 ff bc 29 65 5e bd 8c b5 22 bd 11 f6 43 bd
       -0.031182341 -0.054295693 -0.039723918 -0.04784209
0003c0 f1 85 83 3d 84 c7 d9 bb b3 3d 60 3b dc ef 51 3d
       0.06422032 -0.0066460986 0.0034216463 0.05125414
0003d0 06 19 fa 3b ef 0a f8 3c 3c 9e 32 bd 3f fd 39 bd
       0.0076323776 0.030278651 -0.043607935 -0.04540753
0003e0 54 e9 a0 39 e4 de 1e bd 35 4b 63 3c 2c e2 ce 3c
       0.0003069142 -0.038786784 0.013872911 0.025254332
0003f0 da 63 be 3c b7 83 ad bd 35 d9 f6 3b 89 c1 dd bd
       0.023240972 -0.08472388 0.0075332173 -0.108279295

c2.bias f4 [64]
000000 b2 3f b3 3d 2c 72 35 bd 8b bb 06 3d fa 19 96 3b
       0.08752383 -0.044298336 0.0328937 0.0045807334
000010 2a d8 6b bd 29 d6 80 3e c4 3d 69 39 66 e4 0d be
       -0.057579197 0.2516339 0.00022243621 -0.13856658
000020 86 38 2a bd d1 d5 fc 3b 95 55 86 3d 15 a6 51 3e
       -0.04155781 0.0077159186 0.06559292 0.20473512
000030 87 ee 80 3e 9b b1 85 bb 17 a5 1e be 30 75 92 3e
       0.25181982 -0.00408001 -0.15492664 0.28605032
000040 c2 1c 4f be 5f a1 02 3e c9 2f 88 3c 1f a1 94 3c
       -0.20225814 0.1275687 0.016624348 0.018143235
000050 70 f2 1e be 33 ca e9 3d c8 43 95 bd 94 7e f4 3d
       -0.1552217 0.114155196 -0.07288319 0.11938205
000060 55 04 60 3b 60 1f 7e 3d 04 df 20 bc 7e cb 29 3e
       0.003418227 0.06204164 -0.009818796 0.16581532
000070 4b a5 de bd 0c 37 e0 bb d5 89 36 3d bc 75 8f 3d
       -0.10871371 -0.0068424996 0.04456504 0.07004878
000080 21 af 27 be f3 79 88 bc 70 4e 80 3e 63 bb b4 3d
       -0.163754 -0.016659712 0.25059843 0.08824804
000090 13 fc 88 bc b3 70 56 be 43 b0 8a 3e 4a 9d fc bd
       -0.01672176 -0.20941429 0.27087602 -0.12334688
0000a0 f0 0f 1f bd fc 27 2d be 43 0a 4a be 39 3e ba bd
       -0.03883356 -0.16909784 -0.19730477 -0.09093899
0000b0 98 d3 85 3d 70 5b 02 3d f6 40 00 be d1 1c 71 3d
       0.06534499 0.031825483 -0.1252478 0.058865372
0000c0 ba b8 c5 3c 07 51 78 be 71 91 a9 bd 56 69 88 bd
       0.024135936 -0.2424966 -0.08279694 -0.06660716
0000d0 2e 17 38 3e 44 34 82 bd 6b ac dd bd fa 2a 8b 3d
       0.17977592 -0.06357625 -0.10823902 0.067953065
0000e0 50 a6 da bd b0 19 d1 3c 17 75 8c 3e cd b7 48 3e
       -0.10676253 0.025524944 0.27433082 0.19601364
0000f0 01 09 31 3e bb ca cb 3d 63 38 cb bd ac c2 64 be
       0.17288591 0.09950777 -0.09922864 -0.22339886

c3.weight f4 [64, 64, 3, 3]
000000 f2 7f d7 bb b7 04 a7 bc e0 c7 84 bb 15 e5 4a bd
       -0.0065765316 -0.02038799 -0.0040521473 -0.049534876
000010 e5 c0 f5 bd 71 e7 19 bd 6b 35 01 bd ac 92 79 bd
       -0.11999682 -0.037574235 -0.031545084 -0.060930893
000020 28 af 3e 3d 1b 86 be bc 76 7c 61 bc 9d 37 32 bd
       0.04655376 -0.023257306 -0.013762584 -0.04351007
000030 c6 7b 4e bd 72 cc 48 bd 83 04 51 bd 98 ed 41 3c
       -0.05041101 -0.0490231 -0.051029693 0.011836432
000040 8e 89 ff 3d 47 56 86 bd 33 72 26 3d 92 fa 26 3c
       0.12477408 -0.06559425 0.040636253 0.010191577
000050 f3 45 24 3c ed e6 c5 3b eb 50 6b bd d9 23 5b 3d
       0.010026443 0.0060394914 -0.057450216 0.053500984
000060 10 0b eb bd ed 41 a9 bd a9 a2 55 3d f7 91 69 bc
       -0.114767194 -0.082645275 0.052157078 -0.014255992
000070 0a c0 3f bd 62 00 bd bc 34 a8 86 bc 36 8c 52 bd
       -0.046814002 -0.023071472 -0.016437627 -0.051403247
000080 ec 84 c1 3b 76 ff 90 bd 33 21 09 bd f1 6b d1 bc
       0.005905738 -0.07079975 -0.033478927 -0.025564166
000090 a0 d1 da 3c f9 9f 78 bd 40 47 1b bd 4c 9a 61 bd
       0.026711285 -0.060699437 -0.037909746 -0.05507879
0000a0 b2 7a c4 3c 13 31 3e 3c 4f b8 fd bd f0 2e 45 3e
       0.023984287 0.01160838 -0.1238867 0.19256186
0000b0 d0 db de bc 26 12 72 3d a3 dd 91 3d 04 bc 00 3d
       -0.027204424 0.05909934 0.07122352 0.031429306
0000c0 11 6e 6f 3b dc 57 33 bc 63 86 76 3c a4 d8 c5 bc
       0.003653411 -0.01094624 0.015046689 -0.024151154
0000d0 3c 60 6b bc 75 3b 04 bb 33 0b fa 3c a9 e1 18 bc
       -0.014366206 -0.002017704 0.030522918 -0.009331145
0000e0 da 4b e9 3c 04 f8 81 3c b3 77 79 bd 22 06 77 bc
       0.028478552 0.015865333 -0.06090517 -0.015077146
0000f0 73 92 c3 3d 2b c5 69 3c 36 59 ff bc ab 74 fb bc
       0.09549417 0.0142682 -0.031170469 -0.03069528
000100 91 82 c6 bc f8 69 00 3d 61 ff ff bc 00 18 e0 bc
       -0.02423218 0.03135106 -0.031249704 -0.027355194
000110 68 e1 c0 3b 96 f1 cf bc 28 b9 84 bc 5c 1b d1 bc
       0.0058862455 -0.025383752 -0.01620157 -0.025525741
000120 65 b6 4a bc 0f 87 3d bd f6 3c d9 3b d7 25 fe bc
       -0.012372588 -0.04627138 0.0066295816 -0.031023903
000130 c8 8b 7f bd cc 4c 36 3d 9a 18 53 bd 81 16 99 3c
       -0.062389165 0.044506833 -0.051537134 0.018687489
000140 08 5d 96 ba a9 19 4d 3c e4 e6 83 bd f6 0d 57 3c
       -0.0011471817 0.012518325 -0.06440523 0.013125887
000150 5e a9 0f 3b 2b a2 09 bd eb e7 3e bd ee 2a 87 bd
       0.002192102 -0.03360192 -0.046607893 -0.06599985
000160 48 ca 06 be 0b d3 2f bb 92 8a a2 3c 9d 83 4b bd
       -0.13163102 -0.0026828672 0.019841466 -0.049686063
000170 ce 58 ac 3c 1d 37 c7 bd df 75 e5 bd 53 c2 37 3d
       0.02103844 -0.09727309 -0.11204123 0.044863056
000180 39 31 86 bc e5 62 31 3d 9c f2 ef 3c 58 f0 b5 3b
       -0.016380893 0.043307204 0.02929049 0.005552333
000190 04 ea 26 bd 68 04 92 3c cf 7b 2a 3e 5c e9 99 bc
       -0.04075052 0.017824367 0.16648792 -0.018788032
0001a0 c9 25 bf bc a1 c7 83 3d 07 89 ba 3d 64 0b 82 3c
       -0.023333447 0.064345606 0.09108167 0.015874572
0001b0 1b 18 ed 3c 44 0d 70 3d 37 7e af bc 86 07 d6 3c
       0.028942158 0.0586064 -0.021422489 0.026126634
0001c0 44 3e 1d bc 96 bb 06 bd a1 67 e0 3b 9a 44 86 3c
       -0.009597365 -0.03289374 0.006848291 0.016390134
0001d0 2a 61 da 3c 8c d7 c7 bc 57 46 01 bd c5 7d 10 bd
       0.02665766 -0.024394773 -0.031561222 -0.035276193
0001e0 73 34 a7 bc dc 7e e3 bc 21 b5 f2 3b be 5a 78 3d
       -0.020410752 -0.027770452 0.007406846 0.060633413
0001f0 15 35 ea bc ac 3f 1d 3d b7 8c a9 3b cb ce 5b bc
       -0.028589765 0.0383908 0.005174245 -0.0134160025
000200 ba c4 67 3c 96 65 80 3c 0d e7 1b 3d af 3b 06 3a
       0.014146024 0.01567344 0.038062144 0.0005120588
000210 9f 2a 7a 3d 9a 6b 71 bc dc ce 8f bb 8c f5 c8 3d
       0.061075803 -0.014735127 -0.004388673 0.09812459
000220 ae 89 26 3e 74 e8 bd 3c 91 e6 90 3d a6 a2 56 3e
       0.16263458 0.023182131 0.07075227 0.20960483
000230 2f ca 16 bd 51 10 39 3c a8 19 37 3d 45 b0 03 bd
       -0.03681391 0.011295394 0.044702202 -0.032150526
000240 97 60 d1 bb 93 60 56 bc 94 49 17 3d 58 d6 47 b9
       -0.0063896882 -0.0130845485 0.036935404 -0.00019057968
000250 a6 d2 19 bd 62 4f 9c 3b a7 ca 01 be 9d 42 a7 bd
       -0.037554406 0.0047702054 -0.12674962 -0.08167002
000260 42 c4 64 3d 18 00 18 3c 6a 75 41 3d 53 d6 c8 bc
       0.05585123 0.009277366 0.047231115 -0.02451626
000270 61 b6 c1 3d 49 6d f4 3b e1 1e 3a bd c8 1f 4d 3c
       0.09458614 0.007459317 -0.045439605 0.012519784
000280 f1 ee b4 3d 7e 95 02 3d 76 aa d8 3c e4 09 37 bb
       0.08834637 0.031880848 0.02644847 -0.002792948
000290 04 51 bd bb 74 bb 99 bc 58 37 9b bc 87 a8 af bc
       -0.00577748 -0.018766142 -0.018947288 -0.021442665
0002a0 c4 37 9c bd 3e fe cf 3a 6e c5 a3 bc 48 c6 c3 bc
       -0.07627824 0.0015868617 -0.019991603 -0.023898259
0002b0 ee 23 ce bc 7a 4b 84 ba 9f d2 c2 3c 87 c4 48 3d
       -0.025163617 -0.0010093295 0.023782073 0.049015548
0002c0 64 31 1f bc aa 93 93 bd 2d d6 7c 3c ca 30 fa bb
       -0.0097163655 -0.07205899 0.015431923 -0.0076352106
0002d0 07 1d 4a bc 70 e1 be 3c 56 1e 00 bd 33 29 b0 bb
       -0.012336022 0.023300856 -0.03127893 -0.005376005
0002e0 27 3d a7 bc 9f 68 1b 3d 28 10 95 3c 38 03 2b bd
       -0.020414902 0.03794157 0.01819618 -0.041751117
0002f0 58 87 25 bd 03 8b d4 bc 42 e0 b2 bc f2 2a 35 bd
       -0.040412277 -0.025945192 -0.02183545 -0.04423041
000300 11 aa 30 be e5 ac c6 bd d6 e9 95 3c 0d ab 14 bd
       -0.17252375 -0.09700946 0.018299978 -0.03629594
000310 68 98 78 3d c4 11 e6 3c 4d 1d 39 bc b7 11 c0 3c
       0.06069222 0.028084643 -0.01129849 0.023445947
000320 f8 5d af 3a 96 cd a1 bc 91 93 41 3b 1b 9c e2 3c
       0.0013379445 -0.019751351 0.002953742 0.027662328
000330 23 83 7d bc 96 c5 12 bd 01 bb 21 bc 92 5c 87 3d
       -0.01547316 -0.035832964 -0.009871245 0.06609453
000340 37 04 ec bc 6b c3 e8 bc ae d8 8d bd 23 8c f7 bc
       -0.028810604 -0.028413495 -0.06926094 -0.03021819
000350 5a 16 31 bd 63 94 c4 bc 1e 88 fc bb 54 f6 00 bc
       -0.043234207 -0.023996538 -0.007706656 -0.007871229
000360 95 3d 14 3d 2a 2f a0 3c 1b 7c 23 bd fe 88 83 bc
       0.03619154 0.01955374 -0.039913278 -0.016056534
000370 ed 9a 44 bd 7a 7b b5 ba 1b 9c cc bd 66 7c 56 3c
       -0.04799931 -0.0013846003 -0.09990712 0.013091182
000380 e0 b4 22 3d 17 51 e7 bc 1d c0 0f bd e0 08 a6 3c
       0.039723277 -0.028236909 -0.035095323 0.020267904
000390 61 4e fc bc fd 58 8c bd 77 ef ad 3b c1 2f 1b 3c
       -0.030799093 -0.06852911 0.0053080874 0.009471835
0003a0 ed 77 10 bd 75 d2 8a 3c a3 f7 ef bc 79 e9 8c bd
       -0.03527062 0.016946057 -0.029292887 -0.06880469
0003b0 bb 29 ed 3a 96 64 83 bd 65 88 42 bd 05 1d 84 bd
       0.0018094102 -0.064156696 -0.047493357 -0.064508475
0003c0 53 82 a5 3d e5 8c 64 3e d2 9b 82 bd b1 70 a1 3d
       0.08081498 0.22319372 -0.063773766 0.07882822
0003d0 97 ea d2 3c ad 4e 98 bb bd 17 1b 3d 24 89 25 bd
       0.025746627 -0.0046480508 0.037864435 -0.04041399
0003e0 3e cf d0 bc 61 6b 71 3c ad b1 9c bc 1e bb e0 3c
       -0.025489446 0.014735074 -0.019127691 0.027432974
0003f0 91 93 a8 bd b0 ff d9 bc 78 2d 01 bd 96 d0 6a bd
       -0.08231271 -0.02661118 -0.031537503 -0.05732783

c3.bias f4 [64]
000000 67 40 37 3e f9 4d b1 3c 6b 9f 28 be b9 aa e1 bd
       0.17895661 0.021643626 -0.16467063 -0.11018891
000010 5c f9 4a be 32 f2 96 bc 09 1f 06 3c 18 f3 75 be
       -0.19821686 -0.018426035 0.00818611 -0.24018514
000020 09 52 f3 bd 73 f7 3e 3b 97 7a 2f be 65 80 98 bd
       -0.11880881 0.002913919 -0.17136608 -0.07446364
000030 2c 23 fd bd 2b 32 0d 3e 50 f9 7d 3d 77 16 9a bd
       -0.12360224 0.13788669 0.06200534 -0.07523816
000040 5a 1f 2c 3e b4 43 0e 3e 13 17 ee bb 45 57 a3 bd
       0.16808835 0.13893014 -0.0072659343 -0.0797563
000050 31 2b b3 bd 15 af 0d bd 39 41 cb 3c e1 ea 12 bc
       -0.087484725 -0.0345908 0.024811374 -0.008967132
000060 2d 08 3f bd 63 c9 bf 3d 83 15 26 be 5d b1 ec 3b
       -0.046638656 0.09364583 -0.16219144 0.007223292
000070 1b 84 92 bc 63 55 da bd 2e dd 33 be 94 2a 9a bc
       -0.017885258 -0.106608175 -0.17564842 -0.018819131
000080 11 c5 60 3b 80 d4 56 3d c8 e9 b2 bb 81 30 9d 3d
       0.0034297148 0.05244875 -0.005459998 0.07675267
000090 bc 90 3e be c7 86 cb bd c2 80 99 3b 61 fb fa bd
       -0.186099 -0.09937816 0.0046845386 -0.12254978
0000a0 f3 aa a0 be 1f d4 29 be 78 ea cc 3d c9 f4 f9 bd
       -0.31380424 -0.16584824 0.10005659 -0.12204892
0000b0 61 4d 86 be ba f2 d9 bd 2d 1a ff 3a b2 f5 80 be
       -0.2623091 -0.106419995 0.0019462757 -0.2518745
0000c0 fd 63 26 be 8b 4c 66 bd 84 bd bf bd 11 0c 20 3e
       -0.1624908 -0.05622534 -0.09362319 0.15629603
0000d0 2e ee 70 be 84 b8 f7 3c 9e ae 1a be 26 92 aa 3d
       -0.23528358 0.030239351 -0.15105674 0.08328657
0000e0 ea 03 41 be c6 a8 4d 3c c2 5e 82 be 30 08 ce bc
       -0.1884915 0.012552446 -0.2546292 -0.025150388
0000f0 48 9f 30 bd da 98 e6 3c 3a b6 07 be 59 c9 91 bc
       -0.043120652 0.028149057 -0.13253108 -0.017796205

l1.weight f4 [1024, 64]
000000 8d 9c de 3d 71 21 3a 3b d5 e5 af bd f9 ef 9a 3d
       0.108697034 0.002840128 -0.08588759 0.075653024
000010 c5 61 79 bd b0 18 a5 3d e3 80 0c be af c2 02 be
       -0.060884256 0.080613494 -0.13721041 -0.12769578
000020 bf 6e 03 3e de 0e d2 bd e3 4a d7 bd 74 6a 3e 3d
       0.12835215 -0.10256742 -0.105123304 0.04648824
000030 e5 b5 c6 bd 62 83 ab bd 8b 3b ca bd dc 2d ec 3c
       -0.097026624 -0.08374669 -0.09874638 0.028830461
000040 ef 3b d9 bd c5 13 52 3d ba f9 ea bc e3 07 b0 3d
       -0.106071346 0.051288385 -0.028683532 0.08595254
000050 88 a3 c6 bd eb 8e a7 bd c7 af 50 3d 5e fb b0 3d
       -0.0969916 -0.08181556 0.050948884 0.086416945
000060 8f 10 97 3d ae 49 96 bd f0 ee 94 3d a2 8b c5 3d
       0.07376205 -0.07338272 0.07272136 0.096457735
000070 b8 bb ec 3d 16 96 97 bd 3d e8 40 3c 1e cf 86 bc
       0.11559242 -0.074016735 0.01177412 -0.016456183
000080 0d 6c db 3b 03 c6 d4 3d 33 e2 b3 3d 7e 29 81 3d
       0.0066962303 0.1038933 0.087833785 0.06306742
000090 c2 4e a1 bc 72 1b 90 3d 49 7e c9 3d 64 fc bf bd
       -0.019690875 0.07036485 0.0983854 -0.093743116
0000a0 4e 8c 00 3d 7e 2a 10 3e ad 39 9a bd a1 63 d2 bd
       0.031383805 0.1407871 -0.07530532 -0.10272909
0000b0 ef 72 5f bc 02 f6 e1 bb 6b c1 b1 bc 18 bd b8 bd
       -0.013638242 -0.0068957815 -0.021698674 -0.09020442
0000c0 5e 62 f9 bc 71 36 c9 bc 7f 7b e9 bd af 43 52 3c
       -0.030442413 -0.024562092 -0.11400508 0.01283352
0000d0 29 95 85 3d 43 5e 2a 3c 6f ac 9b 3c 47 17 aa 3d
       0.06522591 0.01039845 0.019003121 0.08305221
0000e0 4f 0d 80 b9 eb c7 48 bd 73 1c 68 3d 63 29 3a 3d
       -0.00024423978 -0.04901878 0.056667756 0.045449626
0000f0 84 e7 7e 3d 4b 07 9a bd 30 c8 1c bd a8 a6 34 3d
       0.06223251 -0.07520922 -0.03827685 0.04410425
000100 0b 8f c4 3d ae 98 c7 3d 54 9f b3 3d 02 a7 e2 3d
       0.09597596 0.09745918 0.08770624 0.110670105
000110 fd ec 96 3d d8 a8 8d 3c 70 f2 92 bd 93 93 27 bd
       0.07369421 0.017292425 -0.071751475 -0.040912222
000120 d8 13 47 bb 47 7e 9f 3c bc 98 a6 bc 87 63 a2 bc
       -0.0030376818 0.019469393 -0.020336501 -0.019822849
000130 a2 8a 51 bd 04 0d 31 bc a5 d8 fd 3c ed 95 e0 bd
       -0.0511576 -0.010806326 0.030987093 -0.10966096
000140 64 82 a1 3d a8 f8 41 bd fe 35 bd 3d 6c 92 a6 3d
       0.07886198 -0.047356278 0.09238814 0.081333965
000150 0d 40 4a bd 21 de 08 bb 46 c4 2f bc 5e ce c3 3d
       -0.04937749 -0.0020884352 -0.010727948 0.09560846
000160 34 4e 48 bd 17 32 87 3d f4 90 a1 bd 19 de 01 be
       -0.048902705 0.06601351 -0.07888976 -0.1268238
000170 3d 7b e3 3d 4c bb 83 3d e5 43 4f bd d4 7e 80 3c
       0.1110749 0.064322084 -0.05060186 0.015685476
000180 58 e1 84 bd ab 29 8a bd e5 db d7 3d d3 57 8c bd
       -0.064882934 -0.06746229 0.105399884 -0.06852689
000190 c9 1c 9c bc 04 74 89 3d 1d 60 b4 bd 29 4d 43 3d
       -0.019056695 0.06711581 -0.08807395 0.047681008
0001a0 e2 6b 1b 3c 1a df e1 ba b2 c4 9c 3d 5c e8 84 3d
       0.0094861705 -0.0017232627 0.07654704 0.064896315
0001b0 1c 2d 95 3c c2 5d ea 3d f1 5e 55 3d 41 28 1c 3e
       0.018209986 0.11443664 0.052092496 0.1524973
0001c0 4a 54 57 3d c2 20 00 3e ab 9b 2e bd 16 40 c3 bd
       0.05257062 0.12512496 -0.042628925 -0.09533708
0001d0 50 78 c0 bd a7 02 5b 3d 61 3d 28 3d 4b aa 77 bd
       -0.09397948 0.053469326 0.04107416 -0.06046514
0001e0 6a ed 6f 3d a6 bd b8 bc cd 1f 8a bd b7 b3 69 3d
       0.058576025 -0.022551369 -0.06744347 0.057056155
0001f0 f2 a7 16 3d 9b 79 cf bd de c3 d1 3d 14 c0 d5 bd
       0.03678126 -0.10130616 0.10242437 -0.104370266
000200 1c a2 69 bd 7e 25 f6 bc 09 e8 4a bd ab 60 9e bb
       -0.057039365 -0.030047175 -0.049537692 -0.004833301
000210 f8 e9 cd bb 6e 69 a7 3d ca d0 ff 3d 51 36 a8 bb
       -0.0062839948 0.08174406 0.12490995 -0.005133428
000220 b1 54 b0 bc b3 c4 17 bd e4 0e 51 3d 5b f5 8a 3d
       -0.021524759 -0.03705282 0.05103959 0.06785079
000230 df 29 10 3d 2e a9 00 3e e1 fd d7 3d 72 3b 59 bd
       0.03519618 0.12564537 0.105464704 -0.053035207
000240 21 ad 20 bd 3c 08 0c 3e 3d 44 36 bc 59 f9 a2 3d
       -0.03922761 0.13675016 -0.011124668 0.079577155
000250 37 bf c8 3d d1 d1 86 bd 8f a9 36 3d 0e a7 50 3d
       0.09802096 -0.06582988 0.044595297 0.050940566
000260 db c9 07 3e e2 73 b3 3d f5 64 3b bd c4 6b 19 bd
       0.13260596 0.08762337 -0.045750577 -0.03745629
000270 6d 4e f1 3c f0 03 ce bd 20 58 0c 3d 90 e5 a4 bd
       0.029456342 -0.10059345 0.03426373 -0.08051598
000280 03 35 a8 bd 1c 1f 91 bd 60 11 dd bd 1f e8 2e 3d
       -0.08213236 -0.07086012 -0.1079433 0.042701837
000290 80 58 0a 3c b6 7b 31 bd 64 5c 23 3d 7b 9c dd 3c
       0.008443952 -0.04333087 0.039883032 0.027052155
0002a0 1c b9 8b bd 25 9e 94 bc 98 cf 53 bd ab 58 f7 3d
       -0.06822416 -0.018141815 -0.05171165 0.12077459
0002b0 ab d1 0f 3d a4 63 83 bd 6a c8 dc 3d ff 19 3b bd
       0.035112064 -0.06415489 0.107804134 -0.04567909
0002c0 5c 59 2d 3d 9f 07 d0 3b 97 d0 99 3d 72 a8 06 3d
       0.042321548 0.0063485648 0.075104885 0.032875486
0002d0 d2 68 86 bd 14 5a 0e 3c 17 f5 df 3d 4d f5 8e bd
       -0.06562962 0.0086884685 0.10935419 -0.06980381
0002e0 bc 64 c8 bc 21 23 da 3d ae de 8f 3d e2 cd 89 3c
       -0.024462096 0.106512316 0.07024895 0.016821805
0002f0 e9 7a 99 ba a4 6c 71 3b 6e cf a0 bd ec f0 a2 bc
       -0.0011709604 0.0036838436 -0.07852064 -0.019890271
000300 9a f5 83 3d 1f be aa bb 7e 92 c4 3d d8 6d e9 3c
       0.06443329 -0.0052106525 0.09598254 0.02849476
000310 ca 6b b4 bd ea 79 3d 3d 41 1d 53 3d 58 0f 09 3d
       -0.08809622 0.046258844 0.05154157 0.0334619
000320 f5 c4 cc 3d 30 00 0d 3e ac 79 40 bd a9 c6 8d bb
       0.09998504 0.13769603 -0.046991035 -0.0043266607
000330 ac 8e 90 3d b3 85 04 3e 71 7f 36 bd 8e 0a 8f bd
       0.070584625 0.12941627 -0.04455513 -0.06984435
000340 18 e0 0f be c9 ab f8 3c 98 4a b2 3d da 88 b8 bd
       -0.14050329 0.030355351 0.08705634 -0.09010477
000350 32 03 54 3d 56 0d 7c bd 18 ca a1 bd 55 b1 3e 3d
       0.05176086 -0.061536156 -0.078998744 0.046555836
000360 f0 e5 b8 bd 88 b8 07 be 09 99 d5 bd b8 98 0e 3e
       -0.09028232 -0.13253987 -0.1042958 0.13925445
000370 57 c8 51 3c 52 98 18 3e 92 53 93 bd 88 b9 69 bd
       0.012804112 0.14901856 -0.07193674 -0.057061702
000380 88 a6 d1 3c 00 5f a3 3d b8 cc 95 bd f6 79 40 bb
       0.025592104 0.07977104 -0.07314438 -0.002936957
000390 b3 ba 92 3d ed 3f b4 3d bd b2 9a 3d 6c 39 e5 bc
       0.07164516 0.088012554 0.07553623 -0.027981482
0003a0 ad f4 bb 3b 2d 24 fe 3d f7 84 98 bd a1 c6 b5 bd
       0.0057359547 0.12409244 -0.07447236 -0.08875776
0003b0 fd db ba 3d 4a 62 e7 3c 5f 2f 86 3c a5 29 02 be
       0.09123991 0.02824511 0.01638001 -0.12711199
0003c0 2f 5c dd bd b6 41 04 bd 5e 36 ce bc 3c c6 1d bd
       -0.10808598 -0.03228923 -0.025172409 -0.03851913
0003d0 de 00 0b bd 16 0a b2 3d 55 bf 95 3d 35 3a bb 3d
       -0.033936374 0.0869333 0.07311884 0.091419615
0003e0 7f b5 e9 3b e5 b3 f4 3d 5a 4c a9 3d af 93 ba 3d
       0.0071322317 0.11948375 0.08266516 0.091102
0003f0 24 13 80 bd 7b 77 bb 3d 67 34 de bd 5e 6f 53 bc
       -0.06253651 0.091536485 -0.10849839 -0.01290497

l1.bias f4 [1024]
000000 d4 b7 e1 bd 60 df a3 bc 66 3c ab b9 a4 e0 c8 bd
       -0.110213906 -0.020003974 -0.00032660662 -0.09808472
000010 61 3f c7 bd 83 2f 5b 3d cf 8b 9c 3c 42 f4 1b 3d
       -0.097288854 0.053512108 0.019109635 0.03807474
000020 03 3e 16 3e 53 44 bd bd 41 63 94 3d 9f 27 85 bd
       0.14672093 -0.092415474 0.07245494 -0.06501698
000030 fd 47 7f bd 70 39 97 3d 97 12 5e bd 76 a5 a3 bd
       -0.062324513 0.07384002 -0.054216947 -0.079905435
000040 b2 ad ed bd 0a f4 10 3e 81 4b 41 bd 94 0d 86 bd
       -0.116053954 0.14155594 -0.047191147 -0.065455586
000050 b8 f7 3c 3e 94 d1 ae bd 5d b3 1b 3d 37 62 c9 3d
       0.18453872 -0.085360676 0.03801285 0.09833186
000060 01 dd 91 bd 15 51 b0 3d 03 d0 8b bd f0 81 1f 3e
       -0.07122231 0.08609215 -0.068267845 0.15576911
000070 8b da d8 3d 5b 1e 93 3d ed 08 9d bd bb a3 83 3d
       0.10588559 0.07183524 -0.07667718 0.064277135
000080 bc 70 50 3d 8c 0b 91 bd 18 bd f4 bd 93 35 5e 3d
       0.050888762 -0.070822805 -0.11950129 0.05425031
000090 1f 86 74 bd 6f 7d 78 bd 14 c4 47 bd c9 2f c5 bd
       -0.05969822 -0.060666498 -0.04877098 -0.09628255
0000a0 96 e4 09 bd f3 62 aa bd 3e 55 9e 3c 6a d9 d8 3d
       -0.033665262 -0.08319654 0.019327756 0.105883434
0000b0 64 8e e1 3d 60 8b ca 3c 93 ee b7 bd df d6 c5 3d
       0.11013487 0.024724662 -0.08981051 0.09660124
0000c0 c5 72 03 be 9c 9d 48 3d c8 47 53 3d 3b 73 e4 bd
       -0.1283675 0.048978433 0.051582128 -0.11154791
0000d0 5e c6 eb 3d 02 93 40 3d eb a0 60 bd 18 f0 1d 3e
       0.11512445 0.047015198 -0.054840963 0.1542362
0000e0 5f b6 44 bc fb 3a ac bc 35 06 c3 3d 2c 6f 63 bb
       -0.012006371 -0.021024218 0.09522668 -0.0034703715
0000f0 50 86 c1 bd 38 24 23 3d 12 09 f2 3b bd ad 04 3e
       -0.09449446 0.039829463 0.007386335 0.12956901
000100 d2 62 c2 3b c9 b6 e8 3d ac 3b 93 bd 45 fa dd 3d
       0.0059321905 0.113629885 -0.07189116 0.10838751
000110 30 ec 5c 3d ad f0 fb bd ea f9 47 3d 72 1a 10 3e
       0.053936183 -0.12301765 0.04882232 0.14072588
000120 03 80 db bc a0 e5 bf 3d 12 b8 be bd 94 74 3f 3e
       -0.02679444 0.09369969 -0.093124524 0.18696815
000130 54 bd 08 bd 9a 02 5a ba 85 e5 e4 bd 3b 32 2e 3b
       -0.033383682 -0.00083164277 -0.1117659 0.0026580233
000140 78 30 93 bd 93 7e 5b 3d 54 cb 1a 3e 37 0f 9a bd
       -0.07186979 0.053587507 0.15116626 -0.07522433
000150 b7 f4 8b bd 2c b8 86 3d ee 72 dc 3d 4f 1e 22 bc
       -0.06833785 0.06578097 0.107641086 -0.009894921
000160 40 54 08 bd 90 11 14 3e b6 04 32 3d 7b cd ef 3d
       -0.033283472 0.14459825 0.043461524 0.11709114
000170 a7 1f 60 bd f2 0c d7 bd 6c 36 4a bd 36 78 0f bc
       -0.054717686 -0.10500516 -0.049368307 -0.008756688
000180 6c cd 47 bc 6b e3 c5 3d 7a 7c c1 bd dc 70 d9 3b
       -0.0121949725 0.09662517 -0.0944757 0.0066357683
000190 e5 d9 35 3d 17 b8 c3 3d 45 ca a5 3d 0c 22 e4 3d
       0.044397254 0.09556597 0.080952205 0.111393064
0001a0 cc 24 ed 3d 53 c2 f9 3d 30 34 c6 3d 3a af 94 bd
       0.11579284 0.121952675 0.09677923 -0.07259984
0001b0 7f ce 06 bc 41 0c 9c 3d 82 72 22 3e 7a 1d 02 3e
       -0.008227943 0.07619525 0.15863994 0.12706557
0001c0 39 2f de bd 10 55 1f 3e a5 ac e6 3d 92 26 5b bc
       -0.10848851 0.15559793 0.11263398 -0.013375895
0001d0 db 1d 91 3d 39 eb 6f bd 97 3d 7c 3d d4 5d 8e 3d
       0.070857726 -0.058573935 0.061582174 0.0695149
0001e0 0e 34 e7 3c be d3 4f 3d 86 ad 6e 3d 16 d2 da bd
       0.028223064 0.050739042 0.058270954 -0.10684602
0001f0 78 37 42 bd 88 01 a0 3d 08 c9 43 bd 2d d3 55 3d
       -0.04741618 0.07812792 -0.04779914 0.052203346
000200 c2 b4 d8 3d a1 7f b9 3d 7c 08 b2 b9 0a 1d 0d 3d
       0.10581352 0.090575464 -0.00033957127 0.034451522
000210 07 85 27 bd f3 a8 d1 3d f5 3a d0 3d 8f 7b 09 be
       -0.04089835 0.10237303 0.10167495 -0.1342604
000220 53 54 25 bc cb 90 90 bd e3 ef 09 3e 80 f1 27 3e
       -0.010090905 -0.07058867 0.13470416 0.16400719
000230 e0 2c a0 bd 4d 7f 0b 3e 79 1e 82 bd 53 00 00 3d
       -0.07821059 0.1362278 -0.063534684 0.03125031
000240 24 19 fe bd bd 67 30 bd 0e df 09 3d 22 51 63 bd
       -0.12407139 -0.043067683 0.033659987 -0.055497296
000250 cc 57 0d 3e e2 36 2d bd 2c 99 c1 bc 61 b2 0f 3d
       0.13803023 -0.04228867 -0.023632608 0.035082225
000260 45 b6 8e 3b 5c a8 e8 bd 55 39 c3 3d 33 0b 18 bd
       0.0043552243 -0.11360237 0.095324196 -0.037120055
000270 ad 4a 4a 3d a3 32 9b bd 5a 0a 0f bd 3f 11 d4 3d
       0.049387623 -0.075780176 -0.03492198 0.10354852
000280 49 1a ca bd 67 f9 bd 3d a7 ee 14 3e 72 ed 59 bd
       -0.09868295 0.09276085 0.14544164 -0.05320496
000290 61 70 d0 bc 93 4f 54 bc 31 06 dd bc de e7 48 3d
       -0.025444211 -0.012958425 -0.026980491 0.04904925
0002a0 85 fc 3a bd 6a fb 4a bc 1a a6 ed bd 25 4c 23 bc
       -0.045650978 -0.012389043 -0.11603947 -0.009966885
0002b0 3a 52 99 3d 60 a1 bc bc 86 b1 f6 bc 3b 61 11 bd
       0.074863866 -0.023026168 -0.030113947 -0.035493117
0002c0 01 f1 bf 3d b6 16 9b bd 87 1b b8 bc 54 7e c8 bc
       0.0937214 -0.07572691 -0.022474064 -0.0244743
0002d0 6e 72 16 bd b5 45 10 3d 32 98 bb 3d c3 86 84 3d
       -0.036730222 0.035222728 0.09159888 0.06471016
0002e0 ef 8e b7 bc b0 a0 ad bd 22 6f 03 3c 56 f9 94 3d
       -0.022407023 -0.08477914 0.008022102 0.072741196
0002f0 95 ba 1c 3e a2 a0 8a 3b 06 1a c1 bd 5d e0 20 3e
       0.1530555 0.0042305747 -0.09428792 0.15710588
000300 60 b7 23 3e ee b6 cf 3d 96 92 e6 3b 3d 14 cd bd
       0.15987921 0.10142313 0.0070365174 -0.10013626
000310 fd 8f f4 bd a3 93 cd bd 2d 6a 41 bd c1 c3 0e 3e
       -0.11941526 -0.10037925 -0.047220398 0.13941862
000320 50 60 44 3d e8 f1 d3 bc 57 ff d6 bd 32 58 2a 3e
       0.047943413 -0.025872186 -0.10497921 0.16635206
000330 08 20 7f bd 5f 3a 8e 3d 80 87 8e 3d ec f9 a0 3d
       -0.062286407 0.06944727 0.06959438 0.07860169
000340 16 6e 54 bd c1 7c 94 bd 14 85 5a 3c 23 90 9b 3d
       -0.0518628 -0.072503574 0.013337392 0.07595851
000350 7f 5d 41 bb f0 33 ca 3d 90 ab f8 bd e9 e2 eb 3d
       -0.002950519 0.098731875 -0.12142098 0.11517889
000360 70 97 81 3d 7e 9d 2d 3d 7b ae cf 3d 66 f3 0b bd
       0.063277125 0.042386524 0.101407014 -0.03416767
000370 90 3b e1 bd 0e 0b 1c bd ed e9 fa 3c da ed d2 3d
       -0.10997689 -0.03809648 0.030629123 0.10299273
000380 72 cf e1 bd 22 d5 8d 3d 18 c1 08 3e 71 6f ab bb
       -0.11025895 0.069254175 0.1335491 -0.0052317907
000390 50 51 34 b9 ad 7b 95 bd d7 39 14 3e 6b a1 3a bd
       -0.00017196429 -0.0729898 0.14475189 -0.045564096
0003a0 9f a0 0b 3e 86 46 03 3e d0 11 ca bd 1f f5 59 3d
       0.13635491 0.12819871 -0.09866679 0.05321228
0003b0 24 cf 80 bc 1a f6 ec bd 8e 77 30 be 36 9d 02 bd
       -0.015723772 -0.11570378 -0.17233106 -0.03188821
0003c0 0e 95 f8 3d 2d 6a d7 bc 23 8a d2 bd f0 7c 84 bb
       0.12137805 -0.026295746 -0.10280254 -0.004043214
0003d0 c7 30 1d bd 25 65 e8 bd e8 c1 f7 3d 88 75 a2 3d
       -0.038376596 -0.11347417 0.120975316 0.079325736
0003e0 86 95 99 bd f7 b0 84 bd 5c d5 fd 3d 0e 88 b2 bd
       -0.074992225 -0.06479066 0.12394211 -0.087173566
0003f0 17 54 80 bd 7f f9 7c 3d 54 e9 d2 3d 13 5a f7 3d
       -0.06266039 0.061761376 0.1029841 0.12077727

l2.weight f4 [10, 1024]
000000 da 99 1e 3d 34 d2 71 3d 6c 98 5c bd 01 a3 0b bd
       0.038720943 0.059038356 -0.0538563 -0.034091
000010 92 db 42 bc c3 94 0c be ad de aa bd 0d f8 8d 3d
       -0.01189317 -0.13728623 -0.08343253 0.069320776
000020 b7 1f a7 bc 37 d8 10 bc 62 9f a2 3c ef f4 ae bc
       -0.020400865 -0.008840612 0.01985139 -0.021357028
000030 fa 55 84 bc 1c 40 ce 3d 50 bf cd 3c 39 87 85 bc
       -0.016154278 0.10070822 0.025115639 -0.01629983
000040 fc c8 a5 bc d8 3d e8 bd b1 4a 5b bd b3 d1 f5 bc
       -0.020237438 -0.11339921 -0.05353803 -0.030007219
000050 02 60 06 be 50 d8 02 3d f3 db ae bc 47 1b c4 3d
       -0.13122562 0.031944573 -0.021345114 0.09575515
000060 b3 d0 a6 3d d0 6d 28 3d a7 61 74 bc eb cd 02 3e
       0.08145275 0.04112035 -0.01491586 0.12773864
000070 c4 98 58 bd b9 eb e5 3c da f8 c8 3c 50 3e f0 bc
       -0.052880064 0.028066503 0.024532724 -0.029326588
000080 57 48 cd 3d b8 af fb 3c 66 74 f4 3c a1 58 02 3b
       0.10023563 0.030723438 0.02984066 0.0019889253
000090 31 3c b5 bc 03 e9 aa bc c3 d5 8b 3d 16 d8 d1 3c
       -0.022123428 -0.020863062 0.06827881 0.025615733
0000a0 2c da ed 3c 56 ce e9 3c 38 7e 10 3d e8 8d fb bc
       0.029034697 0.028540771 0.03527662 -0.030707315
0000b0 33 04 c3 bb 6c 80 a0 3c 89 d7 b5 3d 36 ad 63 3d
       -0.0059514283 0.019592486 0.08879001 0.05558511
0000c0 8c e8 cd bc bd fa 6e bd 2a b3 1c bd fe ad a8 bc
       -0.025135301 -0.05834459 -0.0382568 -0.020590778
0000d0 75 49 e8 3d 18 91 9e 3b c1 33 a2 3d 36 f2 ee bb
       0.11342136 0.004839074 0.079200275 -0.0072920574
0000e0 ea 11 df 3b 51 9a 72 3b cd 65 ad bc 62 fd 69 bd
       0.0068075554 0.003701825 -0.021166706 -0.05712641
0000f0 07 75 4d 3d 6b 70 e4 bc 33 bf e8 bc 04 1d 1b bd
       0.050160434 -0.027885636 -0.028411483 -0.03786947
000100 f9 dc 9b bd d2 57 ba 3c d3 86 64 3d a5 dd 5a 3c
       -0.076105066 0.022746954 0.05579264 0.013358508
000110 d8 a6 2e 3e 6f 5b 2d 3d b0 2f 89 3d 17 33 35 3e
       0.17055833 0.042323526 0.06698549 0.1769527
000120 1d 8d a9 bc b8 44 98 bd 9b 89 df 3d 50 23 94 3c
       -0.02069717 -0.07434982 0.10914918 0.018083245
000130 7a 21 59 bd b9 9f 86 3c 12 a0 9f bd a4 e2 04 bb
       -0.05301044 0.016433584 -0.07794203 -0.002027669
000140 24 a7 e8 ba f5 0d c3 3c 0c 48 32 3e 77 f0 10 bd
       -0.0017750007 0.023810366 0.17410296 -0.035385575
000150 79 1f b1 3c 23 a2 cc bc 0e 2e 5c bc 22 63 36 bd
       0.021621453 -0.024979657 -0.013438715 -0.044528134
000160 cc 20 03 3c 54 b0 c9 bc 5c 0d 94 3d c3 8f 6d bd
       0.008003425 -0.024620213 0.072291106 -0.05799843
000170 84 fe fd 3d 29 cc f9 3d 47 2b 29 3b 9f ef 68 3d
       0.12402061 0.121971436 0.0025813149 0.056869145
000180 5b de a7 ba 00 97 49 3a 28 68 94 3c 1a f2 94 bc
       -0.0012807356 0.0007690042 0.018116072 -0.01818185
000190 3a bb 3a bc 43 be 82 3d 90 04 da bd 01 c6 b7 ba
       -0.011397177 0.06383946 -0.106454015 -0.0014020802
0001a0 93 a3 e0 3c ae fe 98 bd 76 8f 14 bd 8b 60 34 3d
       0.027421748 -0.07470451 -0.036269628 0.044037383
0001b0 2d 41 e6 bd 3d fe 01 bd 83 ee f7 bc 62 d5 f0 3c
       -0.112429 -0.0317366 -0.030265098 0.029398624
0001c0 7c cf be bc c3 c6 97 bd 3e 77 22 3d f4 57 35 bd
       -0.023292296 -0.07410958 0.0396645 -0.04427333
0001d0 c5 b5 f2 3c 66 bc c0 ba cb de 83 bc c6 1f d2 bd
       0.02962769 -0.0014704585 -0.016097447 -0.102599666
0001e0 b2 52 49 3d e3 3b 25 bd c5 15 c0 bd 74 57 9b bc
       0.04915113 -0.040340316 -0.09379152 -0.0189626
0001f0 91 ee 01 be 25 a6 f1 3c 20 72 56 3b 91 93 c3 bc
       -0.12688662 0.02949817 0.0032721832 -0.023874076
000200 ba c1 9a bd 91 fc f0 bc f3 7d 31 bd 9d df 80 bb
       -0.07556482 -0.029417308 -0.043333005 -0.003932907
000210 50 5e 9c bc 49 c8 0b bd 4a 97 8b 3c c2 90 c2 bd
       -0.01908794 -0.034126554 0.017039914 -0.095002666
000220 97 6d d4 bb ff bb e4 bc 40 00 30 3d 7b 21 f2 3b
       -0.0064827907 -0.027921675 0.04296899 0.007389245
000230 b0 b8 05 3e ce db 05 bd 4c dc 71 3c 16 b1 74 3d
       0.13058734 -0.032680325 0.0147619955 0.059739195
000240 89 b2 e7 3d 10 4d 77 3d 9f dc 54 bc 76 cc 02 bd
       0.1131335 0.060376227 -0.012992053 -0.03193327
000250 32 cf 64 bc 8e 0b 05 3e 4b 51 01 bd 96 14 ac 3e
       -0.013965415 0.12992689 -0.031571668 0.33609456
000260 69 81 f3 ba eb 3d 3a 3b 2a fc 18 3d 37 f5 3d 3c
       -0.0018577996 0.0028418254 0.037349857 0.011594108
000270 cc 72 c1 3d 1a 60 cc b9 a9 77 a4 3c 7a c8 96 bc
       0.09445724 -0.00038981513 0.02007659 -0.018406142
000280 33 0a fc bb 75 07 2d 3d 91 d8 28 3d b1 29 1f 3d
       -0.0076916455 0.04224344 0.04122216 0.03885812
000290 43 ac d6 3d 3f 70 71 bc a1 06 90 3d fc 18 02 3e
       0.10482075 -0.014736234 0.07032514 0.12704843
0002a0 f1 b1 12 3d 46 71 2e be 88 05 9f 3d 03 d9 97 3c
       0.03581423 -0.17035398 0.07764727 0.018536096
0002b0 cc 52 03 3d 79 b3 93 bd a8 44 55 bd 38 25 f0 bc
       0.032061383 -0.07211966 -0.05206743 -0.029314622
0002c0 db b5 37 bc 5b df 12 bd d7 9c c7 3c 60 79 b3 3d
       -0.011212791 -0.03585754 0.02436678 0.08763385
0002d0 41 1d b0 bd 2c c4 ce 3d 90 4e 24 bd 2f 62 70 be
       -0.0859933 0.100960106 -0.040113986 -0.23474954
0002e0 e9 67 ae bd 93 2f 32 bd 4e dc c9 3d 92 e9 d7 bc
       -0.08515913 -0.0435024 0.09856473 -0.026356492
0002f0 d7 f4 26 be 0b b9 09 3e c4 94 c9 3d ab 6a ac 3d
       -0.16304336 0.13449495 0.09842828 0.08418783
000300 a2 47 c0 3c 56 ee f3 bd 3c 33 af bd 8e ce 91 3c
       0.023471657 -0.11910693 -0.08554694 0.017798688
000310 e5 42 db 3c c3 b0 68 3d 0f 1f eb bd 24 5e 84 3c
       0.026765296 0.056809198 -0.11480533 0.016158171
000320 0e 73 2e 3c dd 22 ce bd eb 0e 6f 3d 8e 09 17 bd
       0.010647548 -0.100652434 0.058363836 -0.036874346
000330 02 9f cd 3b 35 dd ae 3d d8 7c 1a 3e ac eb b8 3b
       0.0062750587 0.08538286 0.15086687 0.0056433287
000340 ce df 5b bd 02 3b e1 bc 3d e5 0f 3e 15 71 bc 3c
       -0.053680234 -0.027493957 0.14052291 0.02300314
000350 f6 fa a2 bd e9 69 3f 3d e9 18 03 be b3 8c e5 bd
       -0.07958023 0.046731863 -0.12802471 -0.11208477
000360 82 e5 53 3e 16 70 d2 3d 77 57 43 bd 06 93 47 3d
       0.20693019 0.10275285 -0.047690835 0.048724197
000370 9d c0 fc 3d e6 8a 94 bd dc 05 08 3d 8e c0 c1 bc
       0.123414256 -0.07253055 0.033208713 -0.023651388
000380 04 1b 09 bc 47 0c cf 3d bc 2d 3e 3e 99 e8 46 bd
       -0.008368257 0.101097636 0.18572134 -0.048561666
000390 e5 27 a0 bd 00 d0 d7 bb 4a ba 0c 3d 0c 4e c1 3c
       -0.07820109 -0.006586075 0.034357347 0.023596786
0003a0 9a 9c 48 bd af f6 75 be 3f 28 f1 bb d7 91 db bc
       -0.048977472 -0.24019884 -0.007359534 -0.02680294
0003b0 0b da 0e be 3d aa 0f bc 5d 8c 64 bd 18 aa 15 bd
       -0.13950364 -0.008768615 -0.055797923 -0.036539167
0003c0 28 7b 3f bc 70 3e df 3c 28 fb cc 3c 52 78 de 3d
       -0.011687078 0.027251452 0.025022104 0.10862793
0003d0 cc 15 9b bc 1e b4 14 bd e4 93 98 bc 60 1f de bb
       -0.018931292 -0.036304586 -0.018625207 -0.0067786425
0003e0 c3 17 8a 3c dd 9e 07 bd 83 48 a6 3c 91 44 ed bb
       0.016857034 -0.03311049 0.020298248 -0.00724084
0003f0 dd cc 1f bc bc ac c5 bb 1b 88 05 3c 13 3b f9 3c
       -0.009753433 -0.0060325544 0.008150126 0.030423677

l2.bias f4 [10]
000000 9c d3 7f 3c a1 57 3c be 52 9a 0d 3d f2 7d d0 3d
       0.015614416 -0.18392803 0.034571 0.10180272
000010 d8 18 f6 3e be 98 d9 bd 99 d0 69 3c af 0d c4 bd
       0.4806583 -0.106248364 0.014270925 -0.095729224
000020 1f 6f 81 3d ca 85 82 be
       0.06320023 -0.25492698
