saved_CNN_small.pt (torch, 613800 bytes, 10 tensors)

c1.weight f4 [64, 3, 3, 3]
00000000: 80bb 41be 0e6b bd3d 3e8a c43c 9439 87bd
00000010: 4a47 65be a2e5 ffbd 8210 1b3e bf06 b2bd
00000020: 9950 783e 9c30 18be 2b46 9c3b 1a72 64be
00000030: a162 5a3d cf2f 143e fbd0 27be 99a0 693e
00000040: dbf9 953e eb02 1b3e c48c e0bd 5d66 20be
00000050: fd45 2abe 9e03 93bc 112a 35be 9f18 04be
00000060: f620 003c f192 893e c4c4 783e c314 d73d
00000070: 38d1 5c3d 6799 13be 81e1 2ebe 9a3f 013e
00000080: cf5a bcbd cab5 90bd 875d bb3d 3ac6 523d
00000090: 7922 c8bd 2854 003e 0b76 fcbd b80a 3f3d
000000a0: 1be4 123d 07d0 babc 5a8a 9cba 83a0 303c
000000b0: e984 c63d 2580 ea3d 3fc7 763e e515 4c3e
000000c0: a41e 523e c6da 633e 966c 523e d175 883e
000000d0: af82 da3d cdb8 bebc a675 e23d 91c3 293c
000000e0: 8aba c53d d26c 3b3d eb52 b5bc 3856 4dbe
000000f0: ce3b 76bd 4c10 55bd 8bf4 b5bd 5da1 c6bd
00000100: 834d 133e 66c2 fa3c f26c 883e ebb2 373e
00000110: 25de e5bc 97d7 8a3e 6b70 413d 4442 dabd
00000120: 2097 2b3e 22ba 30be c7a1 a23d 8f67 6d3d
00000130: b2b0 00be 1f3e 08bc 9444 2bbb dc2e 0cbe
00000140: 8c08 68be 0302 cb3d 805c 433e aadc 6f3d
00000150: f0cf bfbd 4147 3b3e 63bc b23d 3e93 9dbc
00000160: 2765 3e3e 414f 373e 356b 47be 4b44 63be
00000170: 2eb6 82bb dc3a 453a 5dc2 dfbd cd73 5a3d
00000180: 4f96 41be 06c7 22be bc69 433b 2689 4ebd
00000190: 9909 033e c488 d5bc c5e5 5e3d b73f a1bd
000001a0: 5aca 9cbd e470 033d 1267 83bd 3d2b 0e3c
000001b0: 00fd 09be fef3 a8be 965a 79be 184d 84be
000001c0: 967c d33c a176 8bbe 7d0a cdbd 6482 3dbe
000001d0: 7d3b 0cbd 9d22 bdbd 37eb b93d 45fe 5539
000001e0: 8859 acbd 6002 c2bd 6ff5 9e3d 5249 193e
000001f0: 9aa8 a83c f1e6 9b3d 1afc c5bd ded7 a63d
00000200: b3c0 e53d 5459 9a3e bcb8 1c3e 8050 fa3b
00000210: 5d10 963e c65c 193e 17de 903e 7bea 483e
00000220: 4604 243d 8841 75bd 9306 353e 9d38 8f3d
00000230: 004c 283e afea 163e 9916 09be b2b4 05be
00000240: 215f 9fbd 7f84 efbd e742 603b 40f8 15bc
00000250: b829 ae3d 64d0 b93c e59e 323e 14d0 193e
00000260: 5a2e 0c3e f56e d83c 3e59 9a3d 2f6a cabd
00000270: a9ec c73d 197e 773d b326 463e 59b5 f53d
00000280: 1d46 a63d 0d04 07be 5753 473d 2adb 063d
00000290: 10d6 013e 6bb5 443c e202 5ebe 29f2 8e3d
000002a0: b757 7fbe 566e 0abe 1f98 19be ba5f ec3d
000002b0: 2f22 b73d ae7f 173d aefa 0bbe ee2e acbc
000002c0: 15d0 fa3d 5168 2abd 5846 c13d d91b 7cbd
000002d0: 1234 443e 1348 c6bc 8859 39bd 57ee 573e
000002e0: f104 ca3d 438c 8f3d ec86 663e aa02 a13a
000002f0: c59d 343e d230 07be c1f2 a13d 10b7 09be
00000300: 6d73 c1bd a10b 0bbe f4b2 b7bd 38db 103e
00000310: cd71 a5bd d129 e6bd 9c13 5fbd 26c6 59be
00000320: 26dd 3fbe 1e7d 31be d2a6 4cbe b8d4 85be
00000330: 226c 5dbd 6244 273e f42a d6bc 5118 b23d
00000340: 5bbd 903d 706e 093e 2ab6 55bc c698 c0bd
00000350: 9526 303e 59d9 0e3e c17c 48bd eda4 b9bd
00000360: 990c 4b3d ea2d bbbd d10f 0ebc 8e64 cc3d
00000370: 4ce0 babc 8ea9 3d3e 6734 0cbe ccb4 b6bd
00000380: 90ba 183e 85d5 503d 9b43 df3c e0a3 32be
00000390: 5bd0 973d 1c73 3d3e a506 093e 7c7d 2c3e
000003a0: a753 323e 71cd e9bd 2d32 3cbe 002e 28be
000003b0: 2e8a 1e3e f82a c8bd f057 87bd be6c b9bd
000003c0: f1a4 513e 4937 e83d 8540 903d 4063 ef3d
000003d0: bcad ce3d a94e 203e 4781 ad3d f1e7 54be
000003e0: b73d 9abd b353 21be 7079 2bbe 4e87 44be
000003f0: 6fb6 2a3d 42e1 013e 877e 1a3e 349d 21be
-0.18919182 0.09248935 0.0239917 -0.06602779 -0.22390476 -0.12494971 0.15143016 -0.08692693
0.24249496 -0.14862293 0.004769107 -0.22309151 0.053316716 0.14471363 -0.16388313 0.2281517
0.29292187 0.15137832 -0.10964349 -0.15664048 -0.16628261 -0.01794606 -0.17691828 -0.12900017
0.0078203585 0.2686992 0.2429381 0.10502007 0.053910464 -0.14413987 -0.1707821 0.12621918
-0.09197008 -0.070659235 0.09148698 0.051458575 -0.097722 0.12532103 -0.123272024 0.04664108
0.03586207 -0.022804273 -0.0011943087 0.0107804565 0.09693319 0.11450223 0.24099444 0.19930227
0.20519501 0.22251424 0.20549235 0.26652387 0.10669457 -0.02328148 0.11057596 0.010361568
0.0965472 0.045758076 -0.022134265 -0.20052421 -0.060115628 -0.052017495 -0.088845335 -0.09698746
0.14385037 0.030610275 0.2664562 0.17939346 -0.028060028 0.27117607 0.04722635 -0.106571704
0.16756868 -0.17258504 0.07941013 0.05796009 -0.12567404 -0.008315592 -0.0026133405 -0.1368975
-0.2265951 0.09912493 0.19078255 0.05856005 -0.09365833 0.182889 0.08727338 -0.01923525
0.18593274 0.17901327 -0.1947449 -0.2219402 -0.0039890027 0.00075237243 -0.10925744 0.053333092
-0.18904994 -0.15896234 0.0029817661 -0.050423764 0.1279663 -0.026066191 0.054418344 -0.07873481
-0.07655783 0.032090083 -0.064161435 0.008677301 -0.13475418 -0.3299865 -0.24350962 -0.25840068
0.025816243 -0.27238944 -0.10011766 -0.18506771 -0.03423642 -0.092351176 0.09078067 0.00020407986
-0.08415514 -0.09473109 0.077616565 0.14969376 0.020588208 0.07612408 -0.09667225 0.08146642
0.11218395 0.30146277 0.15304846 0.007638991 0.2930936 0.14976797 0.2829444 0.19620697
0.040043138 -0.05987695 0.17678289 0.0699322 0.16435242 0.14737962 -0.13387527 -0.13057211
-0.07781816 -0.116951935 0.0034219564 -0.009153426 0.08504051 0.022682376 0.17443426 0.15020782
0.13689557 0.026420096 0.07536553 -0.09883534 0.09761936 0.06042299 0.193507 0.1199748
0.08118842 -0.13185139 0.048663463 0.032923855 0.12679315 0.012006144 -0.21680787 0.06979782
-0.24935804 -0.13518652 -0.14999436 0.11541696 0.08942067 0.036987 -0.13669845 -0.021018472
0.1224672 -0.04160339 0.09437245 -0.061549995 0.19160488 -0.02420429 -0.0452514 0.21087013
0.09864224 0.07009175 0.22512406 0.0012284119 0.1763831 -0.13202217 0.0790763 -0.13448739
-0.09445844 -0.13578655 -0.089696795 0.14146125 -0.080783464 -0.112384446 -0.05446206 -0.21266994
-0.18736705 -0.17332885 -0.19985512 -0.26138854 -0.0540582 0.1633468 -0.026143529 0.08696044
0.07067367 0.13421035 -0.01304392 -0.09404139 0.17202218 0.13950099 -0.0489471 -0.0906466
0.04957256 -0.09139617 -0.008670763 0.09980117 -0.022812031 0.18521711 -0.13691865 -0.08921203
0.14914918 0.050984878 0.027253916 -0.17445326 0.074127875 0.18500942 0.13381441 0.16844743
0.17414723 -0.11416138 -0.18378516 -0.16423798 0.15482399 -0.09773821 -0.066085696 -0.09053944
0.20473076 0.1133867 0.07043556 0.11688852 0.10091731 0.15655006 0.08471923 -0.20791604
-0.075313024 -0.15754585 -0.16745543 -0.1919224 0.04167789 0.12683585 0.15087329 -0.15782624

c1.bias f4 [64]
00000000: 89d6 4b3c b587 6a3d 9526 ae3c 93f7 c83d
00000010: 9dad 333e 5173 50be 6b82 1c3e 1f45 113e
00000020: a149 91bd 1915 123b b896 9abd cfc6 e2bb
00000030: e9ce acbb a4d7 813e 8395 0f3d cc30 40be
00000040: 8568 a83d 6195 e03d a6c1 b4bd 6fa7 23bd
00000050: 5cf0 22be 0ab1 22be b811 c8bd c4ca a8bd
00000060: 4a7e 803d bfd0 78bd b5e5 d5bd 5722 bb3d
00000070: c888 253d 337d 3d3d faf5 4e3e c825 c83d
00000080: 6565 f3bb e527 3b3e ab51 b9bc 3cba 833e
00000090: 1b9e abbb 0ace a5bd a609 d13c b4f1 463d
000000a0: 87f9 21be 8415 c0bd c60e 6abe c6d9 093d
000000b0: 05d8 96bd d4fa 18be fa5a 093e bad8 bdbd
000000c0: a567 6ebe 5bd5 f03d 8a88 71be 1d58 5b3e
000000d0: 87fc 41be 0b7d 0a3e 99cc 46be 476b 33be
000000e0: 2890 913e 8b18 493d 92e6 423e 6582 6fbb
000000f0: 9b49 21be d6ff 823e e633 02be 2cc9 543e
0.012441286 0.057258327 0.021258632 0.09812846 0.17546697 -0.2035649 0.15284126 0.14186524
-0.07094122 0.0022290407 -0.075482786 -0.0069206725 -0.005273689 0.25359833 0.035054695 -0.18768615
0.082230605 0.10965992 -0.08825998 -0.0399546 -0.15912002 -0.15887848 -0.097690046 -0.082417995
0.06274088 -0.06074595 -0.10444204 0.09137409 0.040413648 0.046261977 0.2021102 0.09772831
-0.0074278587 0.18276937 -0.02262195 0.25728023 -0.0052373535 -0.080959395 0.025517296 0.04857035
-0.15817843 -0.09379104 -0.22857198 0.03365495 -0.07365421 -0.14939433 0.13413611 -0.09269853
-0.23281725 0.11759444 -0.23587242 0.21420331 -0.18943988 0.13524263 -0.19413985 -0.17521392
0.28430295 0.04909567 0.19033268 -0.0036546227 -0.15750735 0.25585812 -0.1271511 0.20779866

c2.weight f4 [64, 64, 3, 3]
00000000: 95b8 943c 5894 27bd 5c64 f2bc 7aea 49bd
00000010: e560 953c 4ce8 f6bc da70 903d 5965 bc3d
00000020: 7d8a 2e3d b2e3 763d 5426 b839 f1bc 9a3c
00000030: d2fe 63bc 8c2a 6cbc 9c3e 973c 6c5c 9dbb
00000040: 6276 65bb fd60 4c3d b394 053c e743 08bb
00000050: 402c c03b 6b16 61bd b6d3 44bd 85a0 1fbc
00000060: 41d0 85bd 6452 373b 0dc7 b3bc 5a67 b3bc
00000070: 898b ab3c f6a0 aa3c 7d55 a2bb 1a4c 233d
00000080: 5b23 a0bc 7087 313d 6256 1f3d 87c1 0e3c
00000090: 84e2 263d 143b cfbb 6306 403c fc9b bdbc
000000a0: 6416 0e3c 1d0b 433c c800 bd3c 886c 3a3d
000000b0: 88e6 ab3c 2640 58bc 2526 52bc cf07 66bc
000000c0: 9ff5 31bd 5f0d aa3c ef19 45bc 4209 013c
000000d0: 63e3 303d 015c 80bc 9df3 5f3c c6e5 063d
000000e0: 9212 7d3c d15a 383c f77c 2e37 94ff eebc
000000f0: 8582 17bd 0664 5ebc e4a7 f13c f80f 8fbc
00000100: 2a63 d4bc 0ccf e53c 5ed6 1d3d cd5b a5bc
00000110: f591 c83c 696b aebb df13 62bc 101b 1e3d
00000120: f104 da3a 9ab3 3abc c19f 28bc 1575 9eb9
00000130: bb0f 2dbd 9851 2bbd 4e3b 623d dd4a 863d
00000140: 2d96 3c3d b1b8 253c 27f3 61bb 2b1d 08bd
00000150: 9585 6f3b 554d 2cbd ffa9 943b e172 5a3c
00000160: a55b c0bb daa2 b2bc ba9b e73c 7006 2dbd
00000170: 515d cb3c de40 0bbc a353 093d 13ed 89bc
00000180: 4a8b f23c dc94 523d ab58 5f3d 8aef a03a
00000190: 8591 c73c 9f4d c6ba f048 813c 58bc 64bd
000001a0: 5a28 10bd 127b a1bc 93ba 883c 3073 c83c
000001b0: 506d 0fbd 9781 23bd 13b9 a4bc a33c 303c
000001c0: 0c42 ef3a 5e0a 58ba 80c8 95bc 5772 14bd
000001d0: 3866 42bd 5c46 be3a 0386 94bd 28ac 19bd
000001e0: 253a b7bc 94e3 c6bd e4eb babc ee38 5bbd
000001f0: cd62 4ebd 7165 8aba 8299 f4bc 7523 54bd
00000200: 709b ffbb 6427 a6bc 4c15 b53c f220 8e3c
00000210: 0541 d43c d367 e4bc 6354 003d c22c 1d3d
00000220: 64b3 22bd 6c4c 963c fb01 62bc 1551 8cbc
00000230: 91a8 fabc 3923 4a3d 4f2a 383d cf29 be3c
00000240: 8cfc b53c 06b7 363c e4e4 d23b 1f41 343c
00000250: aba7 463c d0fd 4dbd 4a36 113b c1c9 c23c
00000260: 0088 c33c 7333 09bd a505 963b 50ad 8dbc
00000270: 48f8 c33c c7bd 4ebd 9d43 f7bc b142 d03c
00000280: 3a3b b73d e804 613d 9d24 d23c 3a1c 09bc
00000290: 6cb0 e5bb f83a aebc 0208 19bd 95da 9f3c
000002a0: eddc f1bc 4a7a fabc fa4c 843c b488 00bb
000002b0: d824 3fbd 202a df3b a957 e93c b0b6 26bb
000002c0: 2884 61bd 62dc d03b 5aa2 56bc bee6 d8bc
000002d0: bdfb d7bc 7ca8 6fba b66d 4cbc ba60 d1bc
000002e0: b1de 943c f2e7 4a3d 150e 133c 1a3c 5bbc
000002f0: d5e2 d5bc eaaf 373d f0fa 0c3d ce7d abbc
00000300: 06be 723c 395d dabc 517d 91bc d473 d63c
00000310: c5db 0c3d bb1c 943d 9fa7 b0bc 7088 823c
00000320: de59 4fbd b5c0 f5bc fe95 bd3c 0147 f9bc
00000330: 5875 743d d028 a43d 18b4 293d 0689 74bc
00000340: efab f9bb c83a 253c 7e94 e4bc 4235 443c
00000350: 1fc1 1cbd 631d 7fbc 0d8d b43c 000e 1bbd
00000360: f80c 37bd 97eb 49bd f688 11bd ad0c 463b
00000370: c994 98bd 20c4 20bd 22ab 15bd 87c7 8ebc
00000380: 5af2 42bd 6d7d a03b 1250 e73c 79bb 433d
00000390: 73e0 0f3d 55c4 aa3c e281 3d3c 4680 bb3c
000003a0: f685 f83c 4617 1c3d ff2b 6abc c011 0b3d
000003b0: f45f 173d 52d8 053d be43 263b 595e 023d
000003c0: b777 cd3b 712e b6bc ae32 9fbc a4bf 96bc
000003d0: c818 01bd b589 1a3d acf9 94bb 1c83 533c
000003e0: a098 77ba 6b0e 153d 378d 283d 0567 4c3b
000003f0: 3b20 0fbd e1ab d9bc 1a0b 14bd c920 0a3c
0.018154422 -0.040912956 -0.02958887 -0.04929588 0.01823468 -0.030140065 0.07052775 0.09199018
0.04261254 0.06027574 0.00035123772 0.018888922 -0.013915734 -0.014414441 0.018462472 -0.0048022773
-0.0035013189 0.049897183 0.008153128 -0.0020792426 0.00586465 -0.05495302 -0.048053466 -0.009742861
-0.06533862 0.0027972693 -0.0219455 -0.021899868 0.020940559 0.020828705 -0.0049540387 0.039867498
-0.019548109 0.043342054 0.03890074 0.008713133 0.040743366 -0.0063241813 0.011720273 -0.023145668
0.0086723305 0.011904505 0.023071662 0.04551366 0.02098395 -0.013198888 -0.012826477 -0.014039948
-0.043447133 0.020758329 -0.012030109 0.007875742 0.043185603 -0.01566887 0.013668922 0.032933973
0.015446322 0.011252121 1.0400304e-05 -0.029174604 -0.036989707 -0.013573652 0.029499002 -0.01746367
-0.025926191 0.02805283 0.038534515 -0.020185376 0.02448366 -0.005322863 -0.013798683 0.038600028
0.0016633553 -0.011395359 -0.010291995 -0.0003022334 -0.04225133 -0.04182586 0.05523234 0.06557248
0.046041656 0.010114835 -0.0034477205 -0.03323094 0.0036548127 -0.042065937 0.0045368667 0.013333053
-0.0058703 -0.02180617 0.028272498 -0.042242467 0.02482477 -0.008499352 0.033527028 -0.016836679
0.029607434 0.051411495 0.05452792 0.001227842 0.024361381 -0.0015129334 0.01578185 -0.05584368
-0.035194732 -0.019712005 0.016690528 0.024468988 -0.035016358 -0.03991851 -0.020107782 0.010756644
0.0018253936 -0.0008241291 -0.018284082 -0.036241855 -0.047460765 0.0014516818 -0.07252123 -0.037517697
-0.022366593 -0.09711376 -0.02281756 -0.05352109 -0.050387193 -0.0010558796 -0.029858354 -0.051791627
-0.007800512 -0.020282455 0.022104882 0.017349694 0.02590991 -0.027881538 0.031330477 0.038372763
-0.03972186 0.018346988 -0.0137944175 -0.017128507 -0.030597957 0.049349997 0.044962224 0.023213295
0.02221515 0.011152035 0.0064359773 0.011001854 0.012124936 -0.050290883 0.0022157603 0.023777844
0.02386856 -0.03349633 0.0045783096 -0.017294556 0.0239221 -0.050473955 -0.030183608 0.025422426
0.089468434 0.05493632 0.025652224 -0.008368546 -0.0070095565 -0.021268353 -0.037361152 0.019513408
-0.029524291 -0.03057589 0.016149987 -0.0019612731 -0.046665996 0.0068104416 0.028484182 -0.002543848
-0.055057675 0.006373928 -0.013100231 -0.026477214 -0.026365155 -0.00091422326 -0.012477329 -0.025558818
0.018172594 0.049537607 0.008975525 -0.013381029 -0.026109139 0.0448455 0.034419 -0.020934012
0.014815813 -0.02665578 -0.01775995 0.026178278 0.034389276 0.072320424 -0.021564303 0.0159342
-0.050622813 -0.029999116 0.02314281 -0.030429365 0.05968222 0.08015597 0.041431516 -0.014925247
-0.007619373 0.010084815 -0.027902838 0.011975588 -0.038270112 -0.015570971 0.022039915 -0.03785515
-0.044690102 -0.04929694 -0.035531007 0.0030219958 -0.074502535 -0.03924954 -0.036540158 -0.017429126
-0.047594406 0.0048977644 0.028236423 0.04778621 0.03512616 0.020845572 0.011566611 0.022888314
0.030337315 0.038108133 -0.014292716 0.033952475 0.036956742 0.032677002 0.0025369967 0.03182826
0.0062703746 -0.022238942 -0.019433346 -0.018401928 -0.031517774 0.037728984 -0.004546365 0.012909677
-0.0009445045 0.036390703 0.041150298 0.0031189334 -0.034942847 -0.026571216 -0.0361434 0.008430668

c2.bias f4 [64]
00000000: 2d41 44bd 6e12 923d b4b0 623c ce64 913d
00000010: 5177 b33d 2562 d3bd edf2 e53d 00c6 4f3c
00000020: 68ba 373d fa6e 053d c616 82bd 8c13 343c
00000030: b2d9 22bc c672 fbbc 8ada 57bd fb76 0d3e
00000040: 3f59 3dbd c6bb e6bc a2b9 72bd 39d8 9b3d
00000050: a4d1 a73b ea19 7e3d 9280 573a e9dd 35be
00000060: 8db7 50bd 4fd9 70bd 31c5 a03d 51d2 34bc
00000070: 0683 2b3d d95e 12be b7b1 38bd f1cd cbbc
00000080: 5d7c 9abd 94e9 f6bc b34c 743d 4d0c dfbb
00000090: 6956 d6ba 5060 ab3d 7b49 0ebe ee8f 973b
000000a0: 0af9 d23d 3d60 e1bc 90b8 49bc d9f2 48bd
000000b0: 1570 1dbd c7c2 bbbc 2cdd 153d ef8b 7c3d
000000c0: e949 44bd 9b0c b0bd de2f eebc ee90 c0bd
000000d0: 38ff 3ebc 3b01 6abd ba03 4abb 453d ef3d
000000e0: 181d f5bd f2a2 e63d 2322 3ebd 9f92 aa3c
000000f0: 8790 8bbd 2ad3 87bd ff3b 57bd 77c7 c8bd
-0.04791372 0.071324214 0.013836075 0.07099305 0.08762992 -0.10321454 0.11227975 0.012681484
0.044855505 0.03257654 -0.06352 0.010990988 -0.009939598 -0.030694377 -0.05269865 0.13814919
-0.04622769 -0.02816571 -0.059259064 0.076096006 0.0051214267 0.062036432 0.00082207576 -0.17760433
-0.050956298 -0.05880099 0.07850111 -0.011036471 0.041873 -0.14293994 -0.045091357 -0.024878474
-0.07543252 -0.030140676 0.05964346 -0.0068068863 -0.0016352657 0.083679795 -0.13895218 0.004625312
0.10301407 -0.02751171 -0.01231207 -0.049059723 -0.038436968 -0.022920026 0.03658788 0.06165689
-0.04792205 -0.08596154 -0.02907556 -0.09402643 -0.011657529 -0.05713008 -0.0030824975 0.11681608
-0.1196844 0.11261548 -0.046419274 0.020821868 -0.06814676 -0.06632073 -0.05254745 -0.0980367

c3.weight f4 [64, 64, 3, 3]
00000000: 60cf a3bc 5a5c 28bd 6c99 1e3d 10ce aa3b
00000010: 6e2f c33b a2ba b6bc 7a60 603d 3e37 8cbb
00000020: e75a 17bd c42c ab3c ae3d 073d 7d4f ec3b
00000030: 85aa 4a3c c71f 98bb 26dd 40bc fe1a 103d
00000040: e6a9 fbbb 9e0e 1abd 46b4 a33c b772 053d
00000050: ca60 d03b 5a77 c9bc ac64 753c e15b 71bc
00000060: fbb9 c53c c562 38bd 42db 85bc e700 5dbd
00000070: 612a e9bc 23ca 033b e5d3 203b d39b 13bd
00000080: 94ed 26bd 057d 2bbd 78ff 9bbc e617 94bc
00000090: a48f 81bc 0ec1 84bc 703f 333c 7fec 1cbd
000000a0: 95fb 113d b87d 54bd f481 4cbd 0d3a 14bd
000000b0: dc63 863c 2f04 53bb 513d 063d 1682 de3c
000000c0: 94f1 e53c 8864 bfbb dc91 5a3c d16d bcbc
000000d0: 562b 443c 708f 6bbc 11ef ffbb 680f 6cbc
000000e0: 1af3 1abd 34f4 673b 593f fbbc b54b 883c
000000f0: 5972 573c 34c1 c0bb a84e 17bd 40df 9dbc
00000100: 99ef 033c d353 28bd db95 14bd 79e7 d4bc
00000110: e63e 06bd 982d c23c fba7 e9bc c71d 8abc
00000120: 9fb7 5dbc ce2f c9bc 599a 893c 703a 4bbc
00000130: 85e7 f2bc 4521 103d 09f0 44bc 3bfe ba3c
00000140: b51b b83c 876b 2439 5d31 313c 0b2e ffbc
00000150: d0ac 1cbd 15ec 92bc 40b2 cc3c 62c1 bebc
00000160: 15da aabc 98c1 ef3c 1d98 1dbb ca6c b13c
00000170: b6d9 46bc e341 b4bc 9913 183d 485f 0e3d
00000180: d470 603c ca27 9fbc d4b7 09bd 9d67 28bd
00000190: 3b62 16bd 6459 8fbc 04ec fa3c 2875 963c
000001a0: 0805 113c b708 a03d dd0a 71bb 075d 2bbd
000001b0: 3543 51bc 408d eebc 17ed abbc 234c 7f3c
000001c0: f13d 033d 7f0d 20bd 9318 97bc 1c38 033d
000001d0: 1c54 c63c c6bc e33c 86a9 3ebd 016f 823c
000001e0: 6cde 04bd 6131 4fbc 7afb b63c ea5b 993d
000001f0: e8f4 383d 0947 c3b9 6b0f 01bc c799 e43c
00000200: d9a5 1dbc 44e7 713c c6c5 f13c 5008 27bd
00000210: 2846 d73c fa0a 223d 422c e93c 425e 48bb
00000220: 7758 55bd bd3b 09bd 788b 063d 1256 a23c
00000230: e2ad c63c f2ee 403c e4c4 213c 80c8 033a
00000240: 771d c33c 00ef d3ba aec1 67bc 75a6 dfbc
00000250: 0e0a 32bd e7fe 80bc 5511 093c ac83 2c3c
00000260: 3a6c 2bbd 78d9 08bd 2782 9fbb 0f51 093d
00000270: c24f 87bd 0ccb 81bb 8a58 08bd 6c35 993d
00000280: 5a89 423d 4cc1 f03b 0fad 5fbb 4057 153d
00000290: 42c7 8cbb 3938 a3bc 385f bfbb 295c 99bc
000002a0: 4902 cbbc fbed 0dbc fcbc 2fbd c42f 2ebc
000002b0: fd4f 0b3b 7e2a 1f3c 29f5 9e3c e711 293c
000002c0: 922c c73a 3598 853d eb62 bd3c caa4 34bd
000002d0: a693 3d3c 0bda a3bc fbf1 793b 3feb 89bb
000002e0: 2aa6 02bd 2a5d 54bd f211 49bd bfd8 5d3c
000002f0: b762 5fbc 1da7 28bd 08eb c13c fb4f 45bc
00000300: 0e99 003d 0dfe 12bd 8e8f 6b39 3df0 58bd
00000310: 5ab0 65bd 72fe 72bc c635 10bc ba24 1b3d
00000320: b47d febc 7c11 a1b5 5e32 a53c 966e 97bc
00000330: a2de b0bb 1819 9cbc 131c 613b 55e2 6b3c
00000340: 5649 7fbc 274f 1d3d c2d2 08bd 2b9c 313c
00000350: 5881 acbc 662d 433d 13fd 673d bc3e 07bd
00000360: 5942 a2bc 216a deba f93e 0abd 1522 203d
00000370: 4cde ae3c 81b2 b83c 2393 993d 6b35 12bb
00000380: b6c9 c1bc ae41 0bbd 7fcc b53c f311 133d
00000390: aa76 f8bc efa9 d5bc d613 02bc 1fa8 163d
000003a0: 8cce e8bc 9691 02bd e7c9 c1bc 187b d3bc
000003b0: 35b9 47bc b6d8 e23c 5aaf 993b 5765 e6bb
000003c0: 27cd 223c 0e60 ad3d 46ee f7bc cd60 113d
000003d0: 79f3 aebc 8384 69bc 443c b23c 9332 22bd
000003e0: b3d8 6e3c 17d8 c4bc bc94 d5bb 613e 123d
000003f0: bd0e 0d3d 6f3d 0d3b e040 1abd 0f2e 0e3c
-0.019996345 -0.0411037 0.038720533 0.005212553 0.005956582 -0.02230579 0.054779507 -0.0042790463
-0.036951926 0.02089537 0.033017807 0.007211624 0.012369757 -0.00464246 -0.011771476 0.03518199
-0.0076801656 -0.037611596 0.019983422 0.032580104 0.0063591944 -0.024593044 0.014977615 -0.014731378
0.024136534 -0.04501607 -0.016339902 -0.05395594 -0.02846259 0.0020109497 0.0024540361 -0.036037277
-0.040753916 -0.041867275 -0.019042715 -0.018077802 -0.015815563 -0.016205337 0.010940418 -0.038311478
0.035640318 -0.051877707 -0.04992862 -0.036188174 0.016405039 -0.0032198539 0.03277332 0.02716164
0.028069295 -0.0058408417 0.01334044 -0.023001583 0.011973223 -0.01437746 -0.0078104814 -0.01440797
-0.037829496 0.003539336 -0.030669855 0.016637662 0.013149821 -0.0058824066 -0.036940247 -0.019271493
0.00805273 -0.041095566 -0.036275726 -0.025989281 -0.03277483 0.023703381 -0.028522482 -0.016859902
-0.013532548 -0.024558928 0.016797232 -0.012404069 -0.029651413 0.03518798 -0.0120201195 0.022826305
0.02247415 0.00015680316 0.010814992 -0.031149885 -0.038250744 -0.017934838 0.02498734 -0.023285571
-0.020855943 0.029267117 -0.0024046965 0.02165832 -0.012136867 -0.022004073 0.037128065 0.034758836
0.013698775 -0.019428153 -0.033622578 -0.04111444 -0.036714774 -0.01749868 0.03063012 0.018366411
0.008851297 0.07814162 -0.0036780157 -0.041836765 -0.012772371 -0.029120088 -0.020987077 0.015582117
0.032041494 -0.03907537 -0.018444335 0.032035932 0.024210028 0.027799975 -0.04654839 0.015922071
-0.03243868 -0.01264605 0.02233671 0.07488234 0.045155436 -0.00037246224 -0.007877211 0.027905358
-0.009622061 0.014764611 0.029513251 -0.04077941 0.02627857 0.03956125 0.028463487 -0.003057376
-0.05208632 -0.033504236 0.03284785 0.019816432 0.024252836 0.011775719 0.009873603 0.000502713
0.02381776 -0.001616925 -0.014145298 -0.027301053 -0.04346662 -0.015746547 0.008365949 0.01052944
-0.04185126 -0.03341052 -0.0048678103 0.03352457 -0.066070095 -0.0039609727 -0.033287562 0.074808925
0.04749427 0.0073472615 -0.003413025 0.03646016 -0.0042962143 -0.01992427 -0.0058402084 -0.018720703
-0.024781363 -0.008662696 -0.04290484 -0.010631505 0.0021257394 0.009714721 0.01940401 0.01031921
0.0015195778 0.06523172 0.023118457 -0.044102468 0.011570847 -0.020001432 0.0038138616 -0.0042089517
-0.031896748 -0.05184666 -0.04908938 0.013540446 -0.013634375 -0.041174997 0.023671642 -0.012042995
0.031395964 -0.035886813 0.00022464825 -0.052963484 -0.056076385 -0.014831172 -0.008801883 0.037876822
-0.0310658 -1.2000523e-06 0.020165619 -0.018485349 -0.0053976336 -0.019054934 0.003434901 0.0143972235
-0.0155814495 0.038405564 -0.03340412 0.010840456 -0.02105777 0.047650717 0.056637835 -0.033018813
-0.019807028 -0.0016968885 -0.03375146 0.039095003 0.021346234 0.022546055 0.07498767 -0.0022309672
-0.023655754 -0.033998184 0.022192238 0.03590579 -0.030330021 -0.026082007 -0.0079393 0.036781427
-0.028418802 -0.031877123 -0.023655845 -0.025815532 -0.012190153 0.027691226 0.004690093 -0.0070311236
0.009936607 0.084655866 -0.030264985 0.035492707 -0.021356331 -0.014252785 0.021757253 -0.039599013
0.014578032 -0.02402882 -0.0065179747 0.03570402 0.034437884 0.002155151 -0.037659526 0.008677973

c3.bias f4 [64]
00000000: 0362 88bc de8a cebd 29e9 9e3d 1384 c7bd
00000010: 6baf a7bd 5b6f ad3d b4af 943d 837b 3f3b
00000020: 0375 b2bd 23a5 a4bd 9ba4 4b3e 7e85 9a3c
00000030: 2f16 7bbd 7882 08bc 7df7 82bc 9891 6dbc
00000040: ee93 6c3d a362 533b 5a28 403d e7af 96bc
00000050: 6bf9 c0bd 7dd5 8bbd e025 c6bc a181 dcbd
00000060: 0b26 053e 09f6 3dbd 7182 8c3b 4d16 20bd
00000070: c6d9 b83c 474f 093e 5938 1abb 424c 40be
00000080: 11d2 1e3d 4c35 b23b 0fa3 79bd 059b a93d
00000090: 1c96 13be 6774 2abe 11ed b6bd 884f 95bd
000000a0: 5969 033c 3cea 26be 5ec6 b43c 2bd1 fc3d
000000b0: 6f34 db3d b77e 80bd 9896 22be 441f 35be
000000c0: 158c b7bd 14e7 a6bd 4390 65bd 123d 883c
000000d0: c657 27be 72b2 a8bd aafc 8bbc 9148 eabc
000000e0: d09f e7bc 0466 0bbd 2bee 33bc b20e dcbc
000000f0: 15e3 e73d 1759 28bc 2d75 cabd 8826 76bc
-0.016648298 -0.100850806 0.077593155 -0.09741988 -0.08187755 0.08468505 0.07260075 0.0029217906
-0.087137245 -0.0803931 0.19887011 0.018862482 -0.061300453 -0.008331887 -0.015987152 -0.014500044
0.057758264 0.0032254837 0.046913482 -0.018394424 -0.09422573 -0.06827829 -0.024187982 -0.10766912
0.13002793 -0.046377216 0.0042880108 -0.039083768 0.02256478 0.13409148 -0.002353212 -0.1877909
0.038774554 0.0054384824 -0.06094652 0.08281521 -0.14412731 -0.16645966 -0.089319356 -0.0729056
0.008020722 -0.16300291 0.022067245 0.12344583 0.1070336 -0.06274169 -0.1587776 -0.17687708
-0.089622654 -0.081495434 -0.05604578 0.016630683 -0.16342077 -0.08237161 -0.017088253 -0.028599055
-0.028274447 -0.034032837 -0.010982077 -0.026862476 0.11322609 -0.010275147 -0.09885631 -0.015023835

l1.weight f4 [1024, 64]
00000000: d5aa 833d 6d30 fbbd b136 f13c 8d3b 913d
00000010: b99a 9ebd 70e0 37bd 067c f5bd 519e 383d
00000020: e140 7abd da2e 60bd 5501 eebd f158 1f3d
00000030: 99f1 3dbd d87e 173d 2188 703d be00 93bd
00000040: b2fd 6d3c 9d3d 67bd f980 adbc 7df7 563c
00000050: 459d d8bd f1ea f3bd 27ad ec3b d6ec d73d
00000060: 00eb 58bc 98af df3d c87b 84bb 2fe5 edbd
00000070: 9151 943d b7b5 41bd 0b3f abbb 56e6 81bd
00000080: b5d5 35bd 22ba 51bc 2a6a b93d a632 983c
00000090: f5f3 8fbb 9f22 d6bd f064 0a3d 638e cabd
000000a0: c519 a93d 4dc9 bf3d a50d b2bd af37 96bd
000000b0: 59c4 283d 8209 adba 5fc4 b13d 1529 39bd
000000c0: c2d7 bd3d d185 3abc ca37 22bd 9fa4 3fbc
000000d0: a2e2 123d b4a7 d33c 8729 233d 4bae 60bd
000000e0: f485 b6bd f4c0 94bc 109b c13d fcd5 ecbd
000000f0: 6d8b 383c 64a6 84bd 34a9 a43d bb28 fa3d
00000100: b030 9c3c f668 adbd 9ab1 40bd 06b0 abbd
00000110: 95b3 47bc 7bb5 c63d 9088 babc 91e6 b33c
00000120: 5d25 da3d bc2b 253d 75de ddbd 73c8 47bd
00000130: 24c0 bbbd 1e4f 0d3d 18e0 ac3d 54f2 b2bd
00000140: a428 85bd a430 9fbd 7151 35bd 51c2 fa3d
00000150: 3a0e d93b 6fa2 333c 1d84 b6bd 6c1f 58bd
00000160: 3a1e ae3d d834 4a3d 6b8e f5bd 80f5 84bd
00000170: 43ef 5fbd 4e11 4ebd b038 593d 31ba 053e
00000180: d951 be3d f292 44bd 6622 adbd 0046 d9bd
00000190: aeda cebd b440 73bd 19e0 e63d aa6c 9a3d
000001a0: b37e 893d 3205 ab3d 1149 15bd 2523 d4bd
000001b0: e0d6 473d ad3e ae3d 007e a4bd 3aca 4d3d
000001c0: 4489 64bc 43cf cf3c 3886 363d 1c7d 03bc
000001d0: 6315 4dbd 45f8 a83d 21e0 b3bd f87a 69bc
000001e0: c24f 9abd 7d9f 093e 17c5 cd3d 7b4b 92bd
000001f0: e579 e53d e82d 93bd 83ae 25bd bad3 1d3d
00000200: a86e 96bd dc0c 80bd faca 2a3c 9dc7 eebd
00000210: d50d b83d cc04 bdbd 0e7f d23d e40e fd3b
00000220: 8b99 bcbc 6bff a43d 7967 b6bb dde3 d9bc
00000230: dd67 f1bd 9afe d4bd 6e7e fbba e93b 443d
00000240: 3ad4 61bd 8dae db3d 192a 2cbd 9ef3 9abd
00000250: 8152 2b3d 5ee6 abbd 8b46 3abc d36a 343d
00000260: 670c 1fbd f077 fd3c 41ba a8bd da61 673d
00000270: f67b 1cbd f3e8 95bb 92a9 a5bd b7d1 d13d
00000280: 3014 87bd 785d 763d c033 7cbd b8eb 9a3d
00000290: d210 da3c 2a01 59bd 720d d23d 829f 04be
000002a0: 1eee ea3d 5a49 053d 7e15 083e e64d 75bd
000002b0: b1cd 9ebd 5f43 76bc 12d0 233d a012 a4bc
000002c0: 1bbe 40bd b408 edbc ecbf fe3c 5a56 e5bd
000002d0: f0fd 81bd 3354 b5bd 1822 ae3c 9a7f 75bc
000002e0: 1d83 e5bd 17c9 5dbd 1863 85bd 072a e93d
000002f0: 7550 ef3d 2774 663d bc89 af3d 9e49 cd3d
00000300: 2054 b83d 898e a3bd f3a8 a33d 82fc d3bd
00000310: c1a0 d4bd 241c 6ebd 390f 7dbd 5be9 123d
00000320: 496f fabd 40cb c6bd d972 d4bd 3f3f d7bd
00000330: 64dc 66bd 12af f5bc 2abf c43d af22 1e3d
00000340: c64b 403d 5598 493d c214 fa3d ff93 f6bd
00000350: 19e3 bc3d ac5a 8f3d 6da3 1cbd c0eb 01bd
00000360: 38af 8cbd 2739 aebd 31e7 c43d 6a69 a5ba
00000370: b0db be3d d8a5 fc3d 00ea 9ebd e0a1 e5b9
00000380: aa6b bd3d 65b3 d93d cd67 e63d ec01 393b
00000390: 5482 f4bd 171a 3e3d 7185 8bbd 0e19 c93c
000003a0: 849f 72bd 3110 753d 4f6c 40bc 33ab e63d
000003b0: 3ae3 533d c344 22bd 0fb2 ddbd 561c f73d
000003c0: be13 acbc 1faa 9b3d b6de 5ebd 92b9 a93d
000003d0: aafe f83d 0584 e23d 60d9 533d 476d 6d3d
000003e0: 6f5e ce3b 354d e4bc bbcc e33d 95e0 86bc
000003f0: 5350 92bd 4afb ed3b a131 e2bd 0bc0 b3bd
0.06429068 -0.12265096 0.029445024 0.070914365 -0.07744355 -0.044891775 -0.11986546 0.045072857
-0.06109703 -0.05473218 -0.11621348 0.03890318 -0.046372984 0.036986202 0.058723573 -0.07177876
0.014525818 -0.056455243 -0.021179663 0.013120529 -0.10576872 -0.11910046 0.00722279 0.1054322
-0.013239622 0.10922164 -0.004043076 -0.11615979 0.0724212 -0.047292437 -0.005226021 -0.06342761
-0.04439326 -0.012800725 0.09053452 0.018578839 -0.0043930956 -0.10455822 0.033787668 -0.09890439
0.08256868 0.09364567 -0.08694009 -0.073348396 0.041202877 -0.0013201686 0.08680033 -0.045205195
0.09269668 -0.011384443 -0.039603986 -0.011696964 0.035860665 0.025836803 0.039834525 -0.05485372
-0.08912268 -0.018158413 0.09453404 -0.11564252 0.01126371 -0.06477049 0.080400854 0.122148
0.019066185 -0.08467285 -0.047044374 -0.08383183 -0.012188812 0.097025834 -0.022770196 0.021960529
0.10651658 0.04032491 -0.10833446 -0.048775148 -0.09167507 0.03449928 0.0844118 -0.08737627
-0.06501892 -0.07772949 -0.04426712 0.12244094 0.0066240104 0.01096402 -0.08911917 -0.05276434
0.08501859 0.049366802 -0.11990055 -0.06492138 -0.054671537 -0.05030947 0.053032577 0.13059308
0.09292955 -0.0479917 -0.084538266 -0.106090546 -0.101003036 -0.059387878 0.11273212 0.07540257
0.06713619 0.083506 -0.036446635 -0.10358266 0.048788905 0.08508048 -0.08031845 0.050241686
-0.013948742 0.025367385 0.044561595 -0.008025434 -0.050069224 0.08250479 -0.087829836 -0.014250509
-0.07534744 0.13439746 0.100473575 -0.07143303 0.1120489 -0.0718649 -0.04044963 0.038531996
-0.07345325 -0.06252453 0.01042437 -0.11659167 0.08987013 -0.092294306 0.1027814 0.0077227224
-0.023022434 0.080565296 -0.005566534 -0.026597911 -0.117873885 -0.10400124 -0.0019187459 0.047908697
-0.055134036 0.10726652 -0.042032335 -0.075659975 0.04182673 -0.083935484 -0.011369358 0.044047188
-0.038830187 0.03094098 -0.0823865 0.056489803 -0.038204156 -0.004574889 -0.080889836 0.10245078
-0.06595647 0.060147732 -0.06157279 0.07564491 0.026619349 -0.052979626 0.10256471 -0.12951472
0.114711985 0.032540657 0.13289449 -0.059888743 -0.07754076 -0.015030711 0.039993353 -0.020028412
-0.0470563 -0.028934814 0.031097375 -0.11198111 -0.06347263 -0.0885395 0.021256492 -0.014984036
-0.112066485 -0.054146852 -0.06513041 0.11384969 0.11685268 0.056263115 0.085711926 0.10023807
0.090004206 -0.07986171 0.07991209 -0.103508964 -0.10382224 -0.058132306 -0.061782096 0.035867076
-0.12228257 -0.097067356 -0.10373468 -0.1051011 -0.056362525 -0.029990707 0.09606774 0.038607296
0.046947263 0.04921754 0.122109905 -0.12039947 0.09223003 0.06999716 -0.038241792 -0.03171897
-0.06869358 -0.08506995 0.09614409 -0.0012619917 0.09319246 0.1233632 -0.07759476 -0.0004379889
0.09249051 0.1062992 0.11250267 0.0028229905 -0.119389206 0.0464116 -0.06812561 0.02454808
-0.059234157 0.059829894 -0.011744573 0.112631224 0.051730372 -0.039616358 -0.108249776 0.120659515
-0.021005508 0.076008074 -0.054411612 0.08287348 0.12157948 0.11060337 0.051720977 0.057965543
0.0062978785 -0.027868846 0.111230336 -0.016464511 -0.07144227 0.007262622 -0.11044622 -0.08776864

l1.bias f4 [1024]
00000000: c7e4 083d 6ffc 063e 6ca4 0b3e 4f12 3bbd
00000010: 2afe 47bd d2a9 dc3d c647 74bd 63eb d63d
00000020: 1be7 e93d 4d29 843d b764 efbd d683 d73d
00000030: f1a4 41bd a427 c63c 582d 113d ddd2 0e3d
00000040: fe63 ee3c ca7a ad3c 06ab 603c 0d03 7fbd
00000050: cbdd fabd 1d7d efbd 23ce 413d dbb1 063d
00000060: 24f3 e9bd 2a6a b6bd c6ba 62bd ccf2 853d
00000070: 988d 94bd 47e1 e6bc 5c45 bcbc 64da f73d
00000080: 4a33 183e f165 273d e04b fdbd ae79 c33d
00000090: c08b ec3d 1602 6b3a f1d5 97bd 422b 32bc
000000a0: 686f 923d 7441 9f3d cef4 633d 790f f8bd
000000b0: d8c7 003e e8f3 70bd 3c39 1a3d 579e 8f3d
000000c0: 3a02 6c3d 4127 c2bd 0a4f 7a3d cf4e 123e
000000d0: 7477 ca3d 1afa 1cbd 378d 6ebc dd7d 043d
000000e0: 10d5 cebc bead cabd 5ee6 763d 3793 653c
000000f0: 8952 763d 76f9 6a3d 56a6 a1bd e869 593d
00000100: b442 c1bd 113e 68bb 4650 033e 9f40 543d
00000110: 70f5 fdbc 0781 8cba 7be0 b53d 1868 db3d
00000120: 8d12 8d3d 97ba 4bbd cb82 d53d 296a b1bd
00000130: 8add 95bd edaf 8f3d 3e09 383d 8941 ec3d
00000140: 847b 45bd a5dc 4bbd 4700 793d 33c6 32bd
00000150: 6179 fcbc be76 ecbc 8947 ddbd 264d dfbd
00000160: d280 f4bd 489b bbbd 76ab c7bd 9aad 80bc
00000170: efad fcbd d8b8 6f3d adad a0bd 88fa bc3d
00000180: f8a7 01be 80a1 d43d 6384 0cbc 5cbc 743d
00000190: 0153 31bd 525b debd 09e3 7d3d b8e8 d03d
000001a0: e964 1dbd 51b4 2e3b 803d edbd e86c abbd
000001b0: 9b4d 9ebd 246b ab3d c7b5 7d3b 9951 c53d
000001c0: f7e4 83bd 5db7 1f3d dacc ba3d 7b13 bfbd
000001d0: 2975 adbd f483 a9bd d158 f13d 3463 d63d
000001e0: 8e53 0d3d 5f72 dbbd 78fe 04be 57c8 eb3d
000001f0: c7b8 1e3d c07b a93d afec 53bd c912 5dbc
00000200: 3836 19bd bb1f b8bd ddb9 32bd 6feb 863d
00000210: 46ed c8bd 4ed3 193e a019 84bd 95e4 6dbd
00000220: 3b83 923c 755e edbd c7e0 913d 6b0a e3bd
00000230: 1b59 1bbd 6b44 b1bd 0cef ac3d e5ac a5bd
00000240: b470 b7bd cc21 f8bd b1c5 5fbd 56cc 083e
00000250: 14c2 2abd 6fdb 85bd 1ff9 c8bd 3ed5 41bc
00000260: b065 0bbc 00d7 f03d 41fd c03d ccf9 d3bd
00000270: 1886 b9bd 0b6b cd3c bd00 d4bd 9afa 9e3d
00000280: 2a96 9c3c c349 8bbd 336a 073e 8e0c 693c
00000290: b4cf 803b 318e 9cbd dee4 be3d 4d1d 3939
000002a0: a825 09bd c9bc 95bd 8d4d 943d e701 923d
000002b0: 87f6 efbd 2058 6d3d 74fe 763d 2c0d b33c
000002c0: 74d3 fa3d 7212 073d e38f 823d 5009 debd
000002d0: 2009 ca3d f12a b93d 10f1 723d cb91 84bd
000002e0: 0473 913d 894b c33d 2728 5dbc 6750 253d
000002f0: 81f2 153d 308c f13d db0c d1bd 9422 a23d
00000300: e7c1 3c3c 7933 1cbd c44d 3ebd f9c1 b73d
00000310: 4c0c ee3c 8096 bebd 59dc c2bd 1dd5 143d
00000320: b8e4 f4bd ff3c 97bd d379 cd3d 152b a6bd
00000330: 96d2 cabd c113 4cbc 78b9 ddba 8ddc 2bbd
00000340: c8d2 ebbd d096 f63d eaf3 e33d 1606 c7bc
00000350: 3170 913d dc16 2f3d ac2e ea3d 27a4 d83d
00000360: 443c e5bc 1058 7e3d ec10 ef3d b440 5fbd
00000370: 229d ec3d 2ec3 d13d b76b d93d 956f 883c
00000380: baad fcbd 9115 acbd b785 d0bd 4318 01be
00000390: 2e37 c63d f03b da3d 5719 b6bd 6185 593d
000003a0: 690a 39bd 38da d9bd 7d6f dcbd 9ca2 e2bd
000003b0: fcbd 06bd af79 90bd 65c2 0ebd efe4 f93d
000003c0: f002 debc f6c3 063e 5d4b c3bd 85c6 443d
000003d0: d278 d63a db91 013d 659b 6ebb 75e1 a8bc
000003e0: d3ae dd3c 9c66 153d f87c 9f3d 6535 b93d
000003f0: 05bd b03d f1a0 213e 9892 093e 5742 debd
0.033421304 0.13182233 0.1363694 -0.045671757 -0.048826374 0.10774578 -0.05963876 0.10494115
0.11421033 0.0645319 -0.11689132 0.105231926 -0.04727644 0.024188824 0.035443634 0.034869064
0.029100414 0.021176714 0.01371265 -0.06225877 -0.12249335 -0.11693785 0.047315728 0.03288446
-0.114233285 -0.08906968 -0.055353902 0.065404505 -0.07253569 -0.028183592 -0.022982292 0.121022016
0.14863315 0.040868703 -0.12367988 0.09544693 0.11550093 0.00089648494 -0.07413853 -0.010874571
0.07150155 0.07776156 0.055653386 -0.12112326 0.12576234 -0.058826357 0.03765224 0.07012623
0.05761931 -0.09480143 0.061110534 0.14287876 0.09886065 -0.038324453 -0.014560035 0.032346595
-0.02524808 -0.0989642 0.06027829 0.01401215 0.060137305 0.05736681 -0.07893054 0.053079516
-0.09436551 -0.0035437385 0.1282359 0.05181944 -0.031000823 -0.0010719605 0.08880707 0.10713214
0.06888304 -0.049738493 0.104253374 -0.086628266 -0.07317646 0.07015977 0.04493069 0.11535937
-0.048213497 -0.04977097 0.06079128 -0.04364605 -0.030819597 -0.028865214 -0.1080466 -0.10903387
-0.11938633 -0.09160477 -0.097495005 -0.01570778 -0.12337863 0.05852589 -0.07845626 0.092274725
-0.12661731 0.10382366 -0.008576485 0.059749946 -0.04329205 -0.10857262 0.061984096 0.102006376
-0.038426314 0.002665777 -0.11583996 -0.083703816 -0.07729646 0.08370045 0.0038713084 0.09634704
-0.06440156 0.03899323 0.091211036 -0.093298875 -0.08469612 -0.08277121 0.117845185 0.1046814
0.034503512 -0.10715174 -0.12987697 0.11512821 0.038750436 0.082755566 -0.05173939 -0.013493248
-0.037405223 -0.08990427 -0.043634284 0.06587874 -0.09810881 0.15022013 -0.064502 -0.05807932
0.017884841 -0.11590282 0.07122951 -0.110859714 -0.037926774 -0.08655628 0.08444032 -0.08089618
-0.08957043 -0.12115821 -0.054631893 0.13359198 -0.041688994 -0.06535994 -0.09813141 -0.011830626
-0.008508131 0.11759758 0.09423304 -0.10350379 -0.090587795 0.025075456 -0.10351703 0.07762642
0.019114573 -0.06801178 0.13224106 0.014224185 0.00393101 -0.07644308 0.09320997 0.0001765389
-0.033483177 -0.073113985 0.07241354 0.07129269 -0.11716943 0.05794537 0.06030126 0.021856867
0.12247363 0.032976575 0.063751005 -0.1084162 0.09865022 0.090413935 0.059311926 -0.0647312
0.071020156 0.095358916 -0.013498343 0.04035988 0.036608223 0.11794317 -0.1020753 0.079167515
0.011520839 -0.038135026 -0.04646088 0.08972544 0.029058598 -0.09306049 -0.09514684 0.036336053
-0.11957687 -0.07384681 0.10033002 -0.08113686 -0.09903447 -0.012455882 -0.0016916236 -0.04195838
-0.11514813 0.12040484 0.11130507 -0.024294894 0.07101477 0.04274641 0.11434683 0.105781846
-0.027982838 0.0620957 0.116731495 -0.054505065 0.11553408 0.10242306 0.10616248 0.016654769
-0.12337823 -0.08402551 -0.10181754 -0.12606911 0.096784934 0.106559634 -0.08891552 0.053105716
-0.045175944 -0.10637325 -0.10763452 -0.110661715 -0.032896027 -0.07054459 -0.034853358 0.12201869
-0.02710101 0.1316069 -0.09535859 0.048040885 0.0016362912 0.03163324 -0.003640854 -0.020615319
0.027060902 0.03647481 0.07787508 0.09043387 0.086298026 0.1578405 0.13434827 -0.10852497

l2.weight f4 [10, 1024]
00000000: baf4 55bb 0a5f 5dbc 48a0 8cbc 2c1b d5bb
00000010: ff9d fa3c fc1e 063d acda babd 1163 bfbb
00000020: 2919 3ebd 6b96 ed39 794b 7abd 7fcd fd3b
00000030: b7af 1d3b a68a e23b 1bbc 983d b63f 82bc
00000040: e10e fc3b e115 543c 1314 1a3c f3e9 1a3c
00000050: ba1f 633c 4362 b1bc d3ea c63a 563c da3c
00000060: f55e 453c 4cca dd3c ac0a 51bc 4aeb 143d
00000070: 76e6 07bd d228 c2bb 2bc6 4e3c 1ae6 b9bc
00000080: cc9f a43d 0f46 9f39 f037 00bc 3a3f 72bd
00000090: 232c 9e3a f617 9b3c af87 b73d c9cb a5bc
000000a0: 251f 833d 98b9 013c 3de7 d1bc 4a35 e23c
000000b0: cbff fe3c 7937 ebbb 3bd7 83bc 06a4 d93c
000000c0: 63ae b13d aabb b03c dfed 873b f38f d1bc
000000d0: 9abd 4cbd 4006 143d 1d0b 5f3d b741 0bbd
000000e0: 895f 073c cc45 3fbc 6909 c4bc eb98 393c
000000f0: ad7c ac3d c04b 8bbd 2f3e 613d 0978 40bc
00000100: ffe5 203c 0089 ce3c 4ad5 0fbd 5127 05bd
00000110: 5e66 5dbd 52f3 0d3d 67d4 04bd 7781 a6bc
00000120: 1464 74bc 04c5 3bbc daa1 e33b 1210 81bc
00000130: deeb 5fbd da62 f138 86ee 8e3d ba82 10bd
00000140: e822 c1bd 657b 4abd 8997 22bd 045f 293d
00000150: 9415 aabb 421b 3d3c aa18 893c 4ab2 783b
00000160: 7004 783d 4cc8 84bc 692c 913c 425a 19bc
00000170: 944d 84bc 4103 733b 2932 b23c 9fed babc
00000180: ba69 b1bb 1a67 1ebc 3386 103c 002a e3bb
00000190: ebd0 213c 8877 543d 07ce da3a c5b0 cc3c
000001a0: b931 1a3a 9d54 cd3c 9dc9 0fbc a86a bdbc
000001b0: 1a9f bbbc 3cf8 9abd 3108 363c 48c2 dbbc
000001c0: dcc9 db3d 4609 78bc 1cf4 29bb 3750 3dbd
000001d0: 2240 debc cfc2 303b dcd5 ac3d b35d 31bd
000001e0: b84a 0e3c fa9d 7abc a63b 6b3c 12a1 c3bd
000001f0: c161 1dbd dfe6 f8bc d617 b8bb 4256 5e3d
00000200: 3430 523d 4015 a83d 6be2 0b3c 7acc 2abd
00000210: ead6 1fbd 86ca 31bd 7f7e ae3c 9323 b23d
00000220: 4bba edbb 0473 d2bc 6a09 3bba 7cac c43c
00000230: 0956 043c c5c0 2f3d b7b2 92ba 26aa 5bbd
00000240: cb4f 063e 35c6 0fbd 832a 12bd 54c3 b6bc
00000250: 9e3a 853c 0559 993c 7195 073d ea05 ae3d
00000260: 1597 5dbd 730d 56bd 6ce3 0b3d 6372 4f3c
00000270: 8633 363c a72d a0bb 57a3 99bb 27da bd3d
00000280: 3016 db3d ef4a 49bc 228c 323d e6c7 7b3d
00000290: 7444 3f3c 49c1 1f3d 43ad f7bc ec9e 88bb
000002a0: ded8 77bc a781 9c3c 77e5 be3b beaa 98bc
000002b0: 83f0 a5bb 3981 5cbc 9f29 15bc 2649 d2bc
000002c0: 4488 94bd 2016 2a3b bb48 343c ddd2 d93c
000002d0: 02e9 52bd 9189 1fbd d3cf a2bd 24fb dfbc
000002e0: 3628 b7bb 5e96 29bd 404f ad3c 6653 f9bc
000002f0: 0bda 423c a393 ab3b 183c 0abc 1cf7 533d
00000300: 21a5 56bd c0c5 18bc beea f83c 2e9f f2bc
00000310: 4fc7 383b 8fdc 263c bf32 98bc 7536 e33c
00000320: 39d0 b53c b537 a6bb 8484 2a3d 4e63 0f3b
00000330: 936f 53bd 0d83 553d 42ad 6bbc bcc2 503c
00000340: 9aaf a83c cfc8 a23b 48fa d53b 60e9 ac3a
00000350: 4be2 ba3c f13b 74bc 736b 1a3d b030 bebc
00000360: fa5b ee3c 44dd c93d 14f5 b53d dc8d 2ebb
00000370: 5554 7e3c 5530 d2bd 5e15 9bba 2b30 f5bd
00000380: d7b6 293c ed2d 9a3c 162f 403d e76f 62bd
00000390: d0b9 813d e3fb 8dbd 69ce 303b 9e79 d73c
000003a0: fb8b c4bc cadc 413c 9b0a cf3c c0ec 8ebc
000003b0: ab21 9d3c fe26 2fbc 800e 99bb 9377 2dbd
000003c0: 2386 34bb 6821 cbbc b765 f33c b0c7 8fbd
000003d0: d308 c13c 342c 8d3c b8fe be39 ebe9 503c
000003e0: a4a0 0abc 6432 bbbc 38c6 71bc 5ee5 56bc
000003f0: e75c b83c a5be 6cbd fda0 9f3d dfcd 27ba
-0.003264709 -0.013511429 -0.017166272 -0.0065034833 0.030592917 0.032744393 -0.091237396 -0.005840667
-0.046410713 0.00045316233 -0.061107133 0.0077454443 0.0024061033 0.006913501 0.07457753 -0.01589952
0.0076922034 0.012944669 0.0094042 0.009455192 0.013862545 -0.0216533 0.0015176184 0.026640099
0.012046565 0.027074002 -0.012758892 0.0363572 -0.03317877 -0.0059252763 0.012620489 -0.022692729
0.08038291 0.0003037904 -0.007825837 -0.05914233 0.0012067597 0.018932324 0.089614265 -0.020238774
0.06402425 0.007917784 -0.025622958 0.0276133 0.031127831 -0.0071782437 -0.01609384 0.02656747
0.0867584 0.02157386 0.0041482295 -0.025581336 -0.049985506 0.036138773 0.054453958 -0.033998217
0.008262523 -0.011674356 -0.023930268 0.011327962 0.084222175 -0.068015575 0.054990944 -0.011747369
0.00982046 0.025211811 -0.035115518 -0.0325082 -0.054052703 0.034655876 -0.032429125 -0.020325406
-0.014916439 -0.011460546 0.0069467844 -0.015754733 -0.0546683 0.00011510188 0.069790885 -0.03528092
-0.09430486 -0.049434084 -0.039695296 0.04135038 -0.0051905606 0.011542143 0.016735394 0.0037948065
0.060551107 -0.01620879 0.017721372 -0.009359898 -0.016150273 0.0037080797 0.021752434 -0.022818385
-0.005414215 -0.009668136 0.008821058 -0.006932497 0.00987647 0.051871806 0.0016693481 0.024986634
0.0005882043 0.02506476 -0.008776096 -0.023122147 -0.022903014 -0.07566878 0.011110351 -0.026826039
0.10731861 -0.01513893 -0.0025932854 -0.046219077 -0.02713019 0.0026971584 0.08439228 -0.04330225
0.0086848065 -0.015296454 0.014357483 -0.09552206 -0.038423304 -0.030383525 -0.005618076 0.05428148
0.0513155 0.08207178 0.008537869 -0.04169891 -0.039023317 -0.043406032 0.021300552 0.086981915
-0.007254874 -0.02568961 -0.00071348867 0.024008028 0.008077153 0.04290845 -0.0011192177 -0.053629063
0.13116376 -0.035101134 -0.035685074 -0.022309937 0.016263302 0.018719206 0.033101503 0.08497222
-0.05409916 -0.05225892 0.034152433 0.012661549 0.011120683 -0.0048882547 -0.004688661 0.09270125
0.10697591 -0.012285932 0.043590672 0.061469935 0.011674035 0.03900269 -0.030233985 -0.0041693356
-0.015127389 0.019104792 0.005825694 -0.018636104 -0.0050640716 -0.013458543 -0.0091041615 -0.025669646
-0.07252553 0.002595313 0.011003668 0.026589805 -0.051491745 -0.038949553 -0.079497956 -0.027341433
-0.0055895103 -0.041403167 0.021155953 -0.030435275 0.011892806 0.0052361055 -0.008437179 0.051749334
-0.052403573 -0.009324491 0.030385371 -0.029616918 0.002819497 0.010184421 -0.018578885 0.027735928
0.022194015 -0.0050725588 0.041630283 0.0021879259 -0.051620077 0.052126933 -0.01438457 0.012741741
0.020591546 0.004967786 0.00653008 0.001319211 0.022812983 -0.014906869 0.037700128 -0.023216575
0.029096592 0.09856656 0.088846356 -0.0026634848 0.015523036 -0.10263125 -0.001183193 -0.11972078
0.010358534 0.018820727 0.046919905 -0.0552825 0.06334269 -0.06932809 0.0026978499 0.026303109
-0.02399253 0.011832425 0.025273612 -0.017446876 0.019181093 -0.010690449 -0.004670918 -0.042350363
-0.0027545772 -0.024796203 0.029711587 -0.07020509 0.023563778 0.017232992 0.00036429404 0.012751083
-0.008461151 -0.022851177 -0.014756732 -0.013116209 0.022505237 -0.057799 0.07794378 -0.00064012216

l2.bias f4 [10]
00000000: 61e7 80bc b986 93bd 57e8 d13d 2ea5 6c3d
00000010: ccf5 953e 5004 6cbd 58fd 723d 01ab dfbd
00000020: 728c da3d e69f 88be
-0.01573533 -0.07203431 0.102493934 0.057774715 0.2928909 -0.0576213 0.05932364 -0.10921288
0.10671319 -0.26684493
